Model/lstmmodel.pt (torch, 352805 bytes, 18 tensors)

weight_ih_l0 f4 [256, 3]
00000000: 98e4 af3e 6607 e43e 75b2 fb3e 8d2d f6bd
00000010: 04da 92bf bc4c 473f ce0b d0bf 4318 1dbf
00000020: b6c4 ef3d 535d 1ebf e707 bebc 43b5 02be
00000030: a621 273f 2870 ac3e 10a1 0a3f 2f72 02bf
00000040: 50e4 2c3f 78a3 0440 c87e 163f 3e83 26be
00000050: 684b dfbf fcf3 d43f 147f b63d c6f5 af3f
00000060: e094 eebe 0e49 e83d 3720 c13e 0299 c8be
00000070: f3c1 d1be 3646 45bf 7594 263f 79c2 063e
00000080: 4a29 0e3f 5090 a8bf f07e 6b3d 02a4 d3bf
00000090: 9498 2f3f 0df6 a83d 359d a03e 35d6 d93d
000000a0: e97c 3d3f c82b 4e3e 2658 e53e 99ab 1c3e
000000b0: 76d4 dc3e 90a8 1ebf 8eef 47be 33c0 c8be
000000c0: 9dec 37bf 0194 d0be 72f3 36bf c7b8 11bd
000000d0: 6129 a9bd 5e6a b53e c88e 813e 63d4 4d3f
000000e0: 8337 1c3f 050d 15bf 2493 ee3e 9eab 43bf
000000f0: 94b9 d3bf 2d95 163f abdb 19bf ea6b 9f3f
00000100: 23db 653e 4319 393f 4a00 85bf c3b4 babe
00000110: 2dc2 64bf 358b 1c3d f01d ff3e 8aad 1d3f
00000120: c9b6 5fbd b8e4 86be dc2a 71bf d518 df3f
00000130: b628 853e e33b 2e40 4566 c9bd 08c3 42be
00000140: aee5 193c 440e febe 9ade 81be 86b0 aabe
00000150: c9f4 523e 104d 00bf 35e5 bcbe e9d4 373f
00000160: 785f d1bd 5804 003f 8921 e4be 347f 56bf
00000170: 1409 25bf a295 d13e a6ce 563f ae0a 043f
00000180: 92b6 63c0 eaf9 b9be 9aaf babf 97b7 c33e
00000190: 57a5 2d3e f64b de3c fe89 d2bb d698 c4bd
000001a0: fad0 dabe 86bd 2abe 3994 ee3e 4ebf e53f
000001b0: c116 0440 5c4e 1b40 2161 603f b1b1 fdbf
000001c0: 9d30 acbd 2d2a 05c0 3423 a5bd 0ac5 37be
000001d0: 30d0 043f 5771 7ebf e880 43bf b5a6 df3f
000001e0: 67b4 533e 73e0 a3bd 8c1c e2bc 9a58 52be
000001f0: 7624 0e3f b3e8 003f 20a1 36bf 8006 e5bd
00000200: f5e6 ebbe e466 12bb 2994 efbd 1675 ce3d
00000210: ddad 223f 9e97 af3d 1d3d 993e 0dbb 89be
00000220: 2d24 77be 2c3e 0cbf f5ce 42bf d5ae a0bf
00000230: c0bd d53f 1dbd 16bf 22d7 d7bd 570c bf3e
00000240: 0520 b3bf aad7 33c0 446b 1abf 4a5b ddbf
00000250: 7ba9 82bf 98fc 553f 3c3b 0abf c899 f8bf
00000260: c080 943f 2323 923f 70fc 3040 cf05 12bf
00000270: 7b1d cf3e aa80 3d3d 5cb0 1a3f 24c0 f43e
00000280: bce9 68bb f5a1 123f 757a 0340 d3e9 9e3f
00000290: d46b 933d cca1 dbbf d34d 7cbf e671 c9bf
000002a0: 1d47 453f 15be 883f e564 543f 1f6b 0dbe
000002b0: bd37 0b3f 96a6 873e 6cc1 b03f b459 223e
000002c0: 311e ea3f e769 e53d 45d7 133f 3616 123f
000002d0: ac02 30bf 0a5c 333d d78e e8be d006 c43d
000002e0: 73f3 4abc 23a2 aabb 232d 3c3f 67f7 febe
000002f0: 3915 a73f 77c6 e9bd 6d50 1340 4107 dc3e
00000300: 1f43 583e d96d 343e 5f71 ff3e 5a71 0ebf
00000310: a4e8 18c0 e89c 013e 95b0 d33d 41db a93e
00000320: 7f7b 123f 9735 fa3c 413d 4b3e 0b25 553d
00000330: d6a9 663f 3e91 513e 1d01 f73e b7b4 e4bd
00000340: 5c44 653f 66b5 26bf 6506 05bf 4384 94bf
00000350: 4506 03be 5303 173d 4226 11bf 4b61 a9bf
00000360: 2b25 3abe 34a3 753b 64d3 d53d 831e 2abe
00000370: 7429 5e3e d4ab 20bf 708b 07bf 9046 ccbe
00000380: 1715 ccbe da82 58bd 0e97 09be e762 623a
00000390: c844 373f c8fa ae3e a025 d7be bdde abbe
000003a0: 0c21 a2bc 7d2d 0dbf a825 c0be 51ec 983e
000003b0: 507c e43e 0113 8fbe 5e36 18bf 7099 2cbf
000003c0: 9d81 25bd 2de7 75bd b3c0 d93a e377 30bc
000003d0: 4a69 b1bd 22de 43ba 979e 9fbe b683 f83e
000003e0: 5c7b dc3e 8642 5d3e 4c66 793d 1898 11bd
000003f0: 0a68 adbe 293e 9cbe e6e7 0cbf aba5 803f
0.3435409 0.44536895 0.4915959 -0.12020407 -1.1472783 0.7785146 -1.6253603 -0.61365145
0.117074415 -0.6186115 -0.023197128 -0.12764458 0.6528572 0.33679318 0.5415201 -0.5095548
0.6753588 2.0724773 0.587872 -0.16261002 -1.7444887 1.6636958 0.08910957 1.3746879
-0.46597958 0.11342059 0.3771989 -0.39179236 -0.40968284 -0.7706026 0.6507028 0.13160123
0.5553175 -1.3169041 0.057494104 -1.6534426 0.6859219 0.082500555 0.3136994 0.1063656
0.7401872 0.20133889 0.44793814 0.15299834 0.43130845 -0.61975956 -0.19524977 -0.39209136
-0.7184542 -0.40737918 -0.7146522 -0.035576608 -0.082598455 0.35432714 0.25304246 0.804022
0.61022204 -0.5822299 0.46596634 -0.7643374 -1.6541009 0.58821374 -0.6010081 1.2454808
0.22446875 0.7230417 -1.0390713 -0.36466035 -0.8935879 0.038218696 0.49827528 0.61592925
-0.054617677 -0.26346374 -0.94206023 1.7429453 0.26007622 2.7224052 -0.098339595 -0.19019711
0.009393139 -0.4962026 -0.25365144 -0.33337802 0.2060119 -0.5011759 -0.3689362 0.7180925
-0.10223287 0.5000663 -0.44556835 -0.83787847 -0.6446698 0.40934473 0.8390907 0.51578796
-3.5580182 -0.36323482 -1.4584839 0.38226005 0.16957603 0.02713583 -0.0064251414 -0.09599464
-0.4273756 -0.1667386 0.4659746 1.7949007 2.0638888 2.4266577 0.87648207 -1.9819852
-0.0840771 -2.0806992 -0.08063355 -0.17946258 0.5188017 -0.9939169 -0.7636857 1.747275
0.20674287 -0.08001795 -0.027601503 -0.20541611 0.55524385 0.5035507 -0.7133961 -0.111828804
-0.46074644 -0.002233916 -0.11698181 0.10080926 0.63546544 0.085738406 0.29929438 -0.2690052
-0.24134894 -0.54782367 -0.7609704 -1.2553355 1.6698532 -0.58882314 -0.1053908 0.37314102
-1.3994147 -2.810038 -0.60319924 -1.7293484 -1.0207971 0.8358855 -0.53996634 -1.942193
1.1601791 1.1416973 2.7654076 -0.57040113 0.4045218 0.04626528 0.60425353 0.47802842
-0.0035539707 0.57278377 2.0543492 1.2415107 0.07198301 -1.7158751 -0.9855625 -1.5737884
0.77061635 1.0683008 0.8296645 -0.13810395 0.54381925 0.26494282 1.3809028 0.15854532
1.8290464 0.1120184 0.5775035 0.5706514 -0.68754077 0.043788947 -0.45421478 0.09571612
-0.012387144 -0.0052073165 0.73506373 -0.49798128 1.3053352 -0.11414807 2.3017838 0.42974284
0.21119355 0.17620029 0.49891183 -0.5564171 -2.3891993 0.12657511 0.10336415 0.3317509
0.5721969 0.030543132 0.19847585 0.05203728 0.901029 0.20465562 0.48243037 -0.11167281
0.89557433 -0.6512054 -0.5196288 -1.1602863 -0.1279536 0.036868405 -0.56699 -1.3232816
-0.18178241 0.003748131 0.1044071 -0.16613202 0.216955 -0.6276219 -0.5294714 -0.39897585
-0.3985984 -0.052859165 -0.13436529 0.00086359534 0.71589327 0.34175706 -0.42020893 -0.33568373
-0.019791149 -0.55147535 -0.3752873 0.29867795 0.44626093 -0.27944186 -0.5945796 -0.6742163
-0.040406812 -0.06003492 0.0016613215 -0.010770771 -0.086626604 -0.000747176 -0.31175682 0.48537987
0.43062866 0.21607408 0.060888574 -0.03554544 -0.33868438 -0.30516174 -0.5504135 1.0050558

weight_hh_l0 f4 [256, 64]
00000000: 2b8b 55bb 4456 013c fa87 e03c 8144 3ebc
00000010: 7e8e 95bb 6752 94bb 5dfe 253b fabc 77bb
00000020: c070 1b3d f78d 3bbb 8264 9b3a cfab 7eba
00000030: 2318 8ebb 3e29 7ebc aee4 25bb 1a64 ff3b
00000040: 3fed 023c 3f37 93bc a575 e8bb 7656 6c3c
00000050: 038a 323c fc41 8639 f70c b53a 6553 32bb
00000060: dc2c f3bc ace9 65bc d44f 113c b10d c9bc
00000070: 16b1 9cbb a081 083c 5814 18b9 b284 1bbb
00000080: bca1 3d3c 0fd8 f5b9 673e bbbb 224e 50bb
00000090: d4ae d8b9 8829 75bc c786 a03c a6b5 06bb
000000a0: ef55 f83b d957 babc 9571 ba3c 1766 403b
000000b0: 7f55 81ba 8e3b 823c b81c 89b8 e2da 6fbc
000000c0: e391 5fbb 7b73 043d c9c1 e7ba d083 25b9
000000d0: e47c b63b dbde b8bb 5100 773a efee d0bc
000000e0: 1efe 8dba 204b b8bc ae05 0b3d b8b4 633c
000000f0: c5a7 313c 5d05 bd3b 0ae1 bb39 7d4c 9139
00000100: 38cc 303f d63d 8e3e 04fa ff3c 6e72 8a3b
00000110: 07ad c53d 2593 debe ab69 1e3b 8a4a 0ebd
00000120: e8f3 0a3c 19b5 a03a 5b5f 2e3e 482a cabb
00000130: ff1b cb3e 216f cbbb fa82 f63e e34e 173d
00000140: 2af3 993b a784 c93c ac9d 8f3e c53c f83a
00000150: a1e1 22bb 430f 1b3e 7035 d73b acbb 853e
00000160: d161 583c a25c ec3e a513 ecbb d5a9 4abc
00000170: c226 bfba cf4e 9c3e 738c 5abc 76be b5bd
00000180: 5ee9 8b3c 4b64 03bc 6a4c 463c d111 433f
00000190: f277 5d3e 9366 0c38 dd57 bc3e 083f 1c3e
000001a0: 0636 23bc 4a1b 023d 4422 2c3b 38aa e4b9
000001b0: a8f2 0a3e cec4 99bb ad39 9bbd 2a8a ce3c
000001c0: 6f22 2b3e 4e4b c4be 79fb a5be 97d3 0d3e
000001d0: 7d47 c63e 61b9 86b9 5a03 1cbe e00f 3e3b
000001e0: 0f87 3ebc 4ef0 cdbb 4c0f 183e 9610 0f3e
000001f0: c18d 6cbc ed3c 4ebc 6931 03bd 9f92 0a3e
00000200: 1140 143e c2cd 07bf a0d4 37bd 08c3 673b
00000210: c96e d23d b423 31be 2eeb 5cb9 1bac 82be
00000220: 3afa 893d d293 27bb b90c 75be bc17 5b3d
00000230: a131 c2bd 10e1 2e3c 7a4b 233e 56dc 2dba
00000240: de8e ff3a 0e40 87bb 7c46 713d 1079 1abb
00000250: d66a 553d 67bb 88bd 90ae 91ba bd4d 5a3d
00000260: 8d73 8c3a baf7 60be c6ad b23a 69df 3ebb
00000270: a186 0c3b 9f60 0f3d 9c66 333b da40 28be
00000280: 72b5 b1bd 82de 82bd a029 063f f67e 14bd
00000290: b8a6 19be 572b feb8 7df6 323d 2971 fb3d
000002a0: d533 7c3b 7791 0cbd 43cd 1cbb 4c38 52bb
000002b0: 4cdb eabd 3ef1 9f3a 9273 5fbe 8278 583e
000002c0: a2b5 fc3d 2da3 f0bd 9566 4ebd 5d11 66bd
000002d0: b62c 8abd 9ac1 6dbb 702e 623b 702c 513b
000002e0: b852 80be 12cd 203e 4417 83bd 86f5 5dbd
000002f0: 6433 b4bb df4b 3e3a 4e2f c4bc f032 f43d
00000300: af97 fdbd ba70 4c3a 9356 d03a 6560 833c
00000310: 4abb 4e3c 94ad f03c c4e6 6cbb 22c9 e23c
00000320: 8a24 3bbb 4f56 59b9 28ad d6bc 2e9b fdbb
00000330: f813 dc3c 1b47 94bb 9e19 213d 5477 7d3c
00000340: fe91 7a38 1867 4abb 34fa 093d 4ba1 423d
00000350: 355e 223b 2a1a f6bc 326d 0f3b 9090 b83c
00000360: 2e50 f4ba 2c29 363d bfc1 b13b ca5a 7e3a
00000370: 85dd a3ba e02f 1cba 22e2 13bb e938 7bbc
00000380: f5df 2d3b 88c6 34bd cf83 453d 7cb7 23bd
00000390: 83f9 debd ae7b 05ba 94a7 08bc 2395 4a3c
000003a0: 56e8 2e3b fb5a 6839 b842 7b39 27b4 c03a
000003b0: 07ce 93bd e2fd 953b 0112 feba a092 6fb9
000003c0: 907d 493a 34fe 0f3b fde7 f53a 174c b73b
000003d0: ba24 98bd 1d20 9f3b b0ff e33d ef16 a7ba
000003e0: 0bae bf3c 093c 11bb d993 6ebb e227 bcbd
000003f0: 421b 503b 1a85 8f3a 19a4 a1b9 9bc7 4ebc
-0.0032584171 0.0078941025 0.027408589 -0.011613012 -0.0045641055 -0.0045264247 0.0025328614 -0.0037801848
0.037949324 -0.0028618553 0.0011855515 -0.00097149325 -0.0043363734 -0.015512763 -0.0025313306 0.0077939155
0.007991134 -0.01797068 -0.0070941024 0.014424911 0.010897162 0.00025607634 0.0013813068 -0.0027210352
-0.029684477 -0.0140327625 0.00886913 -0.024542661 -0.0047818525 0.008331686 -0.00014503428 -0.0023730216
0.011574205 -0.00046891018 -0.005714226 -0.0031784852 -0.00041328988 -0.014963515 0.019595517 -0.0020555048
0.0075786035 -0.022746967 0.022759238 0.0029357725 -0.0009867399 0.015897539 -6.538018e-05 -0.014639588
-0.0034114055 0.032336693 -0.0017681654 -0.0001578473 0.0055690873 -0.005641801 0.00094223494 -0.025504557
-0.0010833179 -0.02249676 0.033940963 0.013898067 0.010843222 0.0057684616 0.00035835087 0.00027713543
0.69061613 0.27781552 0.031247146 0.004225067 0.09652143 -0.43471637 0.002417187 -0.034739055
0.008481003 0.0012261003 0.17028563 -0.006169591 0.39669797 -0.006208316 0.48146802 0.036940467
0.004698177 0.024599386 0.28049982 0.0018939009 -0.0024853724 0.1514254 0.0065676495 0.26119745
0.013206915 0.46164423 -0.0072044902 -0.012369593 -0.0014583694 0.30528876 -0.01333915 -0.08874218
0.017079052 -0.008019517 0.0121031795 0.7619906 0.21627787 3.347413e-05 0.36785784 0.1525842
-0.009961611 0.031764306 0.002626554 -0.00043614372 0.13569129 -0.0046926504 -0.0757936 0.025212366
0.16712354 -0.38338703 -0.3241842 0.13850246 0.38726416 -0.0002569659 -0.15235654 0.0029001161
-0.01162888 -0.00628475 0.14849585 0.13971171 -0.014438094 -0.012587768 -0.032029543 0.13532494
0.14477564 -0.53048337 -0.04488051 0.003536405 0.10275037 -0.17298776 -0.00021068446 -0.2552193
0.0673718 -0.0025570286 -0.23930635 0.05348943 -0.09482122 0.010673776 0.15946761 -0.0006632259
0.0019497534 -0.004127509 0.05890511 -0.0023570694 0.05210384 -0.06676369 -0.0011114646 0.053296793
0.0010715589 -0.219695 0.0013632111 -0.0029124862 0.002144255 0.035004254 0.0027374392 -0.16430989
-0.08677186 -0.06390096 0.52407265 -0.036253892 -0.15005004 -0.000121197365 0.0436921 0.12277443
0.0038483043 -0.034318414 -0.0023926056 -0.0032077013 -0.11467609 0.0012202633 -0.2182143 0.2113972
0.12339331 -0.11749873 -0.0503908 -0.056168903 -0.06746809 -0.0036278726 0.0034512542 0.0031917356
-0.2506311 0.15703228 -0.06400922 -0.054189228 -0.0054992903 0.00072592305 -0.023948338 0.11923778
-0.12382447 0.000779878 0.0015894942 0.016037175 0.012617895 0.029379643 -0.003614829 0.027683798
-0.0028555715 -0.00020726885 -0.026205614 -0.007739446 0.02686499 -0.004525078 0.03933107 0.015470345
5.974061e-05 -0.0030884203 0.033685878 0.047517102 0.002477539 -0.030041773 0.0021885154 0.02252987
-0.0018639618 0.04447286 0.0054247077 0.00097028597 -0.0012501931 -0.00059580617 -0.0022565206 -0.015333393
0.0026531194 -0.044134647 0.048221406 -0.039969906 -0.10887434 -0.0005091977 -0.008340735 0.0123646585
0.0026688776 0.00022159137 0.0002396208 0.0014702127 -0.07217031 0.0045773843 -0.0019384028 -0.00022847438
0.0007686252 0.0021971585 0.0018761154 0.0055937874 -0.0742888 0.004856123 0.11132753 -0.0012747924
0.02339842 -0.0022161028 -0.0036404042 -0.091872945 0.0031754528 0.0010949702 -0.00030830575 -0.012620832

bias_ih_l0 f4 [256]
00000000: 7815 14bd dc72 8ebe 085e fbbd ff88 a63d
00000010: a836 5e3e 2e46 8fbe 4acc d6be 9126 5bbd
00000020: 5b0b 8cbb 171c 0fbf 6ff2 3e3e 69d7 56bd
00000030: 42d9 c83e 6270 93bb 46bc d43c d7e6 91bd
00000040: 23af 8bbc 38f3 d2bb ef1c c03a 6ef2 d8bc
00000050: f407 9bbd c3b9 d73b 49b1 093b d097 503e
00000060: 6fd7 a43d 9047 fc3f c254 d8bc 4b15 33bb
00000070: e143 f6bc c4a6 b03d 3f02 22be 4338 243e
00000080: 5884 15bf fc1f 0d3c e962 503f 8e61 c0be
00000090: 56e0 923f 0b75 f3bd 0dd1 ec3b ef03 cbbe
000000a0: 3ffe 1e3d 3ced 203e d057 a9bc 61dc 073c
000000b0: c439 9c3e 34bb db3d 6ad9 16be dfe4 cfbd
000000c0: d94e 9fbf fe05 36bf aa06 a4be 94da bc3e
000000d0: db6a 483d 008a 693e dde6 1d3d 836f 3abe
000000e0: fa85 683e 5e8e 9abd 2c30 483f 930f 7cbc
000000f0: 2299 833c f3f7 d3bc 5bea bebc 7c30 cd3d
00000100: 95ab d4bb f448 95be 2557 12bd a8df 613a
00000110: 7bc4 a93d 0bc9 8fbc ff96 39bb 6705 e1bd
00000120: e8d0 76ba 1702 eebc d90c 5cbd 0e66 56bb
00000130: 2a9d 813e f6e7 0ebc d3e5 1f3c 95f5 043d
00000140: 7fbf b9bb c792 3bbc 65b3 fdbd c5f2 9c3b
00000150: cf9e de3b 2ef0 7dbd dc87 07bc 98cd 21bd
00000160: f0d7 db3d c651 033f e529 12bd 7721 e9bb
00000170: 51d3 d6bb f9f7 a43d d198 edba 96b9 ad3b
00000180: 88de c63b 89b8 d0bc 4611 0bbc a44d 04be
00000190: 3aa4 53bc 32f9 e2ba 87e0 c1bb 30ba 143d
000001a0: 4155 a63c 78b5 2d3c 110e 393b 95b0 d43b
000001b0: a570 5ebd 12bf c43d be8a 9f3c b273 a1bc
000001c0: eb52 a33c d304 a13b 81b2 883c d6cc 80bd
000001d0: 8bcc 123d 1213 f8bc 1e79 85bc dfb2 75bb
000001e0: bfc7 30bc bc37 59bd 8cbc f13d 3bfc 07be
000001f0: 3fe1 2a3d 9c02 12bb 5fa9 91bb ab8a c73d
00000200: b12e ac3d 25fa b6bf 8d76 3abe 2a3d f3bd
00000210: d526 803f 1080 003f acaf 1dbc ba49 42bf
00000220: d7cd 1b3e 0aba b53d ebec 7cbf cc14 3fbe
00000230: 6558 f83e 0e13 053e 4c54 073f 1195 28bd
00000240: 7bdd 073d d307 81bd 16ad 6e3f d314 913d
00000250: e5b8 243e 5e1b d2be 4e6b 263d e7b0 edbe
00000260: 6911 75be 21a9 82bf 6f62 9c3e 3157 983e
00000270: eb4a 993c 3743 3240 b2b2 8cbc 36a5 66bf
00000280: 76ea 243f 7c53 98be 166e 163e d00e 633b
00000290: cd0b 8bbe 8eec 763d c28a 7b3b 423b b5be
000002a0: 0e85 9f3e 35e8 883e 91c0 e0bc 2fc7 e33e
000002b0: 1caf fdbd f199 503e 8e55 6f3e f6c7 8e3e
000002c0: 76bc 17c0 40a1 6b3d f622 09bf d875 6a3e
000002d0: 02a3 91bd 0b8e 3f3f ce51 d93e 8022 e1bd
000002e0: d2aa 763d 0cc3 e1bd 8f3e fc3e b27e d0be
000002f0: acd2 ae3d 2172 c4bd f647 0fbe e0a3 0fbf
00000300: fc60 fdbd c247 1a3e 2ddd 5cbd 7efa 79bb
00000310: 47eb b7be f35a 0dbd 4ebd 57be 8652 9fbe
00000320: 19dc a0be 6d40 8f3d 0bb3 d33c 7b85 2d3c
00000330: d46d 483f 4665 45bf c0b5 7dbd bcd5 9ebe
00000340: dc50 f13b 8a06 cd3d 8521 443d 6379 b9bc
00000350: 16b9 edba a6d5 02be 88b6 fe3e ef9d c6bd
00000360: 48a8 183e 86c0 d23e 61b5 42bd 4895 0bbd
00000370: 5d36 17bc e1a2 4c3e 2eb0 39bc a76e 55be
00000380: b3e6 cf3d 61e0 16be 9f1d 7d3e ba1e 76bc
00000390: f4f5 bebe 2e82 08bb 1eb9 56be d9e7 ac3d
000003a0: 0105 bc3d 8c97 2e3d 2280 0bbc e91f 43be
000003b0: e873 eebe 08b4 e73d 1e66 b83f 4168 483e
000003c0: 436e 9e3d 1de8 ac3d 7c0a c2bd 0265 a5bc
000003d0: 3e68 bf3e feb2 81bd feab 77be 00bb 99bd
000003e0: 70fb 03bd 4b54 4d3d 6292 7c3e 1191 e9bd
000003f0: 05ed 5b3d d7bd c8be 492a c2bd b9d9 e13c
-0.036153287 -0.27822006 -0.122737944 0.08131599 0.21700537 -0.2798323 -0.41952735 -0.053503577
-0.0042738146 -0.55902237 0.18647169 -0.052451525 0.39228255 -0.004499481 0.025968682 -0.07124107
-0.017051285 -0.0064376853 0.001465706 -0.026482787 -0.07569876 0.006583424 0.0021010211 0.20370412
0.08048903 1.9709339 -0.026407603 -0.0027325924 -0.030061664 0.08625558 -0.1582117 0.16037087
-0.58405066 0.008613583 0.81400925 -0.37574428 1.1474712 -0.118875585 0.007227069 -0.3965144
0.038816687 0.15715498 -0.020671755 0.0082922885 0.30512822 0.107290655 -0.14731374 -0.101510756
-1.2445937 -0.71102893 -0.32036334 0.36885512 0.04893003 0.22806549 0.038550247 -0.18206601
0.22707358 -0.07546686 0.78198504 -0.015384573 0.01606423 -0.025875067 -0.023305109 0.10019013
-0.0064901807 -0.2915722 -0.03572764 0.0008616396 0.08289429 -0.01755192 -0.002831876 -0.109873585
-0.0009415285 -0.02905373 -0.05372319 -0.0032714638 0.2531522 -0.008722296 0.009759384 0.032460768
-0.00566858 -0.011448569 -0.123877324 0.0047896826 0.006793834 -0.06199663 -0.0082721375 -0.03950271
0.10734546 0.5129665 -0.035684485 -0.007114585 -0.0065559526 0.080551095 -0.0018127208 0.0053016646
0.0060690083 -0.025478618 -0.008488005 -0.12920243 -0.012917573 -0.0017316698 -0.0059166583 0.036310375
0.020304324 0.010602348 0.0028237144 0.006490777 -0.054306645 0.09606756 0.019475337 -0.019708488
0.019937 0.004913905 0.01668668 -0.06289069 0.0358396 -0.030282531 -0.016293105 -0.0037490649
-0.010789811 -0.053031668 0.118035406 -0.13279812 0.041718718 -0.0022279387 -0.0044452394 0.09743246
0.08407343 -1.4295088 -0.18209286 -0.118769005 1.001185 0.5019541 -0.009624403 -0.7589375
0.1521524 0.08873375 -0.9879901 -0.18660277 0.4850494 0.1299555 0.52863 -0.041157786
0.033170205 -0.063003205 0.9323286 0.0708405 0.16086157 -0.41036505 0.040629677 -0.46424028
-0.23932423 -1.0207864 0.3054385 0.29754022 0.018712481 2.7853525 -0.017175052 -0.9009584
0.6442026 -0.29751194 0.14690432 0.003464628 -0.2715744 0.06028419 0.0038382267 -0.35396773
0.311562 0.2673966 -0.027435573 0.44487903 -0.12386915 0.20371224 0.2337248 0.27886933
-2.3708777 0.057526827 -0.5356897 0.22896516 -0.071111694 0.74826115 0.42445225 -0.109929085
0.0602215 -0.1102353 0.49266478 -0.4072166 0.08536276 -0.09592081 -0.13992295 -0.5610943
-0.12372014 0.15066436 -0.053921867 -0.003814369 -0.3592169 -0.034510564 -0.21068308 -0.31117648
-0.3141792 0.0699471 0.02584221 0.010590906 0.78292584 -0.77107656 -0.06194091 -0.3102244
0.0073643755 0.10011013 0.04788353 -0.02264089 -0.0018136825 -0.12776813 0.49748635 -0.09698092
0.14907944 0.4116251 -0.047536258 -0.034077913 -0.00922927 0.19984008 -0.011333508 -0.20842992
0.10151424 -0.14734031 0.24718331 -0.015021974 -0.37297022 -0.0020829546 -0.20969054 0.08442659
0.09180642 0.042624995 -0.008514436 -0.19055142 -0.46572804 0.11313635 1.4406164 0.1957102
0.077358745 0.084427096 -0.09474656 -0.020189766 0.37384218 -0.06332968 -0.24186704 -0.075063705
-0.03222221 0.050129216 0.24665216 -0.11404622 0.053692836 -0.39207336 -0.094807215 0.027569639

bias_hh_l0 f4 [256]
00000000: 4413 16bd f772 8ebe e05d fbbd c16c a73d
00000010: 5620 5e3e 2e46 8fbe 59cc d6be 9126 5bbd
00000020: 73ff 8bbb 1bf6 0dbf bf37 553e 69d7 56bd
00000030: 42d9 c83e 5770 93bb 46bc d43c d7e6 91bd
00000040: 3eb7 b2bc 1700 d3bb 27a1 013c 57c5 d8bc
00000050: c81a 9bbd b7b9 d73b fdaa 093b 1df4 463e
00000060: a5d5 a43d 1597 fb3f 8454 d8bc 4315 33bb
00000070: a8d8 f4bc 22b2 b83d db24 19be cf85 153e
00000080: 5981 15bf fc1f 0d3c 5d87 6b3f 8e61 c0be
00000090: b52b 943f d674 f3bd 041e ed3b 9495 c9be
000000a0: 3ffe 1e3d eac4 113e c54f a9bc 4a03 073c
000000b0: 6def 933e 7bbc db3d 42c1 16be dde4 cfbd
000000c0: db4e 9fbf 38f4 35bf 7411 a5be 5c09 be3e
000000d0: d2ab 443d e6df 743e 07e7 1d3d 836f 3abe
000000e0: d480 683e ee8e 9abd cc5b 483f 991a 7cbc
000000f0: 75a2 833c 05f8 d3bc 5bea bebc 1030 cd3d
00000100: 93ab d4bb f348 95be 2157 12bd 736d 603a
00000110: b5af a93d 21c0 8fbc 0fe4 39bb 6705 e1bd
00000120: feb8 78ba 94ae f2bc d90c 5cbd 0e66 56bb
00000130: 2a9d 813e cfe4 0ebc 6f3a 203c f0f5 043d
00000140: 51c0 b9bb c792 3bbc ae44 00be 3ff4 9c3b
00000150: 72ca de3b 6bf0 7dbd 2889 07bc 98df 21bd
00000160: edd7 db3d 1166 033f 5935 12bd f12d e9bb
00000170: eaad d6bb faf7 a43d bd9c ebba 9eb9 ad3b
00000180: 8724 c63b 1bbe d0bc 970f 0bbc 6530 04be
00000190: 4e2d 53bc be3d e2ba 78db c1bb c2c7 143d
000001a0: 4155 a63c 81d0 2d3c 7841 393b bebf d43b
000001b0: f3a0 5dbd e5c2 c43d 6d3f a03c 7396 a1bc
000001c0: 9e52 a33c 3ee1 9f3b e2af 883c 59e4 7fbd
000001d0: e4a8 123d 50f3 f7bc ab5b 85bc f3b1 75bb
000001e0: a6cf 30bc 9a30 59bd a6a2 f13d 42fc 07be
000001f0: cad9 2a3d 9b02 12bb 68a9 91bb ab8a c73d
00000200: 3305 783d 6e36 bfbf 7d0d 3bbe 1de3 f2bd
00000210: c160 7c3f f4ff ff3e acaf 1dbc 1930 42bf
00000220: 7141 1e3e 3704 b93d f610 7fbf c014 3fbe
00000230: dfad f73e 63ae fc3d 878c 0a3f 996f 1dbd
00000240: 52d2 073d 7072 82bd 5d0d 6f3f 3814 913d
00000250: b1bf 223e 5db0 e6be caeb 263d 20b2 edbe
00000260: 81ef 74be 129c 82bf 5e46 883e 4ef4 3b3e
00000270: 2efd 933c 45cb 3240 fcb1 8cbc 4c60 65bf
00000280: 2ca1 233f 7553 98be 80fe 153e a451 c83b
00000290: 8238 a1be 5db4 e03d 4e33 7e3b a4d7 c2be
000002a0: 560f a03e 6c81 873e a7d6 d5bc b475 cc3e
000002b0: 9be9 bbbd c9a7 503e 690d 6d3e 5e4d 9c3e
000002c0: 9905 17c0 2dff 693d 8271 fabe 137b 6a3e
000002d0: 38e0 a8bd 566e 2d3f a729 d93e c6c3 e2bd
000002e0: 7657 983d af1c e2bd 85b0 fc3e b37a d2be
000002f0: 6a65 ed3d dd02 bcbd afab 0fbe 9a02 10bf
00000300: acbe 07be f57b 1a3e cad8 5cbd 7edb 79bb
00000310: 02eb b7be cf58 0bbd 9485 58be b05a 9fbe
00000320: 15dc a0be 6d40 8f3d 27fb eb3c fa89 343c
00000330: 5f71 483f 1865 45bf c0b5 7dbd edbe 9ebe
00000340: dc50 f13b fbab cb3d 3b31 443d 037c b9bc
00000350: ebb8 edba 03d6 02be 3f1c 003f ef9d c6bd
00000360: 1b34 1b3e 5340 d43e e750 42bd 5895 0bbd
00000370: 5d36 17bc fe9f 4c3e 9f17 3abc a86e 55be
00000380: 3be3 cf3d c8e5 16be f71c 7d3e 981e 76bc
00000390: 7cf5 bebe 8f82 08bb 03b9 56be 6ce8 ac3d
000003a0: 4605 bc3d 3395 2e3d 2280 0bbc b0d9 51be
000003b0: c050 eebe 8cb3 e73d 12bc b43f ec75 443e
000003c0: c297 9e3d f719 a93d 762a c2bd 8391 b6bc
000003d0: ba86 c23e 346e 7fbd 7cdc 77be ffc8 99bd
000003e0: 7f61 04bd 3586 503d e392 7c3e 1806 efbd
000003f0: afb2 513d 2354 c0be 1d72 c0bd 15fd e63c
-0.036639467 -0.27822086 -0.122737646 0.0817504 0.21692023 -0.2798323 -0.4195278 -0.053503577
-0.0042723953 -0.5545365 0.20822047 -0.052451525 0.39228255 -0.004499476 0.025968682 -0.07124107
-0.021815892 -0.0064392197 0.007911957 -0.026461286 -0.075734675 0.006583418 0.0021006458 0.1942906
0.08048562 1.9655482 -0.026407488 -0.0027325905 -0.029888466 0.09018351 -0.14955465 0.14601825
-0.58400494 0.008613583 0.9200342 -0.37574428 1.1575838 -0.11887519 0.007236244 -0.39371932
0.038816687 0.14235273 -0.02066792 0.00824053 0.28893605 0.10729309 -0.1472216 -0.10151074
-1.244594 -0.71075773 -0.32239878 0.37116516 0.048015423 0.23913535 0.038550403 -0.18206601
0.22705394 -0.07546793 0.7826507 -0.015387201 0.016068676 -0.0258751 -0.023305109 0.10018933
-0.00649018 -0.29157218 -0.035727624 0.0008561231 0.082854666 -0.017547669 -0.0028364693 -0.109873585
-0.0009488015 -0.029624261 -0.05372319 -0.0032714638 0.2531522 -0.008721544 0.009779557 0.032461107
-0.005668678 -0.011448569 -0.12526199 0.0047898586 0.0067990357 -0.06199686 -0.008272447 -0.039519876
0.10734544 0.51327616 -0.035695408 -0.0071160723 -0.006551494 0.0805511 -0.0017975789 0.0053016683
0.006046835 -0.025481274 -0.008487604 -0.12909086 -0.012889219 -0.0017260832 -0.0059160553 0.036323316
0.020304324 0.010608793 0.0028267782 0.006492584 -0.05410857 0.09607486 0.019561494 -0.01972506
0.019936856 0.004879146 0.01668543 -0.06247363 0.035805598 -0.030267388 -0.016279062 -0.00374901
-0.010791695 -0.053024866 0.11798601 -0.13279822 0.041711606 -0.0022279385 -0.0044452436 0.09743246
0.060551833 -1.4938486 -0.18266864 -0.11859725 0.98585135 0.49999964 -0.009624403 -0.7585464
0.15454651 0.09034007 -0.99635255 -0.18660259 0.4837484 0.12337949 0.5412068 -0.038436506
0.03315956 -0.063694835 0.93379766 0.070839345 0.15893437 -0.4505643 0.04075221 -0.4642496
-0.23919488 -1.0203879 0.26616186 0.18354914 0.018065061 2.7936566 -0.017174713 -0.8960006
0.63917804 -0.29751173 0.14647865 0.006113248 -0.31488425 0.109719016 0.0038787904 -0.38055146
0.312617 0.2646593 -0.02610333 0.3993355 -0.09175416 0.20376505 0.23149647 0.30527776
-2.3597167 0.05712812 -0.48914725 0.22898512 -0.08245891 0.67746484 0.4241459 -0.11072497
0.07438557 -0.11040627 0.49353424 -0.41109237 0.11591609 -0.09180234 -0.14030336 -0.5625397
-0.1325633 0.15086348 -0.053917684 -0.0038125212 -0.35921484 -0.03402024 -0.21144706 -0.31123877
-0.3141791 0.0699471 0.028806282 0.011019224 0.7829799 -0.7710738 -0.06194091 -0.3100504
0.0073643755 0.09944912 0.047898512 -0.022642141 -0.0018136775 -0.12776951 0.500431 -0.09698092
0.15156595 0.41455325 -0.047440436 -0.034077972 -0.00922927 0.19982907 -0.011358171 -0.20842993
0.10150763 -0.14736092 0.2471808 -0.015021943 -0.37296665 -0.0020829772 -0.20969014 0.084427685
0.09180693 0.042622756 -0.008514436 -0.20493197 -0.46545982 0.11313543 1.4119895 0.19185609
0.07743789 0.082569055 -0.09480755 -0.022286182 0.37993413 -0.062360957 -0.24205202 -0.0750904
-0.032319542 0.05090924 0.24665408 -0.11671084 0.051195797 -0.3756419 -0.093967654 0.02819685

weight_ih_l1 f4 [256, 64]
00000000: ab69 6e3c 6e85 16be b8fa f6bd d509 9b3b
00000010: f99c dd3c 489a 023e 0611 623c 886c ee3d
00000020: e19c 713d cd9e b73b 6f25 8b3e 60e7 93bb
00000030: ab26 b63b 4037 08bb 9d22 973c 8d37 693c
00000040: 96c1 acbb 79f5 9ebb 86f4 cabd 9ed4 c6ba
00000050: da0e df3c b4e9 bfbc fda9 35bb 104c 59bd
00000060: 2d56 26bd 9643 9fbe bae8 2e3c bd1a 26bc
00000070: ecdf a4ba b807 213e cf31 f2bb 818c c33d
00000080: 8303 273c 4ac7 e2bb cfe9 c33b bf97 b6bc
00000090: e32d 8fbd 8e3c f8bb 0315 833d 45e2 60be
000000a0: 28d3 a43c a651 083b 9cb3 593b 7fa1 853c
000000b0: eb77 5b3c b081 3f3c 01fb 77bd 3261 5c3e
000000c0: caea d6bc cc12 e0bd 67f7 22bd da70 16be
000000d0: 2d89 f13d dbff 2d3d 6fbc c7bc 2516 35bc
000000e0: e093 893c 954b c73d 52a5 903e 1578 c23d
000000f0: c401 d83b a62c ec3c d9e6 1d3e b850 aa3d
00000100: d006 f33b 87ab 90bd d34c bc3c bf1c b4ba
00000110: 86e2 f039 11d1 a9bc 587c 723d a222 85bc
00000120: c31d 033d 778e fb3a 2f33 41bd 653b e03a
00000130: c6b1 ea3d d48c 45bc bf52 0c3d 1648 ca3b
00000140: 043a 953b 21b0 13bc 12bc 04bd 708f a93c
00000150: 2436 f73c e258 97bd a33d bc39 7132 103b
00000160: 66f8 6fbc 41e0 12be eeb9 5cba 6b7a 59bc
00000170: 5a60 f7bb 553e 10bb 297b 88bc 313a 1f3d
00000180: e4ba 113c 3581 53bb 0e45 c23d 6c8b 4e3c
00000190: a3d9 313c c12f 80bc 86c7 423c 0ff0 51bd
000001a0: 154f 3bbc 849f 74bc 6ab2 4c3c e71d c7ba
000001b0: 7209 9f3c c64b c53b fbab 8339 bd51 55bc
000001c0: 5214 26bb 7b16 583c 1314 07bd d295 093e
000001d0: 236f df3d 1a7f b93c d920 94bc 65cf 58bc
000001e0: fe6c 21bc 5ad4 8dbc a9f6 963c 1d15 c13c
000001f0: 4510 d23c e6e2 9bbd 22d4 92ba 348a 8e3c
00000200: d346 8b3e 116d 933d 76f6 99be c650 29be
00000210: 4531 433e be77 8bbd 04f5 643d 8355 363e
00000220: b38f 50be 6172 043d d9c4 6c3c aaec 063a
00000230: e255 09bf 09b5 583e e7cc c63e e5ea bebd
00000240: c23c 243c 5c89 c1ba bf6a c73e 9b56 c03b
00000250: fbbe 58bd 9085 49bd 9299 a1be dda1 903e
00000260: a355 613d 3475 7abc 7087 82bd 8617 5cbe
00000270: 8b83 2dbe b042 ab3d cc6e 95bd 4d07 17be
00000280: 1db6 99bc 4e36 e4bd 6290 c2bd f83d 1e3d
00000290: 1fa7 5ebe 0131 81bc 6fb7 f63d b646 d33d
000002a0: 8ce2 08bd 3072 79bd 265e 003e 1f0d 983d
000002b0: 67aa 17bd a873 9a3c b405 7ebe 4f18 be3c
000002c0: dcc8 3bbd 1ca7 cfbd 4da0 86be 4678 983d
000002d0: ccd0 52be 08fc 44bc c1c9 b73d 6847 d23c
000002e0: d374 cc3d e356 56bd 12c1 0c3d 99c1 d2bc
000002f0: a5a2 10be 2d46 e9bc bf99 4ebd 0e6b a43e
00000300: ac40 713d 328f fc3c c0c6 bcbd 848d 2ebd
00000310: 1f13 33be c513 75be acc2 41bd a702 03be
00000320: 3550 e33d 4c07 2a3b 6c62 603e fa98 8aba
00000330: 38d0 633e e369 fbbb 60f5 07be 48f8 a4bc
00000340: 28d7 abbb 4efd 6f3d 3a9b f1bd d5c2 2fbc
00000350: c9a0 243b d78f 523e d325 bc3a fe27 d3bd
00000360: 6256 9c3a d4a1 dd3a f84f d9bc f5a6 c7bb
00000370: a6eb 92ba 312e f5bc d23a 31bd 6994 e13d
00000380: 2c48 a5bc 2beb 043b 3f2b b7bd b087 6a3c
00000390: 0745 8b3e 064c 03bc cf15 4cbd fc55 1abe
000003a0: 05c0 8f3c d904 4cbc 710c a53c fdeb c3bb
000003b0: 5c4a 353e 08e1 acbc b9e3 163e ca1d 1cbe
000003c0: b1d1 ebbb 4c4d 743d b8e1 653d fcf1 103e
000003d0: 94f2 ba3e 8610 12bb 7af2 1bbd 9c20 46bc
000003e0: c61c 3c3d 0964 3ebd a0c4 993b a854 673e
000003f0: f624 a6bc 7803 2dbd 4b82 e63c 0496 ebbd
0.01455156 -0.14699337 -0.120595396 0.0047313967 0.02705239 0.12754166 0.013798004 0.116417944
0.058987502 0.0056036473 0.27176997 -0.004513666 0.005558809 -0.0020784885 0.018449122 0.014234436
-0.0052721007 -0.00485104 -0.099099204 -0.0015169566 0.027228761 -0.023426868 -0.002771973 -0.053051054
-0.040609527 -0.3110625 0.0106756035 -0.010138211 -0.0012578941 0.157256 -0.0073911916 0.09548283
0.010193708 -0.0069207298 0.0059788 -0.022289155 -0.06991174 -0.007575578 0.06400492 -0.21961315
0.020120218 0.002080062 0.0033218628 0.016312359 0.01339529 0.011688635 -0.06054211 0.21521452
-0.026235003 -0.10941085 -0.039786723 -0.14691487 0.11793742 0.04248033 -0.024381844 -0.011052643
0.016794145 0.09731213 0.2825113 0.0949556 0.0065920074 0.028829884 0.15420093 0.08316177
0.0074165836 -0.07063966 0.022985851 -0.0013741477 0.0004594514 -0.020729573 0.059200615 -0.016251866
0.032010805 0.0019192238 -0.047167953 0.0017107545 0.11459689 -0.012057502 0.0342586 0.006173144
0.004554035 -0.00901416 -0.03240592 0.02069828 0.030177183 -0.0739 0.00035904077 0.0022002722
-0.014646625 -0.14343359 -0.00084200397 -0.013273816 -0.007549328 -0.002200981 -0.01666029 0.038873855
0.008894656 -0.0032273058 0.094858274 0.012606483 0.010855111 -0.01564777 0.01188839 -0.05125433
-0.011432429 -0.01493061 0.012493709 -0.0015191407 0.019413684 0.006020996 0.00025114403 -0.013019976
-0.0025341702 0.0131889535 -0.03297813 0.13436058 0.109098695 0.022643615 -0.01808207 -0.01323304
-0.009852646 -0.017313171 0.018428164 0.023569638 0.025642524 -0.07611637 -0.0011202137 0.017399885
0.27202472 0.07198537 -0.30070847 -0.16534719 0.19061764 -0.068099484 0.055897728 0.17806058
-0.20367317 0.032335643 0.014451229 0.000514696 -0.5364667 0.2116281 0.38828203 -0.09322146
0.010024251 -0.0014765668 0.38948628 0.005869699 -0.05291651 -0.04919964 -0.31562477 0.28248492
0.05501331 -0.015286732 -0.06373489 -0.21493348 -0.16944711 0.08362329 -0.072965235 -0.14748879
-0.018763596 -0.1114317 -0.09500195 0.038633317 -0.21743439 -0.015770437 0.12046706 0.103162214
-0.033419177 -0.060899913 0.12535915 0.07424378 -0.037027743 0.018853977 -0.24806863 0.02320495
-0.04584585 -0.101392955 -0.26294175 0.07444815 -0.20587462 -0.01202298 0.089740284 0.025668815
0.0998322 -0.052328955 0.034363814 -0.02572708 -0.14124544 -0.028475845 -0.050439592 0.32112926
0.058899567 0.03083 -0.09217596 -0.04261543 -0.17487763 -0.23933323 -0.047304794 -0.1279398
0.11099283 0.002594429 0.21912545 -0.0010574155 0.22247398 -0.007672535 -0.13277197 -0.020137921
-0.0052441545 0.05859118 -0.11797185 -0.010727604 0.002512025 0.20562683 0.0014354534 -0.10310362
0.00119276 0.001690919 -0.02652739 -0.006092901 -0.0011209145 -0.029929252 -0.043268986 0.11014635
-0.020176016 0.0020281773 -0.089437954 0.014314577 0.272011 -0.008013731 -0.049825486 -0.15071863
0.017547617 -0.012452328 0.020147534 -0.0059790597 0.17704147 -0.021103397 0.14735307 -0.15245739
-0.007196628 0.05964403 0.056123465 0.1415481 0.36513197 -0.002228768 -0.03807304 -0.012092736
0.045925878 -0.04648212 0.004692629 0.22590888 -0.020281296 -0.042239636 0.0281383 -0.115032226

weight_hh_l1 f4 [256, 64]
00000000: 1fbc d2bc 14b7 2cbd 7ee9 c53a 4722 673c
00000010: 2116 c63d 7bfd 003e ec86 093c 2703 b53c
00000020: 511f bdbc df13 ddbc 9521 5d3b 7aa8 31bd
00000030: 9636 26bb 70c6 74bb 3a2d 803d 325e 3b3d
00000040: 1f23 53bb afbd 0d3d 44b2 0bbc cfb2 353c
00000050: 7e4b c53b 713e 7e3c cb41 183b 3cd2 f43b
00000060: b924 58b9 cb2a 2c3a 6107 f03b 44de bf3c
00000070: 25e1 0e3e b191 35bc 261f 953b fd6e 0dbb
00000080: e4ac 9dbc 0717 383c f736 6e3b 8afc 803a
00000090: f752 aa3b c93d 573c 11db 893c 011e 99b7
000000a0: 03e4 d0bc b6cb 883d a59d 8e3d 79f2 37bc
000000b0: 41d4 993d 1892 4cbd f345 053c a716 b3bc
000000c0: 26c6 003c 6d3d 3a3b bb99 30be e31d 063d
000000d0: 2479 63bd 9880 b4bb b2fd 0bbd 1e15 11bd
000000e0: 3e8b 1a3d dc51 1d3d 449e 84bd 3fbf ef3b
000000f0: 65a1 07be bbd0 933d 6c1e c43d 4628 b43d
00000100: 4246 48bd cb30 00bd 2503 d9ba b828 663d
00000110: 57d0 a4bc 0373 3f3b b2ab 1c3c afea cf3b
00000120: 5811 1bbd 0536 c0b9 e61b b93a 2f42 81bd
00000130: 90b5 bb38 2d90 9ebb 5938 c83a d206 39b9
00000140: cef0 b5bc ff79 c3ba dae3 a4bc 7274 0fbc
00000150: d4c9 7dbc fcbf ddbb bb19 31bc fd28 713a
00000160: 826a 8bbb f671 3abb f88e 323c 5915 68ba
00000170: 09a2 ae3d 2459 013c 001a 363c 70b0 22bb
00000180: 3d2f 88bc b08c cf3c 3a7d a43c 8c45 bb3b
00000190: d7c5 d43b 7aa3 8a3d 7a78 c83c 781b 1a3a
000001a0: 3236 7ebd d73b 893d ce98 133d 3bf7 73bd
000001b0: 7882 aebc 6575 ccb9 ba4a 8f3c bb95 77bd
000001c0: 618b 813b 6b26 2bbc f411 cbbd 5f0a dbbc
000001d0: d521 12bb c168 f5bc ee2f a33b 4f20 c9bc
000001e0: f622 2d3d 76c7 9cbb 3d65 5bbd 8b41 863b
000001f0: 0a5d 65bc 361b 6b3c 0515 0fbb 3644 643c
00000200: 640f f63d fcf7 21bd 4152 51bc d6f0 983c
00000210: 2213 2fbd d404 acbc 580e bf3d 7afa e63e
00000220: d061 11be df5f 2aba e911 603e 7f3c 68bd
00000230: e6e5 cc3d adb4 28bc 5ada adbd fb7b a5bb
00000240: bfea 253d fa56 08be 1196 8bbd 1e5b 493e
00000250: 1381 b93c 7fd3 463b 9894 b9bb eb8f 5d3d
00000260: c03a bebb 6f4e a73c 585b 5b3c 1cf7 bcbd
00000270: 5e62 27bc a19c 14be 5703 523c 7428 003c
00000280: 5fc8 9b3d 1602 203c a38e 903d 064b 7c3c
00000290: 96ba 6f3a 3a13 db3b 0774 8e3d ae7d 5f3b
000002a0: 535f 923d eb44 81bc 8b89 c93c 552d 74bd
000002b0: 0e66 87bc 27ce 99be f744 f33b 344e 62bd
000002c0: 4f48 0bbd 4d54 0f3d c267 6abd adc3 73bc
000002d0: 3cd5 cbbe ce32 38bd 8de0 72bd d764 943b
000002e0: 8bef 2c3b 2d6d 20bd d784 c23d 382f d3bc
000002f0: 100c cfbd b313 953d 0529 95bd 8860 153c
00000300: e701 8cbd a447 92bc 2ddc f8bc 7317 3ebc
00000310: b5ae 47bd f443 04be 2588 0f3b 9ed9 52bd
00000320: 475c 38bd fc51 eb3d 5b7f 1dbe 04e7 513c
00000330: 577a a0bd 8881 25b9 d02d 803d 7575 be3d
00000340: 0923 89bb 3dff a1bc 5a12 113c 52df 2cbd
00000350: 2fe0 8abd 37d5 313c c8a1 78bb a312 0cbd
00000360: 31d7 163c bdb7 36bd 8d58 233a 4d06 d0bc
00000370: 33bd 523d e14f 6dbd 8ffc 623c 5e90 36bb
00000380: ab59 08bd a499 75bc 77ea 9ebd 1454 013d
00000390: e1d5 8d3a e57f 13bd d7e7 103c 5687 69bc
000003a0: c84b ccbb fb7d 17bd 22c8 38bd 5c05 b4bb
000003b0: 823a a73c 68a9 ac3d 89ec 44bc 39ec 28bd
000003c0: f645 c23b 0c03 8d3c e766 bc3d 1c99 0c3d
000003d0: 1816 2b3e 9a3f a639 3ec5 f43c 7de7 143e
000003e0: 7ded c1bc b849 db3c 29aa edbc 0470 1e3b
000003f0: f0bd 87bd c93f c3bc d344 89bd 665d 17bd
-0.025724469 -0.042166784 0.0015099493 0.014107293 0.096721895 0.12596695 0.008393984 0.02209623
-0.023086222 -0.026987014 0.003374194 -0.043373562 -0.0025362126 -0.0037349723 0.06258626 0.04574413
-0.0032216979 0.034604724 -0.008526389 0.011089995 0.0060209623 0.015517817 0.0023232575 0.007471351
-0.00020613045 0.0006567656 0.0073250984 0.023421414 0.13953073 -0.011082099 0.0045508323 -0.0021581047
-0.01924748 0.011235959 0.003634868 0.0009840888 0.0051978785 0.013137289 0.016828092 -1.8252993e-05
-0.02549935 0.0667948 0.06963662 -0.011227244 0.07511187 -0.049944013 0.008134353 -0.021861387
0.007859742 0.002841796 -0.17246144 0.032743346 -0.05553545 -0.0055084936 -0.03417749 -0.03542053
0.037730448 0.038408145 -0.06475499 0.0073164995 -0.13245161 0.072175466 0.09576115 0.08796744
-0.048895128 -0.031296533 -0.0016556723 0.056191176 -0.020118875 0.002921284 0.00956242 0.006345115
-0.037858337 -0.0003666134 0.0014122694 -0.06311452 8.9506735e-05 -0.0048389644 0.0015275582 -0.00017645516
-0.022209551 -0.0014913677 -0.02012818 -0.00875579 -0.015490014 -0.006767271 -0.010809357 0.0009199528
-0.00425464 -0.0028449274 0.010898344 -0.00088532787 0.085269995 0.007894788 0.011114597 -0.0024824403
-0.016624087 0.02533564 0.020079244 0.0057150777 0.006493311 0.06769462 0.02447151 0.0005878727
-0.062063403 0.06700867 0.036034398 -0.05956195 -0.021302447 -0.00038997378 0.017491687 -0.06044553
0.003953383 -0.010446171 -0.09915534 -0.026738344 -0.0022297997 -0.029957177 0.004980079 -0.024551539
0.04226967 -0.00478452 -0.053563345 0.004097169 -0.013999233 0.014349749 -0.0021832597 0.013932278
0.12014654 -0.039543137 -0.0127759585 0.018669527 -0.042742856 -0.020998396 0.09328908 0.45112973
-0.14197469 -0.0006499271 0.21881832 -0.05669832 0.10004787 -0.010296983 -0.08488913 -0.00505018
0.040507074 -0.13314429 -0.06815732 0.19663665 0.022644555 0.0030338464 -0.0056634657 0.05409233
-0.0058053434 0.020423142 0.013388477 -0.0922682 -0.010216324 -0.14512874 0.012818179 0.007822145
0.07606577 0.009766122 0.07058456 0.015398746 0.000914493 0.0066856416 0.06955724 0.003410201
0.07147088 -0.015779933 0.024601718 -0.059613544 -0.016528156 -0.30040094 0.0074239927 -0.05525036
-0.034004506 0.034992505 -0.057227857 -0.014878196 -0.39811122 -0.044970326 -0.05929618 0.0045286226
0.0026387896 -0.03916662 0.094979934 -0.025779352 -0.101097226 0.07279148 -0.072832145 0.009117253
-0.068363 -0.017856427 -0.030378425 -0.01160227 -0.048750598 -0.12916547 0.0021901217 -0.051477067
-0.045009878 0.11490247 -0.15380614 0.012811426 -0.078358345 -0.0001578388 0.06258738 0.09299747
-0.0041850847 -0.019775027 0.008854473 -0.042205162 -0.06781041 0.010854057 -0.0037938226 -0.03419746
0.009206579 -0.04460882 0.00062311516 -0.02539363 0.051449966 -0.057937507 0.01385416 -0.0027857046
-0.03328864 -0.014990244 -0.07759564 0.031574324 0.0010821187 -0.03601064 0.008844337 -0.014253458
-0.0062346198 -0.03698538 -0.045112737 -0.005493803 0.02041364 0.08430749 -0.012019285 -0.041240904
0.00592875 0.017213367 0.091993146 0.034325704 0.16707647 0.00031709374 0.029879209 0.14541431
-0.023672814 0.02676855 -0.029011803 0.0024175653 -0.066280246 -0.023834126 -0.0670258 -0.036954306

bias_ih_l1 f4 [256]
00000000: 2042 d23d 0f51 0a3e 4a08 64be 2c26 50be
00000010: 1aaa 383e 4d78 35bf e44b a23d c15c b93f
00000020: 47d7 413d e273 823e 1c92 f53e 43ee 0dbd
00000030: 0a38 1dbf a569 5fbd 85db 48bd 2ab4 b03e
00000040: dfd9 22be 5654 38be 3440 c33c 3e97 34bd
00000050: f546 e6bd 64d6 9b3d 5485 e9be 0966 f4be
00000060: 7cfa d5bd c8d5 fdbe 38f3 77be 37ba b03c
00000070: e2ad 28bd 2ce1 3a3d 68c1 7b3c 1bb7 c8bd
00000080: aaaa 2dbd a8a9 073d d667 8cbe 54ae 53be
00000090: 4a54 3abf 7af8 763e add4 163d 9549 3ebf
000000a0: 0e0e 103e 8f9a 053e 872a eabe acd8 09bf
000000b0: bec1 1ebd c319 2dbe 64cd 71be e41d debe
000000c0: 3b73 143e 287a b03e e73d e83e 9326 383e
000000d0: 2254 933e 2011 633d 8932 0d3f e411 a03e
000000e0: 7723 433d 4f98 643e dc0c 843e 742a 52bc
000000f0: 09be ccbe dbda 4fbd fc71 093e 9383 da3d
00000100: 506b 863e 54f0 a53d 86f7 f6bd ea5d 5ebd
00000110: bb2a 35be 6394 d73c c862 1d3d 853f 503f
00000120: df04 6b3e 1895 8ebe 9ac9 dc3e 0e71 223d
00000130: ee87 bcbe 318d e4bc 8075 473e e8af 1a3e
00000140: e542 f8bd 2d56 babe d95a a33d 6ef0 813e
00000150: 2b35 ce3d c6d3 3d3c 673e 67bd 5992 36bd
00000160: 6048 173e d9cc 2fbe 5069 08be 874a 3ebe
00000170: 0965 88be ce7a 27be 3e32 f13b e898 b6bc
00000180: 575e b63d eab2 01be 2c65 07be c290 bdbc
00000190: 85e0 3dbe 7d3e 73be 21fc 2cbc f989 82be
000001a0: 7c9b 123e 9306 433d 8d8a 78be a276 97be
000001b0: aefb c4bd fe8f 04bf a714 1dbc 1982 67be
000001c0: acd0 68be 49fe 30be 70c1 333e 52ca febd
000001d0: edc8 163e 092a 923d 9d07 87be 1bfb 10be
000001e0: 5d0c 323e 0d42 2c3c b3e0 58bc 2622 b13c
000001f0: 4598 ac3e 559e 8c3e a262 e0be c940 44bb
00000200: d74b 013e 1ebf 34bf 80a5 0fbf 95b2 383e
00000210: 7f33 f43e 6c96 ef3e 8ce5 50be 13b0 003f
00000220: 0bed 52bc 6b49 80be 7401 5cbe 5925 d1be
00000230: 047d ca3e e581 593d 3432 38bd 6689 95be
00000240: 1989 acbe 7289 753e f169 0e3f 2910 6a3e
00000250: 0d30 febd b88c e43d 6f44 433d 4e78 1c3f
00000260: 124c a3bf 6765 223f 2085 c33d 272d 253f
00000270: fa6b fa3b 4656 9f3e 8581 95bd a05f 82bc
00000280: d265 29bf 0758 863e 6b33 023f 9ffb f1be
00000290: 0439 aa3c 87b0 a53f 2d77 2f3e d741 993f
000002a0: 1dfd 33be 9d25 f23d 912f 133d 846e 18be
000002b0: e481 38be 85af 23bf b5f3 f5be 6d87 203c
000002c0: afc5 4abe fbed 183e a508 50bf b56a 303b
000002d0: d0ee 14bf 1ae7 c2bb 45ef 6dbf 0c5a 8ebd
000002e0: 4a77 3a3f d691 2dbe d66a 8abe 72d8 033f
000002f0: 4cb8 e33d 8cd0 573f 10ac 943e 0abf c83e
00000300: 3d49 c43e a2da e2be e3ba 6bbd e234 393e
00000310: b6ba 8abe cf40 85be 7394 10be 21fe a43f
00000320: d7da 303f e38b 05be 00e6 31bd 3e3a a43d
00000330: 50f0 eabe 93c5 55be 75f9 69be 2347 b33e
00000340: 9bb4 89be 867d 3b3f 628a 23bd 0cb2 903e
00000350: 5e99 e73e e8c2 8bbe 9a2e 9abe d42a 2d3e
00000360: b34b 9fbe e28a 53be 7e70 07bf a6a6 3a3d
00000370: 5106 053f df68 adbe b44f 91bf df98 65be
00000380: c8d8 2fbe ea8a 79be 8f45 a33c d6a7 94bd
00000390: 2942 afbe 82d0 3ebf ab1b b7be cc3b e33e
000003a0: 752b d4be eb35 a0be e3bd d3be 4bd6 4c3e
000003b0: e454 2cbb 8bf3 0e3f 224b 2ebe d4e7 06bf
000003c0: bd89 b3bd 4477 3abf a41d 78be 70a4 32be
000003d0: 538f 00bf d8f6 8abe 9f3e ecbd 59fa aa3e
000003e0: e4e1 bebe fee9 10bf 9f6e e8be 7b9d 12bf
000003f0: 53c4 f93d 5ad4 12be aefb dd3e 222a 37bf
0.102665186 0.13507484 -0.22268787 -0.20327061 0.18033639 -0.7088669 0.07924631 1.4481431
0.047324445 0.25479037 0.47963035 -0.034651052 -0.61413634 -0.05454411 -0.049037475 0.34512454
-0.15903424 -0.18000922 0.023834325 -0.04408955 -0.11244003 0.07609251 -0.45609534 -0.47734097
-0.10448167 -0.49577165 -0.24213874 0.02157317 -0.041181453 0.045624897 0.015365936 -0.098005496
-0.042399086 0.03312078 -0.2742297 -0.2067197 -0.72784865 0.24118224 0.036823917 -0.7433103
0.14067861 0.1304724 -0.4573557 -0.5384624 -0.038758986 -0.16904359 -0.23613507 -0.4338218
0.14497082 0.34468198 0.45359728 0.17983465 0.28775126 0.055436254 0.55155236 0.3126365
0.047641244 0.22323726 0.2579106 -0.012827504 -0.39988735 -0.050745826 0.13422388 0.10669627
0.26253748 0.081024796 -0.1205893 -0.054288782 -0.17692082 0.026315873 0.038424283 0.81346923
0.22951077 -0.27848125 0.4312256 0.0396586 -0.36822456 -0.027899357 0.19478416 0.15106165
-0.12122134 -0.36393872 0.07976312 0.25378746 0.10068735 0.011586135 -0.056455996 -0.04457316
0.14773703 -0.17167987 -0.13321424 -0.18583117 -0.26639584 -0.1635544 0.0073607257 -0.022289708
0.08904713 -0.12665907 -0.13222188 -0.023140315 -0.18542679 -0.23754306 -0.010558159 -0.2549589
0.14317125 0.04761369 -0.24271603 -0.29582697 -0.096183166 -0.51782215 -0.009587443 -0.22608222
-0.22735852 -0.17284502 0.1755426 -0.12440933 0.14725085 0.07136924 -0.26372996 -0.14158289
0.17387529 0.010513795 -0.013237166 0.021622729 0.33709922 0.27464548 -0.4382525 -0.0029945842
0.12626587 -0.7060412 -0.5611191 0.18036874 0.47695538 0.4679445 -0.20400065 0.5026867
-0.012873898 -0.25056013 -0.2148493 -0.40848807 0.39548504 0.053102393 -0.044969752 -0.2920639
-0.33698347 0.23978212 0.55630404 0.22857727 -0.12411509 0.111596525 0.047672685 0.6112107
-1.275759 0.6343598 0.09546876 0.6452202 0.0076422663 0.3112051 -0.073000945 -0.015914738
-0.6617099 0.26239035 0.5085971 -0.47262284 0.02077914 1.2944497 0.17135306 1.1973218
-0.17577024 0.118235804 0.035934035 -0.14885908 -0.180183 -0.63939697 -0.48037496 0.009797913
-0.19801973 0.14934532 -0.8126319 0.002691907 -0.581769 -0.0059479596 -0.9294322 -0.06950769
0.7283827 -0.16950163 -0.27034634 0.51502144 0.11119136 0.8430259 0.29037523 0.3920825
0.38337126 -0.4430743 -0.057551276 0.1808658 -0.27095574 -0.26026008 -0.14119129 1.2890054
0.69083923 -0.13041644 -0.043432236 0.08018921 -0.4588647 -0.2087615 -0.22849067 0.3501521
-0.26895604 0.7323841 -0.039926894 0.2826084 0.45234197 -0.2729714 -0.3011368 0.16910869
-0.3111244 -0.20658448 -0.52906024 0.045569085 0.51962763 -0.33869073 -1.1352448 -0.22421597
-0.17172539 -0.24369398 0.019930629 -0.07258575 -0.34230164 -0.7453691 -0.35763296 0.4438156
-0.41439405 -0.31291136 -0.4135581 0.20003621 -0.0026295716 0.5584037 -0.17020848 -0.5269749
-0.08766506 -0.72838235 -0.24230057 -0.1744554 -0.50218695 -0.27141452 -0.115353815 0.33394125
-0.37281716 -0.56607044 -0.45396897 -0.57271546 0.12195649 -0.14338818 0.4335608 -0.71548665

bias_hh_l1 f4 [256]
00000000: a5d5 d23d ea58 0a3e 82e6 2cbe 5519 51be
00000010: 2f2c 393e b58b 3ebf e44c a23d c1c1 bb3f
00000020: 74e5 413d 4592 723e ec38 da3e e159 0dbd
00000030: b73e 1dbf bc79 5fbd dd5b 06bd cd05 ab3e
00000040: bac9 1bbe 4abd 42be 76c0 c53c c04e 34bd
00000050: c886 e6bd 8a1a 9c3d ea88 e9be a91f f6be
00000060: 97b7 d5bd 970b f9be 41eb 77be d86b cf3c
00000070: 2122 28bd 26bb 713d 91c1 7b3c 5782 c8bd
00000080: 38b8 2dbd 0af6 033d 146e 8cbe 104c 67be
00000090: e2cc 39bf e7fc 763e 28d8 1b3d 8e7a 3ebf
000000a0: 2815 103e 519f 063e 9b57 eabe 29ab 09bf
000000b0: 613f 23bd 546b 29be abac 66be c9e2 dabe
000000c0: 8803 153e b4cc aa3e 9549 f43e c682 453e
000000d0: c282 923e 9074 623d 55de 0c3f ed14 ad3e
000000e0: e8d8 4f3d dd1d 643e e8ce 843e ff92 cdbb
000000f0: 0139 cbbe afb6 50bd 6ad9 093e d982 da3d
00000100: da52 8c3e 80f0 a53d 5160 f7bd c75d 5ebd
00000110: 022a 35be a88f d73c fce6 1e3d 177b 503f
00000120: 895b 673e 0f9a 8ebe bc04 e63e 51af 223d
00000130: 9c1a bcbe 918a e4bc 76de 6a3e 2aaf 1a3e
00000140: d7c4 fcbd c9f0 b8be d874 bc3d 219f 813e
00000150: 8865 c93d 6ceb 3d3c 9443 67bd 3a8d 36bd
00000160: 9c47 173e c885 33be 8c4e 08be 914b 3ebe
00000170: be91 89be 7ee2 0ebe cf81 f13b 6877 b6bc
00000180: 725c b63d f669 01be 676f 07be bb8e bdbc
00000190: 014d 3dbe 0330 73be a048 30bc 0464 82be
000001a0: 1966 123e 030c 443d 4ebb 79be 2176 97be
000001b0: d100 c5bd 7380 04bf 9d9b 75bc f437 62be
000001c0: 23e8 68be c9fe 2fbe 1515 283e f235 07be
000001d0: 71d8 163e a2dc 913d fcdb 86be 10b4 0abe
000001e0: e60a 323e 3ee4 713c 5776 58bc d530 b13c
000001f0: 980a ad3e 06ac 8c3e cbec debe 9c30 44bb
00000200: a18f 2a3e ff55 32bf 1c38 08bf 1a00 883e
00000210: da2b f53e ef18 ed3e a24b 31be af6e 0d3f
00000220: d680 97bc 7957 85be a6b1 e2bd c8c6 cbbe
00000230: 5379 cb3e f9c7 5a3d dae4 8bbd 0e71 aebe
00000240: 548f a9be e21a 523e 37cd 143f 77ae 743e
00000250: b64f c7bd 096d ab3d 9406 413d 36c1 273f
00000260: e15a 9ebf 8868 133f 141b ca3d 080a 283f
00000270: f274 743c db8a 8b3e b74b 98bd 7b60 70bc
00000280: 03fa 28bf 208d 893e e477 d13e ced5 e7be
00000290: 0539 4e3c 94ce a53f cda8 2f3e ae17 953f
000002a0: b67e 34be bcf7 eb3d d80a 1c3d a5b8 17be
000002b0: 871b 38be a430 17bf e88b 1ebf ae1c 9d3c
000002c0: 8466 4abe 741d 0c3e 675d 58bf 0036 af3c
000002d0: 3b8e ebbe 03b3 833a c75d 74bf 1c9f c5bc
000002e0: 1de4 3b3f e6e4 2fbe f457 8cbe 5069 003f
000002f0: cbea 543e efe7 573f 3bcc 643e 46ba c53e
00000300: e589 be3e bea6 debe 85b4 7abd b6b7 333e
00000310: df92 84be 7e9f 7dbe 436f 13be 65f5 a43f
00000320: 47d4 2d3f 1f2f 09be 792e b3bc 17a7 a43d
00000330: c0f8 e9be ffc7 55be 5d23 63be 6dd3 b33e
00000340: 337d 83be 616c 3a3f e7a4 45bd cb10 353e
00000350: 62a0 ec3e 913e 8fbe abf2 6ebe ece6 2b3e
00000360: b8ae 9ebe d6b5 42be a084 fcbe f788 353d
00000370: 8bc9 0a3f fd67 adbe e328 8fbf 03fc 6fbe
00000380: 5f9f 2fbe 1d2d 7dbe 173d 003d 0150 b7bd
00000390: aeac b1be 1d02 4cbf de0d b5be 3b85 d43e
000003a0: f6ec ebbe c5af 9cbe f2f7 d2be 863e 5f3e
000003b0: 7ba5 bbba 6285 193f 695c 33be 6b46 05bf
000003c0: 3263 5cbd ab69 33bf fbbb 48be 1b46 25be
000003d0: 154b 00bf 27a7 92be 4325 ecbd 1a0e b23e
000003e0: 5fec bfbe a0be 0abf 148e cebe 1782 13bf
000003f0: 76eb 093e 8b11 12be 49c4 de3e 4716 35bf
0.10294656 0.1351048 -0.16884807 -0.2041982 0.18083261 -0.74431926 0.07924822 1.4668504
0.047337964 0.2368861 0.42621553 -0.034509543 -0.6142382 -0.054559454 -0.03280245 0.33402863
-0.15213671 -0.1901752 0.024139624 -0.044020414 -0.11256176 0.076222494 -0.4561227 -0.4807103
-0.104354076 -0.48641655 -0.24210836 0.025319979 -0.041048173 0.05901637 0.015365974 -0.09790485
-0.042412013 0.032217063 -0.27427733 -0.2258761 -0.7257825 0.24119912 0.03804794 -0.74405754
0.1407057 0.13146712 -0.45769963 -0.53776795 -0.039855365 -0.16544849 -0.22526805 -0.42751148
0.14552128 0.333593 0.4771239 0.19288167 0.28615385 0.055286944 0.5502675 0.33805028
0.050743967 0.22277017 0.25939107 -0.006273627 -0.39691928 -0.05095547 0.13461843 0.106694885
0.2740696 0.08102512 -0.12078918 -0.05428865 -0.17691806 0.026313618 0.038794503 0.8143782
0.22593512 -0.27851912 0.44925487 0.039717976 -0.3673905 -0.027898105 0.22936425 0.15105882
-0.12342232 -0.36121204 0.09201974 0.25316718 0.09833819 0.0115917735 -0.056460932 -0.044568278
0.1477341 -0.17531502 -0.13311213 -0.18583514 -0.26869005 -0.13953587 0.0073702107 -0.022273734
0.08904351 -0.12638077 -0.1322609 -0.023139348 -0.18486406 -0.23748784 -0.010759503 -0.2546693
0.1429676 0.047863018 -0.24387857 -0.29582313 -0.09619296 -0.517585 -0.014990714 -0.22091657
-0.22744803 -0.17187037 0.16414292 -0.13204172 0.14731003 0.071221605 -0.2633971 -0.13545251
0.1738697 0.01476389 -0.013211808 0.02162973 0.33797145 0.27474993 -0.43540034 -0.00299362
0.16656353 -0.6966247 -0.53210616 0.26562577 0.4788502 0.46308085 -0.17314008 0.55247015
-0.018494051 -0.260433 -0.1106904 -0.39800096 0.39741 0.053413365 -0.06830759 -0.3407063
-0.33117163 0.20518067 0.58125633 0.23894678 -0.097320005 0.08370406 0.047125414 0.6552919
-1.2371484 0.5758138 0.09868446 0.65640306 0.01492046 0.27254376 -0.074363165 -0.01467144
-0.6600649 0.26865482 0.40911782 -0.45280308 0.012586837 1.2953668 0.17154236 1.1647851
-0.17626461 0.11521861 0.03809628 -0.1481653 -0.17979251 -0.59058595 -0.6193223 0.019178715
-0.19765669 0.1368311 -0.8451752 0.021388054 -0.4600695 0.0010047856 -0.9545559 -0.02412372
0.7339495 -0.17177162 -0.27410853 0.50160694 0.20792691 0.8433828 0.22343533 0.38618678
0.3721458 -0.4348659 -0.061207313 0.17550549 -0.25893304 -0.24767873 -0.14397912 1.2887388
0.67902035 -0.13396882 -0.021872746 0.08039682 -0.45697594 -0.20877074 -0.22181459 0.35122243
-0.25681457 0.72821623 -0.048252966 0.17682187 0.46216112 -0.27977422 -0.23334758 0.16787308
-0.30992675 -0.19014677 -0.49319935 0.044320073 0.5421378 -0.338684 -1.1184353 -0.23435979
-0.17150639 -0.2472424 0.03130826 -0.089508064 -0.34702057 -0.79690725 -0.35362142 0.41507897
-0.46079224 -0.30602852 -0.41204792 0.21801195 -0.0014316285 0.5996915 -0.1751572 -0.52060574
-0.053805538 -0.7008311 -0.19602959 -0.16140024 -0.50114566 -0.28643152 -0.115305446 0.34776384
-0.37485024 -0.5419712 -0.40342772 -0.57620376 0.13468727 -0.14264505 0.4350913 -0.7073712
