Model/lstmmodel.pt (torch, 352805 bytes, 18 tensors)

weight_ih_l0 f4 [256, 3]
000000 93 78 da bd 42 e5 b2 3c 7c 42 c1 3e f9 46 80 be
       -0.10667529 0.021837834 0.37746036 -0.25054148
000010 bf e2 88 3e b5 47 e0 3d b8 80 c8 3d 5e 94 1f bd
       0.26735494 0.10951177 0.09790176 -0.038959853
000020 52 f8 cb bd 49 36 ec 3d f3 aa 3d 3e 2b 86 09 3d
       -0.09959473 0.115337916 0.18522243 0.03357522
000030 33 01 8d 3e 99 6f 22 3e 71 dc 0e bd 76 13 84 3d
       0.27539977 0.15862884 -0.034878198 0.064490244
000040 a7 7c d0 bb f8 a3 1a be d4 3b 20 3e 75 6d 75 3e
       -0.006362516 -0.15101612 0.15647823 0.23967536
000050 a3 51 91 bd ac f5 ee bc 07 62 8c bd 99 2a c9 3d
       -0.07095649 -0.02916988 -0.06854635 0.09822578
000060 ff 4b b0 3d 83 a9 b9 3c 97 18 15 3e af 5e 32 3e
       0.08608245 0.022663837 0.14560162 0.17418931
000070 b5 a3 82 3c 15 05 ba 3d 95 db df bc 9f 40 cf 3c
       0.015947202 0.090830006 -0.027326385 0.025299368
000080 9e 9b ce 3d 15 1d 70 3e c3 44 d5 bd 6c ac 6f 3e
       0.100882754 0.23448594 -0.10413506 0.23405617
000090 27 9d 24 3e 28 6b 08 be 18 23 37 3e 8d 20 d4 3d
       0.16075574 -0.13322127 0.17884481 0.10357771
0000a0 18 41 a5 3d 66 cd 8f bd a1 b3 13 be 96 bc 3e 3f
       0.08069056 -0.070215985 -0.14423992 0.7450651
0000b0 cc 3a 06 bd 3a fe ac 3e 48 ab cf 3d f8 3c 3e 3e
       -0.032770917 0.3378771 0.10140091 0.18577945
0000c0 fb 77 3a bc 8e 69 16 be 7a 95 66 3e b4 f8 04 3e
       -0.011381145 -0.14688703 0.22517958 0.12985498
0000d0 94 a6 07 bd 2d 66 1b 3d 9f ab 0b 3e 2e 96 73 bc
       -0.033117846 0.03793924 0.13639687 -0.014867349
0000e0 66 55 97 3e 70 73 50 be 05 8e e5 bd a4 70 0b bc
       0.2955734 -0.20356536 -0.11208729 -0.008510742
0000f0 42 75 81 be 87 2f 7b be 21 57 11 3e 36 6a d0 bc
       -0.25284773 -0.24529849 0.14193393 -0.02544127
000100 64 83 a4 bd fd 93 22 3e f9 f1 a2 3e bb b3 0e 3d
       -0.08032873 0.15876766 0.31825235 0.034839373
000110 b8 7c 03 3e dd fd 18 bc e1 b4 4a 3e ab 97 f0 3d
       0.12840545 -0.0093378695 0.19795562 0.11747678
000120 e3 79 c4 3d c3 1a a5 3d f7 15 42 3e 7e 1a 33 3e
       0.095935605 0.08061745 0.18953691 0.17490575
000130 ce 7d bd 3a 44 e2 ae 3d 3f 65 05 be 89 02 af be
       0.0014457048 0.085392505 -0.13026904 -0.34181622
000140 a1 9f 33 be e2 2a ab 3c 9c 95 14 3d 2a 61 bc bd
       -0.17541362 0.020894472 0.03627549 -0.0919822
000150 49 ba 5f 3e 7b 57 40 3b 72 c4 e1 3d 25 10 01 bf
       0.21848406 0.0029349017 0.11023797 -0.5041526
000160 f6 b9 cc 3d 44 7b 15 3d 52 0a 7e bc 7c 80 cc 3e
       0.09996407 0.03649451 -0.01550539 0.39941776
000170 3e bb 13 3d 5a 39 3a be 55 23 9c be 38 d5 7e 3c
       0.03606724 -0.1818594 -0.30495706 0.015553765
000180 35 1b 3c bd c5 dd e7 3d 13 20 0f 3e 48 dd fc 3b
       -0.045924384 0.11321596 0.13977079 0.0077168085
000190 aa c0 6a 3d 23 a0 48 bd c7 fd 18 3c 50 3d fe 3b
       0.057312645 -0.048980843 0.009337849 0.007758774
0001a0 d5 16 65 bd 4d d5 61 bc 1e 33 23 3e 9d 16 3f 3e
       -0.055929977 -0.013783765 0.15937468 0.1866097
0001b0 26 04 1c 3b 26 43 0b be f3 89 11 bd bc 66 50 be
       0.0023806184 -0.13599834 -0.03553195 -0.2035169
0001c0 9a 7c 55 3f 61 de 86 3d 2c b4 8d 3e 7e 1d 45 3d
       0.8339325 0.06585384 0.27676523 0.04812383
0001d0 cb 35 a7 3e 2c 7a 1b 3d f6 43 de 3a 66 1a 74 be
       0.32658228 0.03795831 0.001695751 -0.23838195
0001e0 13 50 82 3d 47 a0 1f be ff 61 f3 3d 80 cb 93 3c
       0.06362929 -0.15588485 0.11883926 0.018041372
0001f0 9b 73 52 3e 02 d0 03 bd 04 1b 86 3d 4f 57 56 bd
       0.20551912 -0.032180794 0.065481216 -0.052329358
000200 06 b6 d2 3d f5 7b 8a 3e ad 10 dc 3d 7d 2b 16 3e
       0.102886245 0.27047697 0.10745368 0.14665027
000210 88 18 35 be 66 6e dc bd 1b f9 86 3d 4a c6 30 3e
       -0.17685139 -0.10763244 0.06590482 0.17263141
000220 b0 10 90 bb 39 aa 8b 3e ee 4f a1 bd 7f cb 99 be
       -0.0043965206 0.27278307 -0.078765735 -0.30038068
000230 6a c1 ce bc c2 2c 2c be b0 d1 41 3e 0c a4 65 3e
       -0.025238711 -0.16813949 0.18927646 0.2242586
000240 57 60 4f 3e 7b 55 9e 3e 24 80 9f bd 3c 3c 5f 3d
       0.20251594 0.3092459 -0.07788113 0.054500803
000250 2e 7a d4 3d 38 8f e8 3d ea 65 87 3e d0 f4 31 be
       0.103748664 0.11355442 0.26444942 -0.17378545
000260 23 f5 79 bd 48 5f 8a be 45 1a c0 be 5a 43 7b 3c
       -0.061024796 -0.2702582 -0.37520042 0.015335882
000270 b4 d3 82 bc 37 a2 a4 3d 2f b0 cb 3e c9 63 a7 bd
       -0.015970089 0.080387525 0.39782855 -0.081733294
000280 ee 1c 4e 3f d6 a0 d2 bc 49 33 ed 3d 3f 63 9f 3e
       0.80512893 -0.025711458 0.115820475 0.31130406
000290 80 a0 ed 3d 93 e8 60 3c a4 ce c7 3d 46 0e a0 bd
       0.116028786 0.013727325 0.097562104 -0.078152224
0002a0 3e ec fd 3c 6e 4c ad 3c 90 c7 36 3e 60 cf 13 bd
       0.030996438 0.021154609 0.17849565 -0.03608644
0002b0 a3 56 81 bd 02 43 d0 3d 9b 21 4d 3d 67 22 94 3e
       -0.06315353 0.10169031 0.050080877 0.28932497
0002c0 e8 8a 43 bd f7 5e 84 3c 15 46 b0 3d eb 30 0f 3e
       -0.047739893 0.016158564 0.08607117 0.13983504
0002d0 0d ef 71 be 7c 34 fa bd 5b c8 6b 3d e8 5b 48 3f
       -0.23626347 -0.12217042 0.05756412 0.7826524
0002e0 f1 58 e5 be 6c 0d 9f bc 63 2e de 3d 6c 4f b5 3d
       -0.4479442 -0.01941558 0.10848691 0.08853039
0002f0 e1 88 88 bd 38 3e a2 be d9 3c da be 96 23 bf 3d
       -0.066667326 -0.31688094 -0.42624548 0.09332959
000300 cc a7 85 3e 7e 81 47 3e 5f 88 83 bd 9f d9 2d bc
       0.2610458 0.19482991 -0.06422495 -0.010610967
000310 5a fe 22 3e 1c c2 3f 3e 90 54 15 3d 96 0f a1 3e
       0.1591734 0.1872639 0.0364576 0.31457204
000320 5e 2b 97 bd c9 55 1f 3e f7 41 ed 3d 86 b1 df bb
       -0.073813185 0.15560068 0.115848474 -0.0068265824
000330 e1 d4 15 3d 53 1e 81 3e 54 f3 df bc fe 76 2f 3e
       0.03657997 0.25218448 -0.027337708 0.17135236
000340 74 f7 b2 3e 75 d3 de bd 87 89 1a 3e ec 76 6e 3e
       0.34954417 -0.10880176 0.15091525 0.23287553
000350 fe f5 21 bd af 41 97 bd 20 de 09 3e be 47 ae 3d
       -0.039541237 -0.07385575 0.1346364 0.085097775
000360 b5 9c ab 3e 70 44 03 3f 15 55 d7 bd 4d cb 89 3c
       0.33517995 0.512763 -0.10514275 0.016820574
000370 b2 b3 fd 3d d1 86 2e 3d e3 7c 6a 3d 16 7f fd be
       0.1238779 0.04260904 0.057248008 -0.4951102
000380 b4 9f 9a bc f5 08 2e 3e 95 02 c0 bd 05 e2 b1 3d
       -0.01887498 0.16995604 -0.093754925 0.08685688
000390 33 32 87 3e 40 66 c9 3e 4b 5c 58 3d 1c 18 07 3d
       0.26405486 0.39335823 0.052822392 0.032981977
0003a0 a7 49 70 3e eb bf 0d 3e 6f 9f 17 3d 70 ee 4e 3c
       0.23465596 0.13842742 0.037017282 0.01263009
0003b0 60 2f a5 3d a3 3e d1 3d d8 82 b8 3e 40 17 1a 3d
       0.08065677 0.10217025 0.36037326 0.03761983
0003c0 e7 fd e5 bd 6e 01 15 bf f7 b0 44 bd 0f c4 0d 3e
       -0.11230069 -0.58205307 -0.04802033 0.13844322
0003d0 17 7a 9a 3e db 03 03 3e 67 41 94 3d b6 e4 d7 3d
       0.30171272 0.1279444 0.07239037 0.1054167
0003e0 7d 5d 3e 3e c9 cd c0 bc 82 0d ed 3d 0f 1c 24 be
       0.1859035 -0.023535626 0.11574842 -0.16026329
0003f0 a7 96 72 be 0f d8 79 be 6e e9 c9 3d e7 7d 9d bd
       -0.23690282 -0.24398826 0.09858976 -0.076900296

weight_hh_l0 f4 [256, 64]
000000 24 49 ca bb e8 14 84 3c 7a 9b b9 bc 9f 6a aa bc
       -0.00617327 0.01612325 -0.022657145 -0.020802794
000010 39 61 49 3c d6 f3 96 bc b3 de 9e bb 87 5c d9 3b
       0.012291246 -0.018426817 -0.004848325 0.0066333446
000020 0f cd a1 bc f4 39 99 3b 98 ae 1d 3a f0 d3 5e ba
       -0.0197511 0.004676098 0.0006015091 -0.0008500209
000030 6d 32 b7 3b c0 ce d7 3c 64 98 f2 3b 0b 49 f8 bb
       0.005590728 0.026343703 0.0074034203 -0.007577067
000040 e9 b6 06 bc 59 4b a0 bb 13 b3 08 bc 6c 12 9a 3b
       -0.00822232 -0.0048917946 -0.008343476 0.004701903
000050 5d 9f 8b 3c 05 00 71 3b bf fa a7 bc c5 b2 85 bc
       0.017043764 0.0036773693 -0.020505307 -0.016320596
000060 9e 8e 9a bc 44 45 5b 3b 97 78 09 bc 4d ae ed 3b
       -0.018866833 0.0033458034 -0.008390567 0.0072534443
000070 cc 44 02 bb 0a ff 69 bc d2 c3 c4 3b 95 72 95 bb
       -0.0019877432 -0.014281997 0.006004789 -0.0045607784
000080 3d 4a 2f 3c 96 40 ab 3c 38 6b 61 bc 87 73 13 bc
       0.010698852 0.02090482 -0.013758473 -0.008999712
000090 ce 29 ea 39 7b ba 83 bc 64 ef 19 3c 84 6a 71 3b
       0.00044663105 -0.016080132 0.009395454 0.003683717
0000a0 07 5c 22 bc 16 c8 c2 bb 04 c1 47 bc 3b 51 0c 3c
       -0.009909636 -0.0059442623 -0.012192015 0.008564289
0000b0 80 34 65 bc 3d fc 25 bc 55 a9 ae 3c 80 a1 51 bc
       -0.013989568 -0.010130939 0.021320978 -0.012794852
0000c0 42 4f 0e 3c 72 47 06 3c 3e 42 06 bc b7 1e 0a bc
       0.008685889 0.008195745 -0.008194504 -0.008430175
0000d0 df 4b 3a 3b 38 f8 9b bc b6 f7 6c bc 1c 87 be 3b
       0.002842657 -0.019039258 -0.014463356 0.005814446
0000e0 1b 2a 1f 3a 54 5e e5 3c 39 1e ab 3c 64 90 5f bc
       0.0006071643 0.02799908 0.020888435 -0.013645265
0000f0 43 0b 78 3c 00 c5 f4 bb a2 00 3c 3c f8 d7 60 bc
       0.015139404 -0.0074697733 0.01147476 -0.013723366
000100 63 c0 0e bd e5 6a 11 3d b3 f5 67 bd a3 d8 52 bd
       -0.034851443 0.035502333 -0.0566308 -0.051476132
000110 a9 e9 57 3c eb 1c 21 bd a2 02 2e bd f5 79 cd bd
       0.0131782675 -0.03933422 -0.04248298 -0.10033027
000120 c6 69 30 bd f4 9d a4 3b 02 8c ee 3c 66 74 90 3d
       -0.043069623 0.0050237123 0.029119495 0.07053451
000130 d9 74 88 3c af 60 18 3d 80 e3 b8 3c 8b a4 1f bd
       0.01665728 0.03720158 0.022569418 -0.03897528
000140 97 62 b2 bc 1a 2b 39 bc b3 d1 77 bd f6 51 85 3d
       -0.021775527 -0.01130178 -0.06050272 0.065097734
000150 b6 9c b1 3d 21 3f a7 3c 08 ec 7b 3b 18 1f c4 bc
       0.08672468 0.020415844 0.0038440246 -0.023940608
000160 7e 50 29 bd ee 7d 85 3c 77 59 26 bc d3 2c 91 3d
       -0.04133653 0.0162954 -0.010153166 0.07088628
000170 a7 32 b5 bd 52 45 62 bb 94 0f 1b bd b1 fd e0 3c
       -0.08847552 -0.0034526181 -0.037856653 0.02746472
000180 92 35 fc bc 8c 46 89 3d 7b f7 8d bc de b5 07 bd
       -0.030787263 0.06702909 -0.017329922 -0.033132426
000190 a6 d7 30 3b c5 e2 8d bb 3a 2e 6b bd ae e1 d1 3c
       0.0026984005 -0.0043300116 -0.057417132 0.025620308
0001a0 0b 05 86 bc c7 62 fc ba 07 c5 ad 3c e9 ab 97 bd
       -0.016359827 -0.0019255512 0.021212114 -0.07405836
0001b0 26 81 26 bd b7 8f 54 3d 95 0a 92 3d 7e 03 65 bd
       -0.04065051 0.05189487 0.071309246 -0.055911534
0001c0 8a 34 13 3d 6a 32 44 bd e0 f6 f2 ba ac cb 7a 3c
       0.035938777 -0.04789964 -0.0018536709 0.015307348
0001d0 75 fe 5a 3c ec 6e 02 3b a9 7d 89 bd 31 b2 af bd
       0.013366331 0.001990254 -0.06713421 -0.08578909
0001e0 7c 63 25 3d 86 af 85 3c 73 50 85 3d 90 4b 65 bc
       0.04037808 0.016319048 0.06509485 -0.013995066
0001f0 02 5a 8b 3d a4 40 32 bc e8 83 82 3d 97 d0 4c bd
       0.06804277 -0.010879669 0.06372815 -0.050003614
000200 a8 b1 49 be d2 58 41 3e 2d 28 91 bc e0 cd 24 be
       -0.19696677 0.18881539 -0.017719353 -0.1609416
000210 00 a0 a3 bd 6a 00 d0 bd 88 0e b7 bc 3f 6c a1 3d
       -0.07989502 -0.10156329 -0.022345796 0.078819744
000220 d7 24 ad be a5 0c b4 3d 3b e3 66 3d 66 38 55 3e
       -0.3381717 0.08791474 0.056369048 0.20822296
000230 13 7c 37 3e f1 97 0f be cb 9b 87 3e 6e 4b 6d be
       0.17918424 -0.14022805 0.26486048 -0.23173305
000240 38 1a 99 3e 59 80 15 3d 14 54 88 be 5a c7 32 3e
       0.29902816 0.036499355 -0.26626647 0.17458859
000250 99 5a 8e 3e 41 e1 be bd 3d 33 0e be 70 5b 2d be
       0.27803496 -0.093203075 -0.13886733 -0.16929412
000260 bf 00 7d be 54 d5 01 3d 23 d6 fe bc 83 ba 03 3e
       -0.24707316 0.031697586 -0.031107968 0.12864117
000270 7d c0 68 be 75 cd 5c bc cb 2a 06 be ca 1a 4b 3d
       -0.22729678 -0.013476719 -0.13102262 0.049586095
000280 8f 1b ed bd 4b cf 76 3e 96 3a 01 bf 97 7a 61 be
       -0.11577522 0.24102513 -0.5048002 -0.2201942
000290 28 4b 45 be 87 0b e6 3d 9b 6d 17 be e2 e9 59 3d
       -0.19266951 0.112326674 -0.14787905 0.053201564
0002a0 cd b1 8d be e9 78 d7 3d 37 48 f3 3b 32 b1 e2 bd
       -0.27674714 0.10521109 0.00742438 -0.110689536
0002b0 c6 dd 1a be fd 9b 3d 3e 1f 56 61 3e 8e e3 a1 be
       -0.15123662 0.18516536 0.22005509 -0.31618923
0002c0 61 d5 82 3d fd 53 bb bc b2 10 37 3e cd c9 cc 3d
       0.06388355 -0.022867197 0.17877463 0.09999428
0002d0 4d 3e cf 3d ac 8e 58 be f3 54 9c bd d1 05 9f be
       0.10119305 -0.21148175 -0.0763339 -0.31059125
0002e0 f8 0f d9 3d 55 d0 b6 bd c4 41 1d 3e 28 17 54 be
       0.10598749 -0.08926455 0.15357119 -0.20711958
0002f0 30 8b 39 3e 48 42 07 3e d7 8c 4c 3e cc e1 16 be
       0.18119502 0.13208878 0.19975601 -0.14734572
000300 3f 30 79 bb 80 82 84 3c 01 46 03 bc 8f fb db bb
       -0.0038023142 0.016175508 -0.008012296 -0.0067133377
000310 9b 2e 74 3b 1f 90 05 bb 03 c3 a0 bb ee 8c a1 bc
       0.0037259224 -0.0020380092 -0.0049060597 -0.01972052
000320 50 b9 1d bc f1 d7 aa 39 e6 3e 90 bb db f8 b5 3c
       -0.0096267015 0.00032585816 -0.0044020293 0.02221339
000330 77 19 58 3c 92 ca 9a ba c7 8d 26 3b e3 9b 92 bc
       0.013189665 -0.0011809638 0.0025414096 -0.017896598
000340 af 06 ca 3b ce d7 9d b9 05 4a 0f bd e0 94 1c 3c
       0.0061653475 -0.0003010616 -0.0349827 0.009556979
000350 ff dc ae 3b 12 8d 1c 3b d7 72 01 bb 1c f6 4b bc
       0.0053364034 0.0023887795 -0.0019752288 -0.012448814
000360 3d 71 b0 bc 2d bf a1 bc 32 4a 33 3a 30 e0 87 3b
       -0.021538371 -0.01974448 0.0006839364 0.0041465983
000370 a3 30 ac bc 01 86 42 ba 91 d9 9b b9 4d 10 b6 bb
       -0.021019286 -0.0007420481 -0.00029726003 -0.0055561424
000380 52 72 fe bb bd eb 96 3c 9b 40 8a bb ce c3 39 bc
       -0.007765093 0.018422956 -0.0042191274 -0.011338187
000390 2a 71 f9 bb 65 f4 ee 3b aa 8f 89 bc bd 40 fa 3b
       -0.007612367 0.0072923177 -0.016792137 0.007637112
0003a0 3d 7d a0 b9 d8 c0 17 b9 cf 5c 65 3c 37 8e e5 bc
       -0.00030610888 -0.00014472322 0.013999178 -0.028021915
0003b0 91 99 a3 bb b7 80 3a 3b b6 7c 11 bb 97 b4 a1 bc
       -0.004992672 0.0028458068 -0.0022199578 -0.019739432
0003c0 da c9 00 3c 86 2c 23 bc 84 31 98 39 ca 0e 0b bc
       0.007860625 -0.009959346 0.0002902859 -0.008487413
0003d0 57 e0 4f 3c 01 a0 b7 bb 77 8b 44 3b 75 31 d1 3b
       0.012687764 -0.0056037907 0.0029990354 0.0063840696
0003e0 44 ee bf 3b 38 ab 86 bb 3d 11 3f 3c 13 1a 18 bc
       0.005857261 -0.0041097663 0.011661825 -0.00928356
0003f0 47 fd d3 3b 13 83 0b 3c ef 6f bf 3b e0 59 ec bc
       0.006469402 0.008515137 0.005842201 -0.02885145

bias_ih_l0 f4 [256]
000000 10 92 dc bd 09 56 01 be 66 97 c9 3d a1 39 9b bc
       -0.10770047 -0.12630476 0.0984333 -0.018948378
000010 6d 89 22 bc ab 88 10 3e 1e 5a ab 3c f7 bc 0c 3e
       -0.00992046 0.14114635 0.020916995 0.1374396
000020 bb eb de b9 60 ab 3e bc e9 a8 29 3e 6a 2f 90 3d
       -0.00042518773 -0.011637539 0.1656834 0.070402935
000030 8d 50 96 bc 15 d7 88 3e e9 a1 00 3e 39 8b 53 3d
       -0.018348956 0.26726595 0.12561764 0.051646445
000040 b1 6a be 3d 0f 73 21 be 0a 45 20 3d f3 7b c2 3d
       0.092976935 -0.15766548 0.03912834 0.09496298
000050 d9 79 3a 3e 92 61 45 3d 4f a6 27 3d 31 ae 4c bd
       0.18210544 0.048188753 0.04093009 -0.04997081
000060 23 a9 96 3d d3 bb ce 3d 42 52 64 bd 50 19 e2 3d
       0.07356479 0.100944184 -0.05574251 0.11039984
000070 3f 31 cc 3d bc 3c d3 3c a4 05 6e bd 2a db 9d 3d
       0.099703304 0.025785796 -0.058110848 0.07707818
000080 28 49 d3 3a cd 64 96 3e 8c 45 b6 3e 1e 87 52 bb
       0.0016119825 0.2937378 0.35599935 -0.0032123993
000090 2d 29 9b 3d 71 3b 50 3d 7a d6 ee 3d 5e 3a 1e 3d
       0.07576213 0.050837938 0.11662002 0.038629882
0000a0 3e 0e 0e 3e d9 94 33 be b8 f2 92 3d 59 86 03 3e
       0.1387262 -0.1753725 0.07175201 0.12844218
0000b0 9a 8f 68 bd a0 78 c6 3d d4 80 0f 3e 09 09 2c bd
       -0.056777574 0.09690976 0.14013988 -0.042000804
0000c0 0e a8 52 3d 8f 1f 92 bc 38 36 95 3c f3 79 81 bc
       0.0514298 -0.017837314 0.01821433 -0.01580522
0000d0 be 9a de bd 36 c6 10 3c 38 8f 15 3e 0d 0a 33 3e
       -0.108693585 0.00883632 0.14605415 0.17484303
0000e0 e3 2e cc 3c 14 f0 57 3c db 26 c9 3d 0e 2f 03 bc
       0.024924701 0.013179798 0.09821864 -0.008006824
0000f0 f2 f3 f0 bc c4 1d 81 be 42 76 17 3e e9 a0 b9 3d
       -0.029413197 -0.25218022 0.14791206 0.09063894
000100 fe f9 83 3d c9 64 dd 3c 05 9f 62 3d 30 46 0f 3d
       0.064441666 0.027025597 0.055327434 0.034979045
000110 3d cb 19 be be 94 f6 3d 76 32 91 3d 7e 06 1c 3e
       -0.15018936 0.12040089 0.07089703 0.15236852
000120 1b d4 5f 3c c3 38 d8 bc 0c c1 5b 3b f5 4e b7 bc
       0.01366141 -0.026394254 0.0033531813 -0.022376517
000130 61 91 a3 3c 3a da 8f bb 1c 7b e2 3b b9 1e d6 3d
       0.019966783 -0.0043900283 0.0069116484 0.10455079
000140 66 9c 2b 3d 22 1e c6 3d cc b6 bb 3b 5e dc 3c bc
       0.0418972 0.09673716 0.005728578 -0.011527149
000150 ec 9a 4b 3e 45 58 02 3d ea 53 95 bd 14 10 ac bc
       0.19883317 0.03182246 -0.07291396 -0.02100376
000160 60 f0 9e 3d b5 ee e7 bd 74 f5 9e 3c b8 12 fe 3d
       0.07760692 -0.11324827 0.01940415 0.12405914
000170 96 a9 62 3d 32 06 59 bc 34 80 c8 bd 4e 4d a5 bc
       0.05533751 -0.013246106 -0.09790078 -0.020178463
000180 8e 03 6d 3c cd 44 91 bc 4c 1d ca 3d b5 e2 80 bb
       0.01446618 -0.017733002 0.09868869 -0.0039332756
000190 bf e4 85 bd 2b 51 aa 3d 60 aa ab 3c ec 74 14 3d
       -0.065377705 0.08316263 0.020955265 0.036244318
0001a0 48 fb d0 3a 5a f5 0c be a8 37 6b 3d 7f 6e 5e 3c
       0.0015944028 -0.13765469 0.057426125 0.013576149
0001b0 8b 33 38 bc 92 64 48 3d 54 f7 04 3e 2e b9 ca 3c
       -0.011242758 0.048924036 0.12984973 0.024746504
0001c0 59 2c a4 3d dc 49 7c bd 52 11 58 3d 60 01 da bc
       0.08016271 -0.061593875 0.052750893 -0.026611984
0001d0 ff 10 18 bd 60 d5 be 3d 9e 56 aa 3c ef 0c 90 3d
       -0.037125584 0.09318042 0.020793255 0.07033717
0001e0 52 50 1e bd 79 24 d8 bb 9c f4 e0 3d 1f c4 0d 3d
       -0.03865082 -0.0065961448 0.109841555 0.034610864
0001f0 97 37 8d 3c ee b1 50 3d 62 97 f6 bc 6f f0 c0 3c
       0.017238421 0.050950937 -0.030101482 0.023552148
000200 ed c0 9e bd b6 c2 97 3d 59 8c 75 be 85 74 36 be
       -0.077516414 0.07410185 -0.2397932 -0.17817886
000210 c3 54 dc bd 40 61 d6 bd ee 34 49 3e 1d bf ce 3c
       -0.107583545 -0.10467768 0.19649097 0.025237614
000220 3a 94 54 be 31 08 c6 bc ee 26 9f 3d 25 3f a0 3d
       -0.20759669 -0.024173828 0.07771097 0.07824544
000230 05 7d 01 3e 40 63 22 3e 4a 5e 04 3a b6 db 00 3e
       0.12645347 0.15858173 0.00050494506 0.12583813
000240 94 c4 f6 bd ad e4 80 bd dd d1 f5 3c 04 5e 8c 3e
       -0.12049213 -0.062936164 0.030007297 0.27415478
000250 2a ac 00 3e 45 d4 86 3b 7c a5 10 3c 37 4c 79 3c
       0.12565675 0.00411466 0.008828517 0.015215925
000260 0e ed 09 be db c7 57 bd 5c db 44 be 9b ed 81 3e
       -0.13469335 -0.05268083 -0.19224304 0.2537659
000270 ed 1a 79 be bf d9 22 3e 2f b6 86 be 5f e9 62 3d
       -0.24326678 0.15903376 -0.2631087 0.05539834
000280 3d 9a 1c be e9 71 24 3e 67 7a 2f be 5d a0 d0 3d
       -0.15293212 0.16059078 -0.17136537 0.10186837
000290 50 92 46 3d 15 55 33 3c 69 f3 2e 3e d9 6e bd 3d
       0.04847938 0.010945578 0.17085041 0.09249658
0002a0 df f8 2f be c2 9c d5 bc 31 07 51 3c 95 12 22 3e
       -0.1718478 -0.026075725 0.012758062 0.15827401
0002b0 fa fb 90 be 6e 7d 28 bd e3 77 c9 3d 2f 8b 1a be
       -0.28317243 -0.041135244 0.0983732 -0.15092157
0002c0 4e 82 95 3d 09 f3 52 be 49 04 70 bb 6a 60 e5 3d
       0.07300244 -0.20600523 -0.0036623648 0.1120003
0002d0 95 58 64 3e ac 6c 27 3e 6d 1d e9 bd fb 8a 50 be
       0.22299416 0.16350049 -0.11382566 -0.20365517
0002e0 a8 ae ae 3c 81 34 00 3e b6 65 8c 3e e6 db 92 bd
       0.021323517 0.12520029 0.2742135 -0.071708485
0002f0 8a fe 4f 3e f2 9f 13 be f1 6b 5b bd bf ed c8 bd
       0.20311943 -0.14416483 -0.053569738 -0.098109715
000300 f3 0e 2f bd 8b 99 8c 3e 1a bc 07 3e 42 b2 4c 3e
       -0.042738866 0.27460894 0.13255349 0.19989875
000310 10 15 0b be 59 2d 6c 3b 4a 5b c4 3d ad b1 04 3e
       -0.13582253 0.0036037771 0.095877245 0.12958403
000320 99 e2 6c 3e 8f 0f 4d be f2 ac 9f 3d 5f 7a 8d 3e
       0.23133315 -0.20025466 0.077966586 0.27632424
000330 bf 5a c1 ba 5b 3a a7 3d a9 ad 38 be d7 ba 5f 3e
       -0.0014751776 0.08165427 -0.18034996 0.21848617
000340 ed d7 a7 3c dd c8 b4 3d 0f 74 2e 3e e7 21 ee 3d
       0.020488704 0.08827374 0.1703646 0.1162756
000350 06 5e 48 3e 1c 06 40 bd e9 59 b1 bd 35 dd 18 3e
       0.19567117 -0.046880826 -0.08659727 0.14928134
000360 ef 0e f5 3c fd 5f 54 3d 31 bb df 3c 62 5d 8a 3d
       0.029914347 0.051849354 0.02731094 0.067560926
000370 e3 b0 1a 3e ee 5e 6b 3d 70 a3 01 bd 21 48 05 3e
       0.1510654 0.05746358 -0.031650007 0.13015796
000380 9b 8f 42 3e d0 5e 26 3e 73 af 07 3c 4c 88 4d 3e
       0.19000094 0.16247106 0.008281576 0.20071524
000390 dc cd bc 3d 1c a2 1e 3d 95 66 0a 3d 47 33 60 3d
       0.09218952 0.03872882 0.033789236 0.054736402
0003a0 16 93 0c 3d 6f f5 86 3e b8 7b 52 be 36 7c 51 3e
       0.03431996 0.26359126 -0.20555007 0.20457539
0003b0 37 77 f8 bc 4a 64 2f 3e a3 b6 12 3e c4 cf be 3e
       -0.030330284 0.17128101 0.14327483 0.37267888
0003c0 19 c2 8e 3e 18 db ee 3d ab 63 a4 bd 13 38 9d 3d
       0.2788246 0.116628826 -0.08026823 0.07676711
0003d0 9b 8e 00 be cd be 42 3e 0e 3e 3f be 01 60 20 3e
       -0.125544 0.19018097 -0.18676016 0.15661623
0003e0 12 ef e0 bd 46 31 36 3d 92 2c 0e 3e 6a 1c 50 3e
       -0.10983099 0.044480585 0.1388419 0.20323339
0003f0 80 45 9f 3e 69 6c c9 3d 86 7d 9c 3d ad bf c3 bd
       0.31107712 0.09835131 0.07641129 -0.09558044

bias_hh_l0 f4 [256]
000000 5c 55 b2 bd 1d 5e 01 be f8 e2 2e 3e 1f 66 96 bc
       -0.08707687 -0.12633558 0.17078769 -0.018359242
000010 71 59 64 bd 92 50 5c 3c 2d 94 12 3e f7 24 0a 3e
       -0.05574936 0.013446944 0.14314337 0.13490663
000020 59 20 44 bc 35 a7 2e bd c2 5f 13 3e cc 12 9b 3d
       -0.011970603 -0.04263993 0.14391997 0.075719446
000030 85 8e 0b bd ec 38 81 3e 0c 02 87 bd ac 7f 53 3d
       -0.034071464 0.2523874 -0.06592187 0.05163543
000040 fc 4d a2 3d a3 21 14 be 51 0e 20 3d 9c db 48 3e
       0.079250306 -0.14465956 0.039076153 0.19615024
000050 51 5c 5a 3e de 61 46 3d 3d df 89 3d 2d e6 92 bd
       0.21324278 0.048433177 0.067320324 -0.07172809
000060 51 d3 97 3d 22 a2 94 3d 1d b3 4b bd e2 46 5e 3d
       0.07413352 0.07257487 -0.049731363 0.054266818
000070 e2 81 9d 3d 43 a6 d1 3d 5f fa d5 3b a8 6c 0e 3d
       0.07690789 0.1023679 0.0065300907 0.03477159
000080 94 1e d1 3a b3 2f 85 3e a6 76 b6 3e b6 51 52 bb
       0.0015954548 0.26012954 0.35637397 -0.003209216
000090 22 3e 66 3e 1c 78 28 bc 79 c4 f3 3d 11 f2 ca 3b
       0.2248464 -0.010282543 0.119027086 0.0061934073
0000a0 5d 12 ba 3c c1 c1 42 be 7a 53 12 3d 99 aa 03 3e
       0.022713834 -0.19019224 0.03572414 0.12858047
0000b0 66 a6 46 bd a0 23 be 3d a5 2b dc bc 62 87 e9 bc
       -0.048498534 0.09284139 -0.02687628 -0.028506938
0000c0 91 25 25 3e 03 16 df bc c6 88 c2 bd bd bb a4 3d
       0.16127612 -0.027232176 -0.09498744 0.08043621
0000d0 37 51 d9 bd a7 61 35 3e 9b fc 0e 3e 7a b4 56 3e
       -0.106111936 0.17713033 0.13963549 0.20967284
0000e0 6f 6a 4b bc dc 5e 4d 3c e0 8e c4 3c a5 ea 0a bc
       -0.012415512 0.012534823 0.02399391 -0.008478795
0000f0 b6 51 02 bd 40 16 77 be 96 c3 cc 3d 4c 10 cf 3d
       -0.031816207 -0.24129581 0.099982426 0.1011053
000100 63 3d b6 3d 48 20 dd 3c 6a 7d 3c 3d c7 fe 71 3c
       0.08898427 0.026992932 0.04601804 0.014770216
000110 83 c9 4c be 4c e1 92 3b a9 88 c8 3c 99 63 4a 3e
       -0.19998746 0.004482424 0.024479227 0.19764556
000120 06 d9 3e 3d 65 15 f4 bc 3a 42 f1 3a 0e 0f b8 bc
       0.04659369 -0.029795358 0.0018406578 -0.022468116
000130 6b 19 1a 3e 59 db 8e bb eb 94 e2 3b 8a f3 a7 3d
       0.15048759 -0.0043596444 0.006914725 0.08200748
000140 1d 6c 2a 3d 0a 94 c3 3d 35 66 bb 3b e7 3e 37 bd
       0.04160701 0.095497206 0.005718971 -0.044737723
000150 b7 a1 31 3e af 7b 02 3d 5e 2f f0 3c b9 6e a7 bc
       0.17346846 0.031856235 0.029319461 -0.020438539
000160 c7 f2 f7 bc 0d 7e 19 be 27 fc 9a 3c ee b6 8b 3d
       -0.030267132 -0.14989491 0.018919064 0.068220004
000170 0e 5c 81 3d 6c 70 56 3d 35 9e d9 bd 88 eb 6d bd
       0.06316386 0.052353308 -0.10625879 -0.05808595
000180 da fb 6c 3c c8 3f 8f bc a0 fa c0 3d b4 73 87 bb
       0.014464343 -0.017486468 0.09422803 -0.004133666
000190 fc 75 84 bd 39 4b 9d 3d f1 2c 4a bc d5 f9 14 3d
       -0.06467816 0.07680363 -0.012339816 0.03637107
0001a0 58 8d 9f 3c 5b ca 12 be c6 65 96 3d 41 47 5e 3c
       0.019476578 -0.14335005 0.073436305 0.013566793
0001b0 15 da 3e bc f0 40 47 3d c6 3e b7 3d 3e 8a c8 3c
       -0.0116486745 0.048645914 0.0894752 0.024479982
0001c0 9e b4 64 bc 76 fd 16 be d1 75 30 3d d0 00 31 bd
       -0.013959078 -0.14745125 0.04308111 -0.043213665
0001d0 e1 40 18 bd 4e a0 20 bc 42 2a 9d 3c 79 90 91 3d
       -0.03717125 -0.009803845 0.01918519 0.07107634
0001e0 ea fc 1e bd 91 95 d8 bb 6b 93 de 3d 41 e6 0a 3d
       -0.038815416 -0.0066096266 0.108679615 0.033910993
0001f0 87 bf 8b 3c fc cf 8e 3d d1 82 f6 bc d8 0e cc 3c
       0.0170591 0.069732636 -0.030091675 0.024909422
000200 be 68 64 bc f8 e5 c0 3d a5 75 27 be 40 ec 86 be
       -0.013940988 0.09418863 -0.16353472 -0.2635212
000210 49 24 59 bd 16 af d1 bd c8 cc 28 3e dc 03 92 3d
       -0.05301312 -0.10238473 0.16484368 0.07129642
000220 21 d0 4a be 7e db c6 bd f4 94 5a 3e 41 1f cf 3d
       -0.19805957 -0.097098336 0.21345884 0.10113383
000230 cd 5a 60 3d 62 76 19 3e f5 9b a1 bc f2 e2 27 3d
       0.054774094 0.14986566 -0.019727686 0.040987916
000240 ac 0d 4f be 09 27 81 bc 37 11 b6 ba f7 fb 9e 3e
       -0.20220059 -0.015765684 -0.0013890628 0.3105161
000250 00 d3 05 3e dc b8 bf bb 73 be 58 bd 89 39 0c 3d
       0.13068771 -0.0058508944 -0.052916 0.034234557
000260 7f 28 01 be 57 55 ed 3d 77 f5 d7 bb a7 0c 6a 3e
       -0.12613104 0.11588543 -0.006590541 0.22856389
000270 41 a4 57 be 87 e8 a3 3d ca ef 97 be 6f 07 85 3d
       -0.21058752 0.080033354 -0.29675132 0.064955585
000280 70 9d 18 be c8 14 56 3e f3 c6 45 be 0c 5c cb 3d
       -0.14903808 0.20906365 -0.19314174 0.09929666
000290 ff ac fa 3d 77 b5 55 bd a4 f3 d8 3d 67 2b 62 3d
       0.12240028 -0.05217501 0.10593346 0.055217173
0002a0 96 5d 20 be 7f 83 d1 bc 9e 35 14 bb 12 0b 9c 3d
       -0.156607 -0.025575398 -0.0022614966 0.07619299
0002b0 23 38 bc be 5f 06 2e bd ec cf 0e 3e d2 1e 00 be
       -0.3676158 -0.042486545 0.13946503 -0.12511757
0002c0 1d 91 2d 3d 9a 67 eb bd 50 c6 ea bd 39 2e be 3d
       0.04237472 -0.1149437 -0.11463606 0.0928616
0002d0 e5 f9 3b 3d 70 a5 b7 3d ae 52 9c bd 24 03 5b be
       0.045892615 0.089671016 -0.076329574 -0.21387917
0002e0 ac 3a ec bd fa 32 58 3e 70 38 8a 3e f2 86 14 bd
       -0.11534628 0.21113196 0.26996183 -0.036261506
0002f0 ec dd 51 3e 51 66 c1 bd a1 ce aa bd 59 1c 21 be
       0.20494813 -0.094433434 -0.083401926 -0.1573347
000300 bc cf 5d 3c 41 91 73 3e c5 52 d0 3d 29 62 aa 3d
       0.013538297 0.23785879 0.10172037 0.08319504
000310 cc 7b 90 bd 1a a9 30 bb 31 83 bc 3d b0 18 0c 3e
       -0.070548624 -0.002695626 0.0920471 0.13681293
000320 98 57 6d 3e f0 ae 67 be 84 ea c5 3d b7 9d dd 3d
       0.23177946 -0.22625327 0.09663871 0.10821097
000330 75 fb ea ba de 5b a7 3d a7 df 9f bd e3 9a 16 3e
       -0.0017927723 0.08171819 -0.0780633 0.14707522
000340 ab d5 5b 3d 20 eb c6 bd 68 b2 1e 3e ba 76 f9 3d
       0.053670567 -0.09712815 0.15497744 0.121808484
000350 1c 92 6f 3e 8d 28 e3 3d c6 c9 ba 3c ba b0 16 3e
       0.2339558 0.11091719 0.022801291 0.14715853
000360 7e b4 1a 3d 21 ad 77 3d 52 1d 3c bd 08 58 75 3d
       0.037769787 0.060467843 -0.0459264 0.059898406
000370 16 6d 9c 3e 6b f6 28 3d fd 26 87 bc aa 4f ca bc
       0.30551976 0.041250627 -0.016498083 -0.02469619
000380 42 6b 4c 3e de 9c 16 3e e9 4b 6e 3c 1f c7 00 3e
       0.1996279 0.14708278 0.014544466 0.12575959
000390 a9 4b c1 3d b6 9c 98 3b 02 ae 8a 3d ca 5f 56 3d
       0.09438259 0.0046573533 0.067714706 0.052337445
0003a0 38 b4 ad 3d b6 60 38 3e 35 93 01 be cf 4a c0 3e
       0.084816396 0.18005642 -0.12653811 0.37557074
0003b0 13 76 d8 bc 4d 87 38 3e 61 64 11 3e 12 78 91 3e
       -0.02642349 0.18020363 0.14198448 0.2841192
0003c0 d3 ec 52 3e 6c 96 1b 3e 6f e0 97 bd 8d 10 fd 3d
       0.20598154 0.151941 -0.07415854 0.123566724
0003d0 95 7f 58 bd 5b 01 24 3d ab ee 59 be 95 cc 10 3e
       -0.052856047 0.040040355 -0.21282451 0.14140542
0003e0 73 9e f8 bd d9 d9 db 3d a7 f9 03 3e 63 31 55 3e
       -0.12139597 0.107349105 0.12888204 0.20819621
0003f0 be 67 b0 3e 72 f0 fc b9 db ef 9c 3d 9e 06 a0 bd
       0.3445415 -0.0004824433 0.07662936 -0.07813762

weight_ih_l1 f4 [256, 64]
000000 61 ed 5b 3d 14 54 b3 bc 22 d7 46 3d 69 a4 43 3c
       0.05369318 -0.021890678 0.04854501 0.011941054
000010 b2 f2 5a bb f1 3a 61 3c 0f fe b2 bd 98 88 c0 bd
       -0.0033408818 0.013746963 -0.08739864 -0.09401053
000020 a1 0a d9 bc bc 85 0a bd e4 9a 62 3c c2 68 85 3d
       -0.026494326 -0.033818945 0.013830874 0.065141216
000030 b9 9a b7 3d f1 87 6a be 7e dc 0b bd 8d c9 c0 bd
       0.08965058 -0.2290342 -0.034145825 -0.09413443
000040 1c 76 bc 3d be f1 d8 3c c5 94 9f bd bb f7 c9 bc
       0.09202215 0.02648246 -0.077920474 -0.02465426
000050 e1 83 de 3d 8a ee 01 3c 6c 14 bc 3d 2a c6 41 bd
       0.10864998 0.007930407 0.09183583 -0.047308125
000060 b2 df ba 3d 4f 1e f2 bd 2b 3b 8f ba 98 61 72 bd
       0.09124698 -0.11822187 -0.0010927668 -0.059175104
000070 7c eb 4c bd 2b 56 49 3d 45 43 e6 bd f0 c3 fe 3c
       -0.050029263 0.04915444 -0.112432994 0.03109929
000080 7f 6e c5 bc 23 a3 9c 3d 0f 79 a7 bd 6a bd b2 bb
       -0.02410054 0.07648303 -0.08177387 -0.005454709
000090 f7 42 0f bd 89 cf e9 3d 79 c1 05 bc 34 14 e1 bb
       -0.034975972 0.11416537 -0.008163803 -0.0068688635
0000a0 86 18 9b 3d 85 5e da 3c ca 22 12 3c 55 d4 e5 bd
       0.07573037 0.026656399 0.008919427 -0.1122214
0000b0 b8 0c 92 bd 91 d0 5a bc ed 34 d1 bc 43 61 77 bc
       -0.07131332 -0.01335539 -0.025537932 -0.015098873
0000c0 ec ae 2e 3d 2a 9f f5 bc ba 93 3c bd 44 ce ae 3c
       0.042647287 -0.029983122 -0.04603932 0.02133859
0000d0 5c d7 35 bd fc 72 68 bd de 10 19 3d 65 dc 81 3b
       -0.044394836 -0.056750283 0.0373696 0.0039630407
0000e0 3c 8b fc 3c 47 24 ab bd c8 83 16 3d 02 b6 b5 3c
       0.03082811 -0.08356529 0.03674677 0.022181515
0000f0 13 aa 4f 3c 7f a9 6d 3d 6c 88 2d 3e 07 17 24 3d
       0.012674826 0.058022972 0.16946572 0.040061023
000100 fb 38 9f 3e 2a 05 40 bd 49 7b d2 3c ed 18 27 3c
       0.3109816 -0.046879925 0.025693553 0.010198814
000110 05 15 95 3c b4 32 ba b9 29 3b e6 3b 84 35 69 3e
       0.0181985 -0.0003551446 0.0070260954 0.22774321
000120 b8 d7 39 bd 22 41 f7 3d c9 a4 77 3d 5e ae 3d bd
       -0.04537174 0.1207297 0.060459886 -0.046308868
000130 5f f7 60 3d 97 3e 54 3d af 72 91 3d 7a 06 d0 3a
       0.05492341 0.051817503 0.07101952 0.0015871071
000140 da 4d 53 3e 80 af 1b 3e 28 ea 98 3b 4f 37 dc bc
       0.20635167 0.15203667 0.0046665855 -0.026881842
000150 10 23 e1 3c e6 ef e6 bc 5a c1 9f 3c 3c db ba bc
       0.02748254 -0.028190564 0.019501377 -0.022809617
000160 af 1d 2e 3e e7 4a c5 3d 18 ef 57 3a c0 6a 68 bd
       0.17003511 0.09633427 0.0008237227 -0.05674243
000170 70 9e 8f 3d b7 c4 06 3d 8e fe 25 bd 82 c9 b4 3d
       0.070126414 0.032902446 -0.040525965 0.08827497
000180 47 82 13 be a2 f5 a6 3d 8d 39 8c bd ce aa 05 3d
       -0.14405166 0.081523195 -0.068469144 0.032633595
000190 e4 e8 72 3c f5 59 aa 3b 49 cd 23 3e 6b 06 0a bc
       0.014826033 0.005198712 0.15996279 -0.008424382
0001a0 6d 75 4a 3d ee 98 73 ba a6 33 0c 3c ee 39 8e 3d
       0.049428392 -0.00092925027 0.008557236 0.06944643
0001b0 98 c0 0a 3d 5c a8 8e bd 2b c3 03 be 01 ed 07 bc
       0.033875078 -0.06965706 -0.1286742 -0.008296252
0001c0 ca ca 4a bc 7b e0 bb be 9e 3a a7 3d 71 26 95 3d
       -0.01237745 -0.36694703 0.08165477 0.07282723
0001d0 6b 52 06 be 63 2c 10 be 39 cc 2b 3d e4 9d bd 3d
       -0.13117377 -0.14079432 0.04194281 0.09258631
0001e0 3e 59 4f bd da dc 23 bd 9b 1a 39 bb c7 55 72 3d
       -0.050622217 -0.040005542 -0.0028244618 0.059163835
0001f0 6e be 41 be cc e8 6f 3e 81 82 c7 bc 21 76 38 3d
       -0.189203 0.23428649 -0.024354221 0.04503453
000200 50 f8 de 3c 8a 8a ed 3c a4 6d 8c bc 6a f5 98 ba
       0.027218014 0.028996725 -0.017142124 -0.0011669819
000210 e1 ed 5f bd 3e f7 20 bc c4 f5 04 3d c2 bb da 3d
       -0.05467022 -0.009824572 0.032460943 0.10680343
000220 a2 be 4d b9 77 67 d0 3b 80 6e 72 3c 17 74 26 3e
       -0.0001962134 0.00635999 0.014796853 0.16255222
000230 27 23 1e 3d 31 4a 4d be 3b 48 77 3d 3d e1 1b be
       0.038607743 -0.20047833 0.06037162 -0.1522264
000240 15 f2 b9 3d af 45 e3 3b ab 38 00 be ff aa eb 3c
       0.090793766 0.006935797 -0.12521617 0.02876806
000250 63 74 40 3d ad 04 18 3b c3 1c fa 3d 82 62 46 bd
       0.046985995 0.0023196146 0.12212517 -0.048433788
000260 de 63 4f ba 11 7b 89 bd a1 14 6f 3b 8f c9 72 3c
       -0.0007911305 -0.06712926 0.0036480802 0.014818563
000270 62 40 ad bd de 31 0b 3d 5a a2 97 bb 8a 06 1a 3c
       -0.08459546 0.033983104 -0.004627508 0.009400973
000280 14 0e cd bc 1f ea e3 3c f7 b5 80 bc c2 17 25 bd
       -0.025031127 0.027821599 -0.015711768 -0.04030586
000290 85 a8 1a bd 3d 31 72 bd 81 3c 8d bd e6 3b b6 3b
       -0.03775837 -0.05912899 -0.06896306 0.0055613397
0002a0 fa 73 99 bc cb 1c 20 3c 87 a1 41 3c a7 23 13 be
       -0.01873206 0.00977249 0.011818296 -0.14369069
0002b0 a6 b9 2b bd 1e 2a d2 3d 0d a8 4c 3c 29 a8 47 bd
       -0.041925095 0.102619395 0.012491238 -0.048744354
0002c0 02 6d 13 3d b4 d8 40 bd 5c 52 30 bc e5 6b a0 3b
       0.03599263 -0.047081664 -0.0107618235 0.0048956745
0002d0 74 a2 bc 3c ba d4 ad bd f1 b5 e9 3b 49 28 19 bb
       0.023026682 -0.0848784 0.007132285 -0.002336996
0002e0 72 43 1b 3d 7f 90 b0 bc 37 e8 b8 bc ce 67 37 bc
       0.037906118 -0.021553276 -0.022571666 -0.011194183
0002f0 5c ea b7 3c 46 e4 ac ba 04 e8 05 3e f9 71 47 bd
       0.022450618 -0.0013190589 0.13076788 -0.048692677
000300 bc 08 6d 3d b0 bb 7f 3c fa 05 18 3e bd af 9c 3c
       0.057869658 0.015608713 0.1484603 0.019126767
000310 fa 1e 42 3d 88 4e cc 3d f8 a9 3c 3d b7 08 88 bd
       0.047392823 0.09975916 0.046060532 -0.06642287
000320 6e d3 17 3e 8e 6a c3 bd 0f 09 37 3e 27 85 3f bd
       0.14826748 -0.09541808 0.1787455 -0.046757843
000330 24 93 a7 3e 63 78 29 be 16 f3 88 bc aa 27 9d bd
       0.32729447 -0.1654983 -0.016717475 -0.07673581
000340 2a 27 bd bd 15 f1 30 bd 6f 95 62 3c 41 61 8d 3c
       -0.092359856 -0.043198664 0.013829573 0.017258288
000350 e3 d6 3d 3e a0 52 5c 3c 47 1e 6a bd 3a ef cc 3d
       0.18539004 0.013447434 -0.05715778 0.10006566
000360 ae 72 81 bd e8 14 c3 bc 36 2e 9d bc 51 f2 72 3d
       -0.063207015 -0.02381368 -0.019187074 0.059313122
000370 fc 2e eb bc 5c d0 d0 3c c5 8b 94 be f9 a7 af 3c
       -0.028708927 0.025489978 -0.29012886 0.0214424
000380 40 93 68 bd aa b3 ae bc 07 a7 3c 3e f2 79 81 bd
       -0.056781054 -0.021325905 0.18423091 -0.06322087
000390 a6 e0 2e 3d b5 a3 6b 3d 66 2a ca 3d 6a 08 06 3e
       0.04269471 0.05752917 0.09871368 0.13089147
0003a0 60 38 26 be e4 70 4b be 6b c5 af bd a7 8d a0 be
       -0.16232443 -0.19867283 -0.08582576 -0.31358072
0003b0 0d 4e 1d be 99 ae 33 3e 02 1d 1f 3d 4a 83 e5 3b
       -0.15361805 0.17547072 0.038846023 0.0070041763
0003c0 b8 af 7f 3d 05 11 52 bd 36 fb 17 bd d8 3d 3a 3d
       0.062423438 -0.051285762 -0.037104808 0.045469135
0003d0 88 63 6d 3d c3 59 c8 bd 3b 42 04 3e 85 83 91 3c
       0.05795625 -0.09782746 0.1291589 0.017762909
0003e0 50 e3 fd bd fa 59 18 3d 34 4c 32 be b3 9c 0c bb
       -0.12396872 0.037195183 -0.17411882 -0.0021455705
0003f0 59 b0 8d bc 83 6c 1e bd d3 b8 b1 3c c8 d2 22 be
       -0.017296003 -0.038677704 0.021694576 -0.15900719

weight_hh_l1 f4 [256, 64]
000000 b0 6f 76 3c 99 99 9c 3d 5e 33 b3 bd 6a d3 17 3d
       0.015041277 0.07646484 -0.08750032 0.037066855
000010 1f c1 8f 3d 0e 51 85 bd cb ee 2c 3d 27 4a ea bd
       0.07019257 -0.065096006 0.04221992 -0.11439925
000020 66 03 90 3b fd 43 d8 bc 25 4d 93 3d 4c 93 ad bd
       0.0043949364 -0.026399607 0.071924485 -0.0847536
000030 fc 69 79 bd 5e 8d 61 bd e5 a0 1e 3e bd 19 78 bc
       -0.06089209 -0.05506646 0.15491064 -0.015142855
000040 86 5a ba bd 1c d3 49 bd 27 74 09 be 60 3d f7 bc
       -0.09099297 -0.049273595 -0.13423215 -0.030180633
000050 7f b3 ac 3d c1 27 52 3c 4d 29 5b 3d 44 4d 27 3e
       0.08432674 0.012826861 0.053506184 0.16338068
000060 89 8d 2a bd 5d 0c b1 3d 00 35 88 bd 7f 0e 1a be
       -0.041638885 0.08644936 -0.06650734 -0.15044592
000070 35 95 c8 bd 1e 10 ab bd 19 d1 b0 bc f8 6e 9b 3c
       -0.09794084 -0.083526835 -0.02158408 0.018973812
000080 99 9d 06 3d 3c 9b 67 bc 06 59 bc 3d 52 2f 24 be
       0.03286514 -0.014136132 0.091966674 -0.16033676
000090 48 dd f7 3d 26 a9 18 3c ca 54 6b 3d 80 6f 06 3e
       0.12102753 0.009317672 0.057453908 0.13128471
0000a0 ac 08 d0 3d b3 ce 8f bd 6e 1e a1 bd e7 23 44 bd
       0.10157904 -0.070218466 -0.07867132 -0.0478858
0000b0 de 6c a4 3d eb 98 c9 3c 18 87 90 bd 81 d9 8d 3d
       0.08028577 0.02460905 -0.07057017 0.06926251
0000c0 48 7c 7f bc a0 36 08 bd c7 c2 59 3d b5 13 89 bd
       -0.015593596 -0.03325522 0.05316427 -0.06693212
0000d0 04 1b cc 3b 4f c0 68 bd 7c 22 e0 bc 77 aa eb bc
       0.0062288065 -0.056824025 -0.027360193 -0.028767807
0000e0 f7 f4 7a 3d 20 f0 00 3d b5 26 be bd b5 c2 21 bd
       0.061268773 0.031479 -0.092847265 -0.039492328
0000f0 36 06 19 bd ed b5 b7 bd bf 40 98 3d a2 4a 9b bd
       -0.03735944 -0.089702465 0.07434224 -0.075825945
000100 6e 13 06 bd ad a5 ca bc 40 3c ae bd d3 7b 27 bd
       -0.032733373 -0.024737203 -0.085075855 -0.040889572
000110 50 e2 38 3d 1e 04 34 bd c7 90 47 bd 97 fa 1d bc
       0.045137703 -0.04394924 -0.048722055 -0.009642265
000120 45 9f 08 bb 6d f5 2f 3d 0c c6 30 3e 13 a6 a8 bc
       -0.0020846885 0.042958666 0.17263049 -0.020587003
000130 48 ef a5 3b 3c a3 84 bc 2d 19 65 3d d2 9c 16 3e
       0.005063925 -0.016191117 0.055932213 0.1470826
000140 bc d9 38 bd cb f5 17 3d 95 e4 5b bd 45 c3 14 be
       -0.045129523 0.03709964 -0.05368479 -0.14527614
000150 a3 26 85 3d 70 8c d3 3c 37 6b a6 bb 38 de 17 3d
       0.0650151 0.025823802 -0.005078699 0.03707716
000160 2b 84 4d bd 63 ee 5f 3d 5d 50 85 bc 0f c4 e6 bd
       -0.050174873 0.054670703 -0.016273672 -0.11267864
000170 55 a3 90 bd 90 66 9d bd f5 7c 73 3c 2a 31 c9 3b
       -0.07062403 -0.07685578 0.014861335 0.006139894
000180 f7 32 fb 3c f3 09 4a bd 2f 7b af bd d0 f6 3e bc
       0.03066395 -0.049325895 -0.08568417 -0.011655524
000190 34 2e ad 3d ef 3e 8f 3d 73 f8 6e 3e 63 cc 24 3d
       0.08456078 0.069944255 0.23336963 0.04023398
0001a0 5c fa 15 3d 77 d1 d8 bc 98 c0 89 bd b6 21 d4 3d
       0.036615714 -0.026467068 -0.067261875 0.10357992
0001b0 a2 46 e4 b9 86 27 12 3d 86 54 c0 bc da 51 59 3d
       -0.00043540174 0.035682224 -0.023477804 0.053056575
0001c0 f7 48 09 3c 80 0e 9f ba 8a 1c 45 bd dc c0 7f 3b
       0.008379213 -0.0012135059 -0.04812292 0.0039024865
0001d0 15 8b 9c 3d 85 76 19 bd 7e ce 72 bc 7b ac db bd
       0.07643715 -0.037466545 -0.014819739 -0.107262574
0001e0 e6 ee 5d 3b 95 38 ce 3c 4a bd 8c bd 75 70 9a bd
       0.0033864318 0.025173465 -0.068720415 -0.07540981
0001f0 c0 63 94 bd 8c a8 2f bd ad 35 32 3d e3 09 8f bd
       -0.07245588 -0.04288535 0.04350822 -0.069843076
000200 ff 35 2b 3c 36 03 be bc 83 ca 04 3d dc c3 10 3b
       0.010449885 -0.02319489 0.032419693 0.0022089398
000210 77 ef 52 bc ed 3d 85 3b 1e b3 db 3c 3c fb 96 bc
       -0.012874476 0.00406622 0.026818808 -0.018430345
000220 38 30 21 3a e3 6e 8c bb 67 4e 05 3c 80 cb 84 3c
       0.0006148848 -0.0042856797 0.008136368 0.016210318
000230 09 22 80 bb c6 dd ea bb 71 dc 07 3b 6a 13 a3 3c
       -0.0039103073 -0.0071675507 0.0020730759 0.019906718
000240 b9 0d 4a 3c 2d de 0c bb dd 84 39 bc 7a 45 a9 3c
       0.012332373 -0.0021494732 -0.011323181 0.020663012
000250 86 a6 0b bd 7f a0 9f bc 6e da 3e 3b 9f 7a 12 3b
       -0.034094356 -0.01948571 0.0029121893 0.002235092
000260 3a 9d 82 3c e8 43 3d bc 90 2a 9f 3c 5d c7 c7 bc
       0.015944112 -0.011551835 0.019429475 -0.024387056
000270 64 e4 e0 3b c6 40 e1 3c 11 1a a5 bd ac be 16 3c
       0.006863164 0.027496707 -0.080616124 0.009200733
000280 24 1e cd bb 60 a3 de bb 7a 80 94 bc c3 72 c5 3b
       -0.0062596966 -0.006794378 -0.018127669 0.0060256436
000290 be ab 8f bc fc 37 90 bb df c7 07 3d e2 50 83 3c
       -0.017537948 -0.004401205 0.033149596 0.016029779
0002a0 3e 93 e6 bb 56 e3 e8 3b dc 36 08 3c 22 50 87 3c
       -0.0070365956 0.0071071787 0.008313861 0.016517702
0002b0 13 b3 f9 bb 9d 69 9f 3c 2c 5e 90 bb ea 6d 2d bc
       -0.0076202243 0.01945954 -0.0044057574 -0.010585288
0002c0 1f 4d 75 bc db bb 17 bc 49 47 fd bc 00 b0 a6 3c
       -0.014972 -0.009261097 -0.03091778 0.020347595
0002d0 b8 5a 13 3c fb d0 c5 3c 11 4f 59 bb d6 3c 08 bc
       0.008993797 0.024147501 -0.00331587 -0.008315286
0002e0 5b c6 82 3b 78 05 60 39 75 62 0d 3c 84 54 9e bc
       0.003990931 0.00021364342 0.008629431 -0.01932741
0002f0 ac 98 1d 3c 09 ff a0 bb 9a 15 6d bc 3d b1 aa 3b
       0.009618919 -0.004913215 -0.014470482 0.0052091167
000300 db 64 19 3d 1f 09 c7 bc 10 a0 a0 3d 66 3a 29 3d
       0.0374497 -0.024296341 0.078430295 0.04131546
000310 ab 1f d6 bc 96 1e 2e bd 91 33 d7 3d b1 f1 62 bd
       -0.026138147 -0.042509638 0.105078824 -0.055406276
000320 e9 3b 1e 3d 1b 8e 85 bd 77 bc 8f bd 93 f4 01 bd
       0.038631354 -0.06521245 -0.07018369 -0.031727385
000330 bf 2c 11 bd 94 39 5b bc 18 6c ae bd e2 f5 d2 bc
       -0.035443064 -0.013380427 -0.08516711 -0.025752012
000340 81 b4 de 3b 52 5c 39 3d 61 41 b8 3a 12 27 7c 3d
       0.00679642 0.04525406 0.001405757 0.061560698
000350 45 a2 f0 3c 18 8a 5f 3d 0a d6 9a 3c b2 ff 8c 3d
       0.029374251 0.054575056 0.01890089 0.068847075
000360 4b 4b dc 3d bb 22 a4 3c 40 ee b5 bc b9 e3 55 bd
       0.107565485 0.020036092 -0.022208333 -0.052219126
000370 68 ef 70 bd 38 63 b2 3c 57 09 fb bd f5 5e 89 bc
       -0.058822066 0.021775827 -0.12257641 -0.016768912
000380 bf a1 e1 3c c4 b2 90 3d 7d d3 04 3c 62 8c 65 3d
       0.027542947 0.07065347 0.008107063 0.056042083
000390 45 64 03 bd 5b 21 1b bc ff d4 e7 3c 92 cf 02 3d
       -0.032078046 -0.009468402 0.028299807 0.031936236
0003a0 f1 81 00 3c 01 75 cd 3b 46 46 7d bd e0 cb 05 3d
       0.00784348 0.0062700515 -0.061834596 0.032665133
0003b0 3a 67 a7 3c ef 7a 83 3d af e4 a2 3d 24 0f 11 3d
       0.020434964 0.06419932 0.07953774 0.03541483
0003c0 00 1a 52 bd 7c fb 20 3d 03 24 26 bd c3 dc 2a 3e
       -0.051294327 0.039302334 -0.040561687 0.16685776
0003d0 8f 9f 4d 3c 23 32 0d 3d ff 06 78 3b 10 8e 2a 3c
       0.012550249 0.034471642 0.0037845967 0.010409847
0003e0 43 b8 ec 3b 90 0b 0a bd 22 5f ee bc e6 27 b7 bd
       0.007224114 -0.033702433 -0.029098097 -0.08943157
0003f0 c9 29 af bc 6a 4c ab bc d3 19 a5 bc be e6 4b bd
       -0.02138223 -0.02091046 -0.020153916 -0.0497806

bias_ih_l1 f4 [256]
000000 8a 9d 90 3c f2 7a f6 bb 88 62 84 3d dc 46 29 bd
       0.017653245 -0.0075219804 0.06464106 -0.041327342
000010 44 ff c2 3d bd 5c db ba 2a 21 b0 3d ef 7c d2 ba
       0.09521344 -0.0016736012 0.086000755 -0.0016058962
000020 1c 71 66 3d f2 ab 9c bc be b3 56 3d 12 4b f5 3c
       0.056260213 -0.019124959 0.05241751 0.029943023
000030 4d 23 5a 3d 81 c8 0c 3d 91 8a 87 3d 73 70 bf 3d
       0.05325632 0.034370903 0.06618226 0.0934762
000040 18 b7 1a 3e 58 7b b6 3c 4a 01 44 3d 15 21 b6 3d
       0.15108907 0.022275612 0.04785279 0.08893029
000050 41 5d 33 3e 01 16 39 bd 55 d3 c4 3d da 0a fa 3d
       0.17516042 -0.045187 0.09610621 0.12209101
000060 7d 29 a9 3d 98 3e 34 3e 45 e2 9c 3d 8e c4 91 3d
       0.082598664 0.17602003 0.07660345 0.07117568
000070 fc 8f 3b 3e 6d a3 17 3e 8b da e3 3d 36 11 01 bd
       0.18316644 0.14808436 0.11125668 -0.031510554
000080 8b d6 d9 3d bf 45 ae bd b4 04 d1 3d d7 35 94 3d
       0.10636624 -0.08509397 0.10205975 0.07236832
000090 1d ae b5 3c c4 69 cb bd db 27 d3 3d 71 90 07 3d
       0.02217775 -0.099322826 0.10310336 0.033096734
0000a0 11 f8 eb bc e6 c8 0a bc 9e a9 71 3d 7d 0e 1b 3e
       -0.02880481 -0.0084707495 0.05899965 0.15142246
0000b0 c4 23 a3 bd 52 51 e8 3d 36 c4 29 3d 4a 17 a9 3c
       -0.07965806 0.113436356 0.041446887 0.020640988
0000c0 c8 d3 3a 3e 92 ab 94 3d 6a 22 fc 3c 90 97 21 3d
       0.1824485 0.07259287 0.030778129 0.039451182
0000d0 be 54 45 3d 01 b7 c2 3d 29 45 02 3e be 52 65 3e
       0.04817652 0.095075615 0.12721695 0.22394845
0000e0 8e 8e 05 3e 2c 78 18 bd 6c 40 f3 3d d2 f2 04 3e
       0.13042662 -0.03722398 0.11877522 0.12983254
0000f0 d7 dd 0c 3d 5f b9 3a 3d 0e da cd 3d 45 d9 81 3d
       0.03439125 0.04558694 0.10051356 0.06340269
000100 d1 7b 01 bd ad 9b b7 3c 32 89 a1 3d 26 aa b6 bc
       -0.03161222 0.0224131 0.07887496 -0.02229793
000110 bb e8 96 3d cb 01 0f 3d 61 00 93 3e a3 58 a1 bb
       0.073686086 0.03491382 0.28711227 -0.0049238964
000120 96 de 08 bd 0d 99 30 3d 43 bb 6d 3d 34 3a bc 3d
       -0.0334154 0.04311471 0.058039915 0.09190789
000130 24 17 25 3d ee 38 52 3d 08 24 72 bd 5d a5 b5 3c
       0.04030527 0.051323824 -0.059116393 0.022173578
000140 25 14 c0 3d c5 18 8a 3d 1b a2 88 3d cc b0 a5 3d
       0.09378842 0.06743006 0.06671544 0.08090362
000150 e1 ce ff 3c 07 73 03 3e ab 81 39 3d ab 77 35 3b
       0.031226577 0.12836848 0.045289677 0.0027689736
000160 c2 8c af 3d 5d c8 a4 3d 4f 20 bb 3d f5 96 b2 bd
       0.08571769 0.08046029 0.09137022 -0.08720199
000170 8d a8 d5 3d 42 df 95 3d 64 47 e9 3c fd d5 98 ba
       0.10432539 0.07317974 0.028476425 -0.0011660453
000180 91 6e 50 3d d6 58 ad 3c e5 ed 2d 3d a7 2b f0 3d
       0.050886694 0.021160524 0.042463202 0.11727076
000190 91 16 6c 39 65 74 b0 bd 13 a7 72 3b a1 33 8b bd
       0.0002251512 -0.086159505 0.0037025854 -0.06796957
0001a0 d6 ed 95 bd a8 4a ef 3c 93 08 31 3e f2 11 bc 3d
       -0.07320754 0.029210404 0.17288427 0.0918311
0001b0 91 11 df bc ee 35 87 3d d8 72 12 3d ab 5a c8 3d
       -0.027230056 0.06602083 0.035754055 0.097829185
0001c0 3f 95 3e 3d 55 d9 1e 3c 82 dd ec 3c 30 19 b2 3d
       0.04652905 0.009695371 0.028914217 0.086962104
0001d0 79 2c 8b 3d 60 e8 c4 3d 99 fd c4 bb c9 95 1e bc
       0.06795592 0.096146345 -0.0060116765 -0.009679266
0001e0 b4 73 bf 3c fc b2 8a 3d 95 f1 a5 3d b4 76 82 3d
       0.023370601 0.0677242 0.08102719 0.06370297
0001f0 ab 5d 99 3d f5 c6 c5 bb 85 db d7 3d a8 c0 a3 3d
       0.07488569 -0.0060356804 0.10539917 0.07995731
000200 2d 4f 59 3e d5 08 72 bd d4 2c e2 3d 6d 97 67 bd
       0.2122161 -0.059090454 0.110437065 -0.056540895
000210 af 1e 7b bd b6 83 a6 3d da 2d d4 bd 7c d0 0a 3b
       -0.06130856 0.081305906 -0.10360308 0.0021181395
000220 a0 99 e4 bc 93 b2 0f be 68 f1 a9 3d f8 de cd 3c
       -0.027905285 -0.14032964 0.08297998 0.025130734
000230 2e 5d b7 3c 78 64 b6 3d 8b aa e7 3d 21 b0 d1 bc
       0.022383299 0.08905882 0.11311825 -0.02559668
000240 16 13 29 3a ee 0e b2 bc 8c 25 76 bd 73 59 93 bc
       0.00064496824 -0.021735635 -0.0600944 -0.017986989
000250 91 35 e4 bd 56 27 33 be 0e 95 82 3c 06 c6 fa bc
       -0.111430295 -0.17495474 0.015940215 -0.030612003
000260 43 a8 88 bd 74 98 2b 3c 29 90 94 3d 30 81 9d bd
       -0.066727184 0.010473359 0.07254059 -0.07690656
000270 0a 8e 01 3d ba 9a 9e 3d 1e f7 d2 3d c7 ab 1a bd
       0.0316296 0.077443555 0.1030104 -0.037761476
000280 71 d3 8e bd 7a 60 ca 3d d7 90 81 bd e8 4e bb 3d
       -0.06973923 0.09881683 -0.06326454 0.091459095
000290 6a 1b f2 3a 2a 14 a3 bc e3 36 0a 3d db 3b 2d 3e
       0.0018471305 -0.019907076 0.03374375 0.16917364
0002a0 5e f7 cb bd 80 8b 66 3c 2a 03 99 3d 99 b9 81 ba
       -0.09959291 0.014071345 0.074713066 -0.0009897231
0002b0 aa c8 02 be 3a 6b 64 3d 49 88 16 be 0d 89 42 bd
       -0.1277186 0.05576632 -0.14700426 -0.047493983
0002c0 61 16 ae bc a7 a4 b2 3c d4 38 a4 bc 76 da 33 be
       -0.021250905 0.021807028 -0.020046629 -0.17563805
0002d0 b0 28 63 3c 5d 57 f2 3d e3 61 71 3d 7f 55 e2 3d
       0.013864681 0.118330695 0.058931243 0.11051463
0002e0 98 8c 18 be 5c a0 ef 3d 33 d8 6f 3d f9 f6 82 3d
       -0.14897382 0.11700508 0.058555793 0.063947625
0002f0 2e 6b 6d 3c e5 d8 8d bd d0 80 35 be e0 6b e4 3c
       0.014490886 -0.06926135 -0.1772492 0.02788347
000300 b4 72 84 bb 0c ab 89 3c 12 79 fa 3d d2 94 e5 3d
       -0.004041994 0.016805194 0.122301236 0.11210026
000310 9d df 78 3c 5b e8 16 3e 55 2b 92 3d 80 40 54 3e
       0.015190032 0.14737074 0.07137171 0.2072773
000320 c9 94 1d bd ff ba c2 bd 4a d8 e4 3d 2f 02 b1 3d
       -0.03847197 -0.09508323 0.11174066 0.086429946
000330 31 81 10 be 12 a2 4a 3c 23 e6 07 3e a7 43 c0 3d
       -0.14111783 0.012367742 0.13271384 0.09387904
000340 46 f1 90 3d ba cb 55 3d 80 3e 45 3d b9 21 16 3e
       0.07077269 0.052196242 0.048155308 0.14661302
000350 ce 58 c4 3d c6 f8 ec 3d f5 3e 0f 3c 5c 28 9f 3d
       0.09587251 0.11570887 0.0087430375 0.0777137
000360 d3 9d 48 3d 96 f4 2d 3e 03 06 fb 3d b2 17 3b 3e
       0.048978638 0.16987833 0.12257006 0.18270758
000370 db 6d b7 3d a8 2b ce 3d dd 2b ef bc 2d 81 12 3e
       0.089565 0.100669205 -0.02919572 0.14307089
000380 b3 27 d0 bc 73 31 22 bd 8b 1a 11 3e 70 24 d2 3d
       -0.025409555 -0.03959794 0.14170282 0.10260856
000390 10 52 0f 3e ae f0 fc bb 52 73 0e 3e 1d bf 12 3d
       0.13996148 -0.007719121 0.13911179 0.03582679
0003a0 25 ef cb bc 57 64 b0 3c 4c 87 87 bb 77 69 9c 3d
       -0.024894306 0.02153222 -0.0041360017 0.07637303
0003b0 17 72 89 3d d6 94 31 3e e4 d5 12 3e fb 26 7b 3d
       0.06711214 0.17341933 0.14339405 0.06131647
0003c0 6f de 12 3e ef c9 82 bd 7a 60 00 3e c2 2e 29 3e
       0.14342664 -0.06386172 0.12536803 0.16521743
0003d0 37 bb c8 3d 4c 2b bb 3d ae 40 b2 bd 1d a3 09 3e
       0.098013334 0.091391176 -0.08703743 0.13441129
0003e0 25 48 8e 3c 20 87 72 3d 38 de 5b 3d 68 56 91 bd
       0.017368386 0.059210896 0.05367872 -0.07096559
0003f0 67 d2 5e bc 82 7d 42 bc df 34 24 3e fe 3b 41 bd
       -0.0135999685 -0.011870744 0.16035794 -0.047176354
