Model/lstmmodel.pt (torch, 352805 bytes, 18 tensors)

weight_ih_l0 f4 [256, 3]
0	0x3d9f17af	0.07768189
1	0x3cd2531e	0.025674399
2	0x3eaa34ee	0.33243507
3	0x3eb9af5b	0.36266598
4	0x3e1f0949	0.15530886
5	0x3decb4f6	0.11557953
6	0xbe112084	-0.1417256
7	0xbc3f019f	-0.011658101
8	0x3e3ce05c	0.18444961
9	0x3e98dd95	0.29856554
10	0x3d89e57f	0.06733226
11	0x3dbcff66	0.09228401
12	0x3db14741	0.08656169
13	0x3ec01a30	0.3751998
14	0x3d8ac332	0.06775512
15	0xbe190d18	-0.14946401
16	0x3f0877f9	0.53308064
17	0x3d739b50	0.05947429
18	0x3e688303	0.22706227
19	0xbe58faec	-0.21189469
20	0x3ddeee60	0.1088531
21	0x3ea595f6	0.32340974
22	0x3e38fe45	0.18065746
23	0x3e057615	0.13033326
24	0xbe00e463	-0.12587123
25	0x3c247328	0.010037221
26	0x3e62efa9	0.22161736
27	0x3d8f270b	0.06989869
28	0xbf4f8fa4	-0.81078553
29	0x3db1f409	0.08689124
30	0x3e9fc25a	0.31202966
31	0x3e9884a9	0.29788712
32	0x3e043886	0.12912187
33	0x3d81437f	0.06311702
34	0x3eba9f13	0.3644949
35	0x3c57b92f	0.01316671
36	0x3d6ac948	0.057320863
37	0x3fa64d17	1.2992276
38	0xbb987af2	-0.004653328
39	0xbdd1738e	-0.102271184
40	0xbf032eab	-0.51243085
41	0xbbf1fe75	-0.00738507
42	0xbf37a510	-0.7173624
43	0x3fa3dba0	1.2801399
44	0x3ce3bc48	0.02779974
45	0xbe96f3af	-0.2948279
46	0xbebbe793	-0.36700115
47	0xbdae011e	-0.08496307
48	0x3f90cc5c	1.1312366
49	0x3e49f421	0.19722034
50	0x3bcb4626	0.0062034307
51	0x3d6337de	0.0554732
52	0xbe99ab2a	-0.300134
53	0x3d0a523b	0.033769827
54	0xbc802886	-0.015644323
55	0x3e6cfd92	0.23143604
56	0xbd089bf7	-0.033351865
57	0xbe227074	-0.1586321
58	0x3e461281	0.19342996
59	0x3d6f4eef	0.058424886
60	0x3d2419f1	0.040063802
61	0x3e1e7693	0.1547492
62	0x3e940a16	0.28913945
63	0xbd8cef4c	-0.0688158
64	0x3e1c8a17	0.15287052
65	0xbe31ae84	-0.17351729
66	0xbd71745f	-0.05894887
67	0x3eb1003d	0.34570494
68	0x3de73583	0.112895034
69	0x3ea218c3	0.31659517
70	0x3e87fdf7	0.26560947
71	0x3ddca603	0.10773852
72	0xbc71a840	-0.014749587
73	0x3ca87a2b	0.020566067
74	0xbd097f8d	-0.033568908
75	0xbe2960c2	-0.16540816
76	0xbe9648ca	-0.2935241
77	0x3e981c77	0.29709217
78	0x3eb0add2	0.34507614
79	0x3e13764a	0.14400592
80	0xbdb9d6a6	-0.09074144
81	0xbd837641	-0.064190395
82	0xbe2b3e16	-0.16722903
83	0x3e1ab3ff	0.15107726
84	0x3e7df8fc	0.24802011
85	0x3e251bd5	0.16123898
86	0x3e627683	0.22115521
87	0x3e7eece8	0.2489506
88	0xbb147070	-0.0022650026
89	0x3e0d992f	0.13827966
90	0x3e02e3f3	0.12782268
91	0x3ec993e1	0.39370635
92	0x3d62a7b6	0.055335723
93	0x3d34b301	0.044116024
94	0xbd57e1d6	-0.05270561
95	0x3e360e5e	0.17778918
96	0x3e1a1582	0.15047267
97	0xbcfd4390	-0.030916005
98	0x3e1bf3ed	0.15229769
99	0x3e395d58	0.18102014
100	0xbde7add6	-0.113124534
101	0x3e3660bc	0.17810339
102	0xbd6606ec	-0.056158945
103	0x3e8c98f1	0.27460435
104	0xbd33e306	-0.04391768
105	0xbe67a2cf	-0.226207
106	0x3eb77dbd	0.35838118
107	0xbd506857	-0.050880756
108	0x3da4d6d5	0.080487885
109	0x3e924dd5	0.28575006
110	0x3dc84b10	0.09779942
111	0x3e05edbe	0.13078973
112	0xbecf3dfa	-0.40476972
113	0xbc5febdb	-0.013667072
114	0x3e54d360	0.20783758
115	0x3d49271b	0.04910956
116	0x3e35bdd2	0.17748192
117	0x3e66d1d8	0.22540987
118	0xbd80d93f	-0.062914364
119	0x3e5142ea	0.20435682
120	0x3dd2c951	0.10292304
121	0x3e55e6bd	0.20888801
122	0x3e1ce764	0.15322644
123	0x3db40754	0.0879046
124	0x3dbfa89e	0.09358333
125	0x3dce7b56	0.10082118
126	0x3d98d44d	0.07462368
127	0x3e8d4920	0.27594852
128	0x3e664de7	0.22490655
129	0xbc83676e	-0.01604053
130	0x3e1a9176	0.15094551
131	0x3de53f8d	0.11193762
132	0x3ea8a698	0.329396
133	0x3dfe4f38	0.124174535
134	0x3e87c7b7	0.26519558
135	0x3ea740c7	0.3266661
136	0xbd1869af	-0.037210163
137	0xbe198143	-0.14990716
138	0xbe99fc99	-0.3007553
139	0xbdf56439	-0.119820066
140	0x3d2595ad	0.040425945
141	0xbda77fef	-0.08178698
142	0xbcb2ba56	-0.021817368
143	0x3f3ee4cf	0.74567884
144	0x3dc6be54	0.09704271
145	0xbc61d213	-0.013782996
146	0xbd3c6321	-0.045992974
147	0x3e1e5bfc	0.15464777
148	0x3e090ce1	0.13383819
149	0x3db545f3	0.088512324
150	0x400fecfd	2.2488396
151	0x3d0fa857	0.03507265
152	0xbc4f667f	-0.012658714
153	0x3e6f13dd	0.23347421
154	0x3f125a6d	0.5716923
155	0xbd12ee6f	-0.03587192
156	0x3e1655a8	0.14681113
157	0x3db50970	0.08839691
158	0x3de58988	0.11207873
159	0xbc87e1dd	-0.016587192
160	0xbe4893ff	-0.19587706
161	0xbe30ee62	-0.17278436
162	0x3d83cdfa	0.06435771
163	0xbe55eff8	-0.20892322
164	0xbe1bb5ff	-0.15206145
165	0x3e8c4f78	0.2740438
166	0x3e19b9c1	0.15012266
167	0x3dbd29d8	0.09236497
168	0xbcb76f8d	-0.022392059
169	0x3e3694d6	0.17830214
170	0x3dc67fd5	0.09692351
171	0x3e48524b	0.19562642
172	0x3dda8fb8	0.106719434
173	0x3ecec5d8	0.40385318
174	0x3ec77d57	0.38962814
175	0x3e51dedf	0.20495175
176	0x3deeca4e	0.1165968
177	0x3dc9ea40	0.09859133
178	0x3eb04174	0.34424937
179	0x3dad82e7	0.08472233
180	0x3ebfb0f8	0.37439704
181	0x3e1a925a	0.15094891
182	0x3dd35d78	0.10320562
183	0xbdd3ca05	-0.103412665
184	0x3f5f8b3d	0.87321836
185	0x3dba1ae7	0.090871625
186	0x3ea83dfc	0.3285979
187	0x3cb08430	0.021547407
188	0x3d84e3d0	0.06488764
189	0x3e691714	0.2276271
190	0xbde697c2	-0.11259414
191	0x3d62d4f5	0.055378873
192	0x3d1b3304	0.03789045
193	0xbd4e9308	-0.05043319
194	0x3db1be57	0.086788826
195	0x3c328254	0.01089533
196	0x3da37968	0.07982141
197	0x3e087f91	0.13329913
198	0xbda721d3	-0.08160748
199	0x3db78a0e	0.08961879
200	0x3e115ba3	0.14195113
201	0x3ddba003	0.10723879
202	0x3d021b79	0.03176448
203	0x3deed72d	0.11662135
204	0xbe9094d1	-0.28238538
205	0x3c030a4a	0.007998059
206	0xbe8702ad	-0.2636923
207	0x3dc6d814	0.097091824
208	0xbdd56de0	-0.104213476
209	0x3dcdbf7a	0.10046287
210	0x3fd12448	1.6339197
211	0xba900f48	-0.0010990882
212	0x3d704bf9	0.058666203
213	0x3e4a8615	0.1977771
214	0x3cc2d6bd	0.023784036
215	0x3e1ad6e2	0.15121034
216	0x3e03b142	0.12860587
217	0xbd0812fa	-0.033221222
218	0x3d7b1a63	0.06130446
219	0x3e7e41fa	0.24829856
220	0xbf1f13c7	-0.6213955
221	0x3e1812d2	0.1485093
222	0x3e1cc17e	0.15308186
223	0x3d335be0	0.04378879
224	0x3e67b74e	0.22628519
225	0xbca930ae	-0.020653095
226	0x3d2e0326	0.04248347
227	0x3df410fd	0.11917303
228	0x3ea686be	0.32524675
229	0xbd05b93f	-0.032647368
230	0x3d4982c0	0.04919696
231	0xbe013dfb	-0.126213
232	0x3ead9fc0	0.33910942
233	0x3d95377a	0.07285972
234	0xbd246bc5	-0.04014184
235	0x3f51c5d8	0.8194251
236	0x3dfc9d85	0.12334732
237	0xbe8d225f	-0.27565286
238	0xbeabbe99	-0.33543852
239	0x3d6a8c3c	0.057262644
240	0xba80c2d6	-0.0009823691
241	0x3c263e84	0.010146741
242	0xbe519b4a	-0.20469394
243	0xbb4ee0d0	-0.0031567104
244	0x3d7e92a7	0.062151577
245	0xbd81cd2f	-0.06337964
246	0x3de849fa	0.11342235
247	0x3d0148cb	0.03156356
248	0x3e070b77	0.13187967
249	0x3e072650	0.13198209
250	0xbe3059f2	-0.17221811
251	0x3e29fb36	0.16599736
252	0xbe2cc1da	-0.16870824
253	0xbe154289	-0.14576162
254	0xbea1d7fd	-0.31610098
255	0xbcc93006	-0.024559032

weight_hh_l0 f4 [256, 64]
0	0x3b90c526	0.004418033
1	0x3a85e07c	0.0010213996
2	0xbb52fbf0	-0.0032193623
3	0xbb1236de	-0.0022310535
4	0x3adffdd0	0.0017089192
5	0x3b848d3f	0.004045158
6	0x3976d293	0.00023538833
7	0x3bc74e4d	0.006082332
8	0x3b064f92	0.0020494205
9	0xbb4f94a6	-0.0031674295
10	0x3be84b23	0.007089035
11	0x3b83eb61	0.004025862
12	0xbba99783	-0.0051755323
13	0x3b4008a7	0.0029302032
14	0xbaa5d632	-0.0012652336
15	0xbba73127	-0.005102295
16	0xbc0d0bfa	-0.0086088125
17	0xbb089137	-0.0020838508
18	0xbb83f99c	-0.0040275585
19	0x3b379015	0.0028009464
20	0x398eec60	0.00027260464
21	0x3a85777a	0.0010182702
22	0xbc179704	-0.0092523135
23	0xbbf38beb	-0.007432451
24	0xbb40ddf8	-0.0029429179
25	0xbb8c8dc6	-0.0042893616
26	0x3bcd4736	0.0062645925
27	0xba5b682f	-0.00083697116
28	0xbc177d2b	-0.009246151
29	0x3c04e88d	0.008112085
30	0xbb9cd141	-0.004785687
31	0x3aca22c9	0.0015421744
32	0xba996fcd	-0.0011706293
33	0x3b341dfa	0.0027483688
34	0x3ba148b0	0.004921995
35	0xbb32e4e7	-0.002729708
36	0xbc3cdb4c	-0.011526894
37	0xbb57763b	-0.0032876867
38	0xbbfa3e35	-0.00763681
39	0xbbc36f87	-0.005964223
40	0x3b8e349d	0.004339768
41	0xbab870e8	-0.0014071735
42	0xbc05f68f	-0.00817646
43	0xbaf20f7a	-0.0018467747
44	0xbc304c75	-0.010760416
45	0x3bcf0dbe	0.006318777
46	0xbb949544	-0.0045343954
47	0xbb0c4487	-0.002140315
48	0xbaed0d93	-0.001808571
49	0x3b0c7265	0.002143049
50	0x3b391597	0.0028241628
51	0x3ab8d9ee	0.0014103034
52	0xbba914df	-0.0051599587
53	0x3bae41b7	0.0053178924
54	0x3b3430c5	0.002749489
55	0xbb3da20c	-0.0028935699
56	0xbc37c44b	-0.0112162335
57	0xba08b7b6	-0.00052153633
58	0x3c1daa51	0.009623126
59	0x3b9cf625	0.004790085
60	0xbb912e51	-0.00443057
61	0x3b3643cc	0.0027811406
62	0x3a793189	0.00095059775
63	0x3a196b12	0.00058524415
64	0xbca4cbbc	-0.02011668
65	0x3ab66f3d	0.001391865
66	0x3bb595a4	0.00554152
67	0x3cac274b	0.02101483
68	0x3a067e46	0.00051305105
69	0xbb635000	-0.0034685135
70	0x3b9efcf2	0.004851931
71	0xbce3f735	-0.027827838
72	0x3b46e482	0.0030348604
73	0xbc6e8e72	-0.014560329
74	0xbc8c27f8	-0.017108902
75	0x3c10d3cc	0.008839559
76	0xbc850870	-0.016239375
77	0xbb0c8298	-0.0021440145
78	0x3c534e01	0.012897016
79	0xbb52b451	-0.0032150934
80	0xbbf204d2	-0.0073858285
81	0xb8007b73	-3.063255e-05
82	0xbbbfbf18	-0.0058516376
83	0xbbd94dae	-0.0066315746
84	0xbbf19e96	-0.0073736412
85	0x3b8e7b15	0.0043481686
86	0x3c84765f	0.016169725
87	0xbc00fe43	-0.007873121
88	0xbc8faae8	-0.01753755
89	0xbc3b8719	-0.011445784
90	0x3bc5e5c9	0.0060393554
91	0xbc0900d7	-0.008362017
92	0xbc9b09a2	-0.018925492
93	0x3c84b720	0.016200602
94	0xbb81bc9d	-0.003959252
95	0x3b341a03	0.0027481325
96	0x3c714fb2	0.0147284735
97	0x3c63a8b6	0.013895204
98	0xbcaab1c0	-0.02083671
99	0x3bc82b6c	0.006108692
100	0x3bd2539a	0.0064186575
101	0x3c754411	0.014969842
102	0xbc1dc17c	-0.00962865
103	0xbc85e020	-0.016342223
104	0xbba257bd	-0.004954307
105	0x3bb59088	0.005540911
106	0x3b198de3	0.0023430518
107	0x3c0285cf	0.007966473
108	0xbca78581	-0.020449402
109	0x3b7947b2	0.0038037119
110	0x3bbc3089	0.0057430905
111	0x3c4123cc	0.01178832
112	0x3b7c1b81	0.0038468542
113	0x3c195354	0.009358246
114	0x3c55b3b0	0.013043329
115	0xbbe92628	-0.0071151443
116	0x3c038cf8	0.008029215
117	0x3c3d4ceb	0.011553983
118	0x3c92435e	0.017854389
119	0x3a670469	0.0008812608
120	0x3c44ac26	0.012003934
121	0xbca55faf	-0.020187227
122	0x3c034e65	0.008014296
123	0xbb5b3bdc	-0.0033452427
124	0x3c89f34d	0.016839648
125	0xbc21f18c	-0.009884249
126	0xbcc50bd7	-0.024053497
127	0x3aac5e75	0.0013150709
128	0x3d62ce75	0.055372674
129	0x3d97f16b	0.07419094
130	0x3d0e44ed	0.0347337
131	0xbb2585bb	-0.0025256712
132	0xbe0cbc33	-0.13743667
133	0x3d825919	0.0636465
134	0x3c6642a2	0.014053972
135	0x3ca24e67	0.019812776
136	0x3ce21406	0.027597439
137	0x3d06bf06	0.032897018
138	0x3d774713	0.060370516
139	0xbd6a343a	-0.057178713
140	0xbd3e57e3	-0.046470534
141	0xbd618bf3	-0.055065107
142	0xbdbf66ef	-0.09345805
143	0x3d96bd95	0.07360379
144	0xbe3433b2	-0.17597845
145	0x3df0145f	0.117226355
146	0xbdf9bf0d	-0.12194643
147	0xbe20337a	-0.15644637
148	0xbd439ff0	-0.04775995
149	0xbcc5e6f8	-0.024157986
150	0x3db4dcd2	0.08831181
151	0xbcacc04f	-0.021087794
152	0x3dbc5c48	0.09197289
153	0x3c9f108d	0.019417072
154	0x3d4e0a54	0.05030282
155	0x3b2086aa	0.0024494329
156	0x3cbfe30e	0.023423698
157	0x3d5353a6	0.051593445
158	0xbdb10c6b	-0.08644947
159	0xbdd78df8	-0.10525125
160	0x3d14d34a	0.036334313
161	0x3d3340cb	0.043762963
162	0x3d6e5392	0.058185168
163	0x3d9b8191	0.07593072
164	0xbb703967	-0.0036655308
165	0xbd8228c5	-0.063554324
166	0x3a3ce98c	0.0007206432
167	0x3cf820b2	0.030289028
168	0x3d37f71d	0.0449134
169	0x3e4b9ff7	0.1988524
170	0x3cd86928	0.02641733
171	0xbd1a394e	-0.037652306
172	0x3d7172b5	0.058947284
173	0xbd7acab9	-0.061228488
174	0x3cb9dff6	0.0226898
175	0x3c30a841	0.010782302
176	0x3d988b5a	0.07448454
177	0xbd229cd1	-0.039700333
178	0x3d87ec90	0.066369176
179	0xbdc2d617	-0.09513491
180	0x3cfe3f52	0.031036053
181	0xbc172073	-0.009224045
182	0xbcff1341	-0.03113711
183	0xbd1534fd	-0.036427487
184	0x3df7c10e	0.12097369
185	0x3c70d85c	0.014700022
186	0x3c555423	0.013020548
187	0x3c44af94	0.012004752
188	0xbda06132	-0.078310385
189	0x3d2efa00	0.042718887
190	0xbd5b8afc	-0.053599343
191	0xbcdafc39	-0.026731597
192	0x3de2c8c8	0.11073452
193	0x3d6851c4	0.056718603
194	0xbc102751	-0.008798436
195	0xbbedcbe2	-0.0072569707
196	0x3c304f3e	0.01076108
197	0x3da98d97	0.08278959
198	0xbd86ed75	-0.0658826
199	0x3bd6ce9a	0.0065553905
200	0xbc3d2f13	-0.011546868
201	0xbd7f9ac6	-0.062403463
202	0xbb9d04b5	-0.004791821
203	0xbd1d2e72	-0.03837437
204	0x3d12b230	0.035814464
205	0x3d92eeee	0.071744785
206	0x3a3cda16	0.0007204128
207	0xbc076e55	-0.008266051
208	0xbd8295c0	-0.06376219
209	0xbb8b5176	-0.0042516543
210	0xbc3cf877	-0.011533848
211	0xbbd118e7	-0.0063811424
212	0xbaf15326	-0.0018411621
213	0xbdf81a69	-0.12114412
214	0xbc314c12	-0.010821359
215	0xbd23fc99	-0.040035818
216	0x3d8ff781	0.070296295
217	0xbb9cd46b	-0.0047860644
218	0x3b8b9613	0.0042598336
219	0xbd9962b8	-0.07489532
220	0x3dfe26ab	0.12409719
221	0x3be53f41	0.006996066
222	0xbd72348c	-0.059132144
223	0x3c1a2685	0.009408598
224	0x3c4f0165	0.01263461
225	0xbcaf8c59	-0.021429228
226	0x3d89def8	0.06731981
227	0xbaa1f583	-0.0012356493
228	0xbd3ba68a	-0.04581312
229	0xbd42bdb4	-0.047544196
230	0xbc05bb6a	-0.008162359
231	0xbb176d22	-0.002310582
232	0xbda2b517	-0.079446964
233	0xbd83db82	-0.06438352
234	0xbd871515	-0.06595818
235	0x3907fa56	0.0001296786
236	0x3c2a043b	0.010376985
237	0xbc0d8c93	-0.008639473
238	0x3baf249d	0.005344941
239	0xbdf46192	-0.119326726
240	0x3d44fdc4	0.048093572
241	0xbd036da6	-0.03208699
242	0x3c34b87f	0.011030315
243	0xbc883bd1	-0.016630085
244	0xbd6f366f	-0.05840152
245	0x3bcc8f0b	0.006242638
246	0xbc9b2c39	-0.018941985
247	0xbd45f2d3	-0.04832728
248	0x3bf0a1ce	0.0073435074
249	0x3dbd2475	0.09235469
250	0x3b8fdcb8	0.0043903254
251	0xbd075468	-0.03303948
252	0xbdb837fa	-0.08995052
253	0xbc9ca195	-0.019120017
254	0x3b8b8186	0.0042573838
255	0xbcd5b3c4	-0.026086695

bias_ih_l0 f4 [256]
0	0x3d24d2e7	0.040240195
1	0x3d25aee2	0.040449984
2	0x3d4f1c6a	0.050564207
3	0x3ead8791	0.3389249
4	0x3e91a908	0.28449273
5	0xbd7dbab8	-0.061945647
6	0xbc833e36	-0.016020875
7	0x3da591ac	0.08084425
8	0xbdebf8c2	-0.11522056
9	0xbe4f23c8	-0.20228493
10	0x3daab506	0.08335309
11	0xbd28d19a	-0.041215517
12	0xbc46c4b4	-0.012131859
13	0xbd1f7952	-0.03893406
14	0x3dea8809	0.11451728
15	0xbe635dfe	-0.22203824
16	0x3da3c4c4	0.079965144
17	0xbdda7050	-0.10665953
18	0x3e9bbe11	0.30418447
19	0x3d9757ec	0.07389817
20	0xbca8d094	-0.02060727
21	0xbd69567b	-0.05696724
22	0x3e1a691a	0.15079156
23	0x3ea3754c	0.31925428
24	0x3dba452d	0.090952255
25	0x3d0c7c73	0.03429837
26	0x3e7ed8d6	0.24887404
27	0xbd727e33	-0.059202384
28	0x3e40dfa4	0.18835312
29	0x3d54361f	0.051809426
30	0x3e0657d3	0.1311944
31	0x3dd185e7	0.10230618
32	0x3d2fa18f	0.042878684
33	0x3e02af5c	0.12762207
34	0x3df394e9	0.11893637
35	0x3e9ae5aa	0.30253345
36	0x3eab9f7e	0.3352012
37	0x3e47b11a	0.19501153
38	0x3e44265a	0.19155255
39	0x3d75b45d	0.05998646
40	0x3df25b12	0.118337765
41	0x3dc1b656	0.09458606
42	0x3e36e579	0.17860974
43	0xbc1db5d4	-0.009625871
44	0x3e34344e	0.17598078
45	0x3d054445	0.03253581
46	0x3e555eed	0.20836993
47	0xbd3b2c92	-0.045696802
48	0x3d5bdb7e	0.05367612
49	0x3d45f576	0.048329793
50	0x3dbc2dd5	0.09188429
51	0x3e523375	0.20527442
52	0x3eb75043	0.35803422
53	0x3e4488c7	0.19192801
54	0x3d6c704a	0.057724275
55	0x3cee067f	0.029055832
56	0x3e218e29	0.15776886
57	0x3e111d12	0.14171246
58	0x3e640e2c	0.22271031
59	0x3d7212b3	0.059099864
60	0x3e604ef8	0.21905124
61	0x3da01bef	0.07817828
62	0x3d6ae226	0.05734458
63	0x3e545636	0.20736012
64	0xbd1d9896	-0.038475595
65	0xbc14d317	-0.009083531
66	0x3e011b05	0.12607963
67	0xbd246c55	-0.040142376
68	0xbdc29a22	-0.09502055
69	0xbd16948a	-0.03676275
70	0xbcc9440f	-0.024568586
71	0xbd02d383	-0.031939995
72	0xbb28ea2b	-0.002577434
73	0x3ea35036	0.31897134
74	0xbd8e4cd2	-0.06948246
75	0xbcb5f304	-0.022210605
76	0xbc637af6	-0.013884297
77	0x3e121637	0.14266287
78	0x3e0a23bb	0.13490193
79	0x3e0cdf3f	0.13757037
80	0x3d98501f	0.07437157
81	0xbdf4c57f	-0.11951732
82	0x3cc2589b	0.023723891
83	0x3e6ba4c1	0.23012067
84	0xbe50bfb0	-0.20385623
85	0xbd0379ba	-0.03209851
86	0xbe3c6074	-0.18396169
87	0x3dbb126d	0.09134374
88	0x3d5b6384	0.053561702
89	0x3e023e16	0.12718996
90	0x3d23b4ca	0.039967336
91	0x3be9c6fa	0.0071343156
92	0xbd75db96	-0.060023867
93	0x3dd01e63	0.10162046
94	0x3c4765b0	0.01217024
95	0x3dee5196	0.11636655
96	0xbd36a3ff	-0.044589993
97	0xbd2d42e9	-0.04230014
98	0x3ddc142b	0.10746034
99	0x3d2184ac	0.039433166
100	0xbc829214	-0.015938796
101	0x3cd97f42	0.026549939
102	0xbbe56a04	-0.0070011634
103	0x3cbb11b6	0.022835594
104	0x3d8f741a	0.070045665
105	0xbb881ebc	-0.0041540544
106	0x3c98cd95	0.018652717
107	0x3d0655c2	0.03279663
108	0xbdc34683	-0.095349334
109	0x3e2b86ea	0.16750684
110	0x3a91c562	0.0011121447
111	0xbe06951c	-0.13142818
112	0xbc18387c	-0.009290811
113	0x3c320bf4	0.010867108
114	0xbdac0b95	-0.084006466
115	0x3a11f85e	0.00055683206
116	0x3ceeb319	0.029138135
117	0x3d498221	0.049196366
118	0x3e530607	0.20607768
119	0xbcfb3079	-0.030662762
120	0xbdfe4e76	-0.12417309
121	0xbce836ba	-0.028346408
122	0xbd5b8927	-0.053597596
123	0xbb67c8d7	-0.0035367513
124	0xbe5335b1	-0.2062595
125	0xbd1f7818	-0.03893289
126	0xbc85d9e1	-0.016339244
127	0xbc227bd0	-0.0099172145
128	0x3c8dfb47	0.017331732
129	0xbd01afaa	-0.031661667
130	0x3e136450	0.14393735
131	0xbdee4ed3	-0.11636128
132	0xbe85f494	-0.2616316
133	0x3e182c57	0.14860664
134	0x3d5ab897	0.053398695
135	0x3da0cab4	0.078511626
136	0x3db06c8a	0.08614452
137	0xbe24989b	-0.1607384
138	0x3d089104	0.033341423
139	0x3e060a2e	0.1308982
140	0xbe5d564f	-0.21614955
141	0xbe9f7c22	-0.31149393
142	0xbe0a8978	-0.13529003
143	0x3e900e0c	0.28135717
144	0xbe2a0ab1	-0.16605641
145	0xbd0b6274	-0.03402944
146	0xbe88eda6	-0.2674381
147	0xbe3b9105	-0.1831704
148	0xbbb745d1	-0.0055930396
149	0xbd2b4a54	-0.04181893
150	0x3d933815	0.07188431
151	0x3cae295a	0.021259952
152	0x3e27bc26	0.16380367
153	0xbe1efadf	-0.15525387
154	0x3df3b083	0.11898901
155	0xb9c51559	-0.00037590673
156	0xbd8b522f	-0.06802785
157	0x3e0dffd3	0.1386712
158	0xbd9812bd	-0.07425449
159	0xbdae6999	-0.08516235
160	0xbca26147	-0.019821776
161	0xbd427c70	-0.047481954
162	0xbd911710	-0.07084477
163	0x3e3a2020	0.18176317
164	0x3e95a00a	0.29223663
165	0xbe8703cb	-0.2637008
166	0x3c98828d	0.018616939
167	0xbdb036b2	-0.08604182
168	0x3e17cde4	0.14824635
169	0x3df63313	0.120214604
170	0x3e1fb31f	0.15595673
171	0x3e43843b	0.1909341
172	0x3c2a8a2a	0.010408917
173	0x3e955a51	0.29170468
174	0xbe2256b5	-0.15853389
175	0x3de5fc33	0.11229744
176	0x3e282fa6	0.16424426
177	0x3dfee80c	0.12446603
178	0x3e37ce7e	0.17949864
179	0xbe89679d	-0.26836863
180	0x3e214c2d	0.15751715
181	0x3e486402	0.195694
182	0x3d25f164	0.04051341
183	0xbccb0f61	-0.024787607
184	0xbc385e20	-0.01125291
185	0xbe1cfc63	-0.15330653
186	0x3e47c7e4	0.19509846
187	0x3dbbc2b4	0.09167996
188	0xbd1676c6	-0.036734365
189	0x3e449116	0.19195971
190	0x3de9c1df	0.11413931
191	0xbe1b75ba	-0.15181628
192	0x3d56f7be	0.05248236
193	0xbca16381	-0.019700767
194	0x3dbab320	0.09116197
195	0x3e5fb388	0.2184583
196	0x3e665f75	0.22497351
197	0xbe26b0fd	-0.16278453
198	0x3ba338a9	0.0049811197
199	0x3dc43472	0.09580316
200	0xbdefda35	-0.117115416
201	0xbdd4843e	-0.10376786
202	0x3e88d069	0.26721504
203	0x3dc086a6	0.09400682
204	0x3d973096	0.07382314
205	0x3e1d960a	0.15389267
206	0x3e498462	0.19679406
207	0x3e859e74	0.26097453
208	0x3e303020	0.17205858
209	0x3e8435a5	0.25822178
210	0x3e88b5ba	0.26701146
211	0xbddae736	-0.10688631
212	0x3dffcd3c	0.12490317
213	0xbd1fc526	-0.039006375
214	0x3e5e9f94	0.21740562
215	0x3eaaa47d	0.3332862
216	0x3dc8436c	0.09778485
217	0x3e3a9bec	0.18223542
218	0x3d863109	0.065523215
219	0xbd8b6d5b	-0.06807967
220	0xbd3c2d5a	-0.045941688
221	0x3dc6dd1a	0.097101405
222	0x3d1ac9ad	0.03778999
223	0xbdcba11a	-0.09942837
224	0x3e44785a	0.19186535
225	0x3db251d4	0.08707014
226	0x3e2957cb	0.16537397
227	0x3db36e2b	0.08761247
228	0x3e7cd798	0.24691617
229	0x3d22add2	0.03971655
230	0x3e6c3f86	0.23071107
231	0x3d866eff	0.065641396
232	0x3c8e3b1c	0.01736217
233	0x3e095c53	0.13414125
234	0x3dc92c2f	0.098228805
235	0x3d1d25dd	0.038366187
236	0x3eb0ff39	0.3456972
237	0x3ded1b0b	0.11577424
238	0x3d82354d	0.063578226
239	0x3e81d912	0.25360924
240	0xbe083149	-0.13300051
241	0x3e112901	0.14175798
242	0xbe5ecd56	-0.21758017
243	0x3d9d7cc2	0.07689811
244	0x3e91468e	0.2837414
245	0x3dd6d06b	0.10488971
246	0x3e4bbcd1	0.19896246
247	0x3e100f50	0.14068341
248	0x3e3eb3e2	0.18623307
249	0x3db51594	0.08842006
250	0x3e861aac	0.26192224
251	0x3da5926a	0.08084567
252	0x3e867376	0.26259965
253	0x3e906eda	0.28209573
254	0x3c302be8	0.010752656
255	0x3d10a615	0.03531464

bias_hh_l0 f4 [256]
0	0xbd2be972	-0.041970678
1	0x3d063ef6	0.032774888
2	0x3d8c6261	0.06854702
3	0x3e93feee	0.28905433
4	0x3e41f1be	0.18939874
5	0xbdda0b62	-0.10646702
6	0x3cd46254	0.025925793
7	0x3d313a51	0.043268505
8	0xbd546d1f	-0.05186188
9	0xbda65d31	-0.081232436
10	0x3de224f6	0.11042206
11	0x3c5d6e1e	0.0135150235
12	0xbdfa3cb1	-0.12218607
13	0x3d883ad3	0.06651845
14	0x3e52b251	0.20575835
15	0xbe3e3523	-0.18574958
16	0x3cdffce1	0.027342262
17	0xbe3a29c9	-0.18180002
18	0x3e8f36f1	0.27971604
19	0x3dbce350	0.09223044
20	0xbd1924a4	-0.03738846
21	0xbd9c8c44	-0.07643941
22	0x3e809185	0.25111023
23	0x3eb3be6f	0.35106227
24	0x3c370d42	0.0111725945
25	0x3d38980e	0.045066886
26	0x3dbcbbc8	0.09215504
27	0xbadd9879	-0.0016906402
28	0x3e6d83ff	0.23194884
29	0x3d62440c	0.055240676
30	0x3e0d8b88	0.13822758
31	0x3db64629	0.08900101
32	0x3e407d60	0.18797827
33	0x3dca648f	0.09882461
34	0x3d7b876f	0.061408456
35	0x3e93f825	0.28900257
36	0x3e46899e	0.19388434
37	0x3dec7038	0.115448415
38	0x3e509353	0.203687
39	0x3d1ed0e0	0.038773417
40	0x3e3d0c46	0.18461713
41	0x3dc5ffe7	0.0966795
42	0x3e56b5c5	0.20967777
43	0x3d81d5bd	0.063395955
44	0x3e1968a6	0.14981326
45	0xbcb9e136	-0.022690397
46	0x3e608c71	0.21928574
47	0xbdcfc660	-0.10145259
48	0x3e038008	0.12841809
49	0x3d498558	0.049199432
50	0xbdc2e07d	-0.09515474
51	0x3de41cf2	0.111383334
52	0x3ec507b1	0.3848243
53	0x3e090900	0.1338234
54	0xbdf7cc12	-0.1209947
55	0x3cfa0394	0.030519284
56	0x3d3f0ad2	0.04664118
57	0x3e01adc4	0.12663943
58	0x3e7332c9	0.23749842
59	0x3df4b107	0.11947828
60	0x3e955335	0.29165044
61	0x3d3fbd53	0.046811413
62	0x3dc40bc3	0.09572556
63	0x3e6d213f	0.23157214
64	0xbd1d8f8c	-0.038466975
65	0xbc160a6e	-0.00915776
66	0xbd16138e	-0.036639743
67	0xbd248593	-0.04016645
68	0xbe067b97	-0.13133083
69	0x3cb1b98c	0.021694921
70	0x3b11f5d4	0.002227177
71	0xbd02aca9	-0.031902943
72	0xbb3a1ac5	-0.0028397304
73	0x3ea4555b	0.3209637
74	0xbd8e4618	-0.06946963
75	0xbca64b7d	-0.020299667
76	0x3d0758eb	0.033043783
77	0x3dc4b77c	0.09605309
78	0x3e10d905	0.14145286
79	0x3dfb53a5	0.12271813
80	0x3d25e352	0.040499993
81	0xbd73d0b5	-0.05952521
82	0x3ce7d29e	0.028298672
83	0x3e14da14	0.14536315
84	0xbe4e3be8	-0.2014004
85	0xbd03a72c	-0.03214185
86	0xbe3b6fcc	-0.18304366
87	0x3dbb1224	0.091343194
88	0x3d5b1650	0.053488076
89	0x3e02d59e	0.12776801
90	0xbce6498d	-0.028111244
91	0x3bee1c13	0.0072665303
92	0xbd7571b0	-0.059922874
93	0x3dcff523	0.10154178
94	0x3c456149	0.01204712
95	0x3cddca12	0.027073894
96	0xbd84bef9	-0.06481738
97	0xbd3458c8	-0.04402998
98	0xbc6be897	-0.014398715
99	0x3d2f1861	0.04274786
100	0x3a80c4a6	0.0009824231
101	0x3c3044ad	0.010758561
102	0xbc02fa6d	-0.0079942765
103	0x3cbaf8a5	0.022823641
104	0x3db6a0f6	0.089174196
105	0x3d0ede87	0.034880187
106	0xbc7f082e	-0.015565915
107	0x3d05f23d	0.03270172
108	0xbe3b87d9	-0.1831354
109	0xbce5e493	-0.028063094
110	0xbcfb1589	-0.030649917
111	0xbe0620d6	-0.13098463
112	0xbc14a456	-0.009072384
113	0x3c329855	0.010900577
114	0xbd98c8e1	-0.074601896
115	0x3dc0cea7	0.09414416
116	0x3ceeaa20	0.029133856
117	0x3d4ad8bf	0.04952311
118	0x3e64d57f	0.22347067
119	0xbcf94640	-0.030429006
120	0xbe210a5a	-0.15726605
121	0xbce76020	-0.028244078
122	0xbd573b7f	-0.052546974
123	0x3d2d426f	0.042299684
124	0xbe53b59a	-0.20674744
125	0xbd1dd91b	-0.038537126
126	0xbc7a9ffa	-0.01529693
127	0xbc24e430	-0.01006417
128	0x3bd12d87	0.006383601
129	0xbc2f4805	-0.010698323
130	0x3d48042e	0.04883211
131	0xbdcc80ce	-0.09985505
132	0xbe8b8eab	-0.27257285
133	0x3d02dbd5	0.03194793
134	0x3c8b76aa	0.017024357
135	0x3c9a7fd7	0.018859787
136	0x3df06cd6	0.11739509
137	0x3a89f79c	0.0010526064
138	0x3e5075a2	0.20357373
139	0x3e68f81c	0.22750896
140	0xbdebae8b	-0.11507901
141	0xbe1d633c	-0.15369886
142	0xbe379664	-0.17928463
143	0x3e5b52bc	0.2141828
144	0xbe29a60b	-0.16567247
145	0x3dd82b01	0.10555077
146	0xbe849ee7	-0.25902483
147	0xbe2455c6	-0.16048345
148	0xbe5776d3	-0.21041422
149	0xbc1227b0	-0.008920595
150	0xbcc050f5	-0.023476103
151	0xbb19d341	-0.0023471864
152	0x3d7b62a6	0.061373375
153	0xbe121513	-0.14265852
154	0x3e65b49e	0.22432181
155	0xbdf9c09a	-0.12194939
156	0x3d62e047	0.05538967
157	0x3e03101e	0.12799117
158	0xbe0deb60	-0.1385932
159	0xbe08142d	-0.13288946
160	0x3d970e2f	0.07375752
161	0x3d90fd81	0.07079602
162	0x3d1c5d77	0.038175073
163	0x3e65445a	0.22389355
164	0x3eac5c5d	0.33664218
165	0xbe628453	-0.2212079
166	0xbdd7b959	-0.10533399
167	0xbe2490ec	-0.16070908
168	0x3d70805f	0.058716174
169	0xbbedf213	-0.0072615235
170	0x3e83a241	0.25709727
171	0x3e41d33e	0.18928239
172	0x3cb08689	0.021548526
173	0x3ea1e6c6	0.3162138
174	0xbdf05b15	-0.117361225
175	0x3d8b7418	0.068092525
176	0x3dad97ac	0.08476195
177	0x3c828817	0.015934033
178	0xbc54440e	-0.012955679
179	0xbe8c58f9	-0.2741163
180	0x3e0d803d	0.1381845
181	0x3dfb35ec	0.12266144
182	0xbd4d6569	-0.05014554
183	0x3d212185	0.039338607
184	0x3da27482	0.07932378
185	0xbccbeaf0	-0.0248923
186	0x3dc411db	0.09573718
187	0x3e4a3353	0.19746141
188	0xbe411639	-0.18856134
189	0x3e2512e7	0.16120492
190	0x3e2bd264	0.16779476
191	0xbe40a25d	-0.18811937
192	0xbba1e483	-0.004940571
193	0x3c87c8c0	0.016575217
194	0x3e45e6e6	0.19326362
195	0x3e5a1f72	0.21301058
196	0x3e67f971	0.22653748
197	0xbd800063	-0.06250074
198	0xbb70d03a	-0.0036745206
199	0x3d4572df	0.048205253
200	0xbe2ad0d5	-0.16681226
201	0xba4fec39	-0.0007931623
202	0x3e60a0f1	0.21936394
203	0x3db16001	0.086608894
204	0x3dd2a19f	0.10284733
205	0x3e21ebb3	0.15812568
206	0x3e3ea780	0.18618584
207	0x3e78cba4	0.24296433
208	0x3e31360b	0.17305772
209	0x3e26e192	0.16296986
210	0x3e51c20e	0.20484182
211	0xbe0ddc17	-0.13853489
212	0x3d313911	0.043267313
213	0xbcee7cc0	-0.02911222
214	0x3e2a89dd	0.16654153
215	0x3ea70c0a	0.32626373
216	0x3dcf9211	0.10135282
217	0x3e840016	0.25781316
218	0x3d8a6206	0.06756978
219	0x3d512c03	0.051067363
220	0xbe26b155	-0.16278584
221	0x3e1296c8	0.14315331
222	0x3d186727	0.03720775
223	0xbdca0ecb	-0.09866103
224	0x3d1f19cf	0.038842972
225	0x3de4a635	0.11164514
226	0x3e0171be	0.12641045
227	0x3e1bd4d7	0.1521791
228	0x3e18d994	0.1492675
229	0x3e5cd091	0.21563937
230	0x3e107422	0.14106801
231	0x3dd3a5a6	0.10334329
232	0x3c220d9d	0.009890941
233	0x3e603aa7	0.21897374
234	0x392ae61a	0.00016298183
235	0x3daf0028	0.08544952
236	0x3eb245c9	0.34818867
237	0x3da6b371	0.081396945
238	0x3d08bab0	0.033381164
239	0x3e3d0d38	0.18462074
240	0xbd0fa9b1	-0.03507394
241	0xbd98e5b4	-0.074656874
242	0xbe65015f	-0.22363804
243	0x3dbaf1dd	0.09128163
244	0x3e8a1ebe	0.2697658
245	0x3e3d5ca2	0.18492368
246	0x3db46ac0	0.088094234
247	0x3d4d97bc	0.050193533
248	0x3e1f071c	0.15530056
249	0x3e3cdf2a	0.18444505
250	0x3e90b214	0.28260863
251	0x3d973f7b	0.07385155
252	0x3eb786b4	0.35844958
253	0x3e89c320	0.2690668
254	0x3dc5626d	0.09637914
255	0x3e185c64	0.14878994

weight_ih_l1 f4 [256, 64]
0	0x3da94524	0.08265141
1	0xbbcd168b	-0.006258791
2	0xbda5ec22	-0.081016794
3	0xbc600967	-0.013674117
4	0x3c8ddabb	0.017316213
5	0x3e300e90	0.17193055
6	0x3c23e260	0.0100027025
7	0x3cfa689f	0.030567465
8	0x3cc6db28	0.024274424
9	0xbe260083	-0.16211133
10	0x3da65d7c	0.081232995
11	0xbd10931d	-0.03529655
12	0x3dddb035	0.108246244
13	0x3d8c431a	0.06848736
14	0x3cb459d4	0.02201549
15	0x3d7b5717	0.061362352
16	0x3ce7cecb	0.028296849
17	0xbd2e8c1f	-0.0426141
18	0xbdab7695	-0.08372227
19	0xbcce29f8	-0.025166497
20	0x3cf2fe52	0.029662285
21	0xbd2274ca	-0.03966216
22	0x3c0b3284	0.008495931
23	0xbe069c88	-0.1314565
24	0xbb725eb3	-0.0036982715
25	0xbd5516ed	-0.052023817
26	0x3d12d534	0.035847858
27	0xbe1d09a5	-0.1533571
28	0x3e09299a	0.13394776
29	0x3de620a5	0.11236695
30	0xbd84ea0a	-0.06489952
31	0x3cb5f2a5	0.022210428
32	0xbc57105b	-0.013126458
33	0xbd096b25	-0.033549447
34	0x3d9b5950	0.075853944
35	0x3d37f15a	0.044907905
36	0xbc7a1669	-0.015264132
37	0xbcf7bf11	-0.030242475
38	0x3d618f4f	0.05506831
39	0xbdca39ee	-0.098743305
40	0xbcb028f1	-0.021503897
41	0xbd8fb3c2	-0.07016708
42	0xbd79e08d	-0.061005164
43	0xbe2b52eb	-0.1673085
44	0x3d1244b0	0.035710037
45	0xbd9072be	-0.07053135
46	0x3cb250bc	0.021767013
47	0x3c93ba21	0.01803309
48	0x3ded9ade	0.11601804
49	0xbca9181f	-0.020641385
50	0xbe1be7bc	-0.15225118
51	0x3cb9a16e	0.022659983
52	0xbe3e5ccb	-0.18590085
53	0xbc42105c	-0.011844721
54	0xbcd2a4af	-0.025713293
55	0xbcc2a47e	-0.023760077
56	0x3d1aa5a5	0.037755627
57	0x3e0ec02a	0.13940492
58	0x3c24f15b	0.010067309
59	0xbe03f367	-0.1288582
60	0xbc3cda2e	-0.0115266275
61	0x3c22f407	0.009945876
62	0x3cacc865	0.02109165
63	0x3c11fc21	0.00891021
64	0x3c9ef7e4	0.019405313
65	0x3ad247d9	0.0016043141
66	0x3d887b40	0.06664133
67	0xbda666cc	-0.08125076
68	0x3e3f427f	0.1867771
69	0xbc8e516e	-0.017372813
70	0x3de04c32	0.10952033
71	0x3e53d1b4	0.20685464
72	0x3d9099c7	0.07060581
73	0xbb276281	-0.002554089
74	0x3de688e7	0.11256581
75	0x3d456080	0.048187733
76	0x3d947251	0.072483666
77	0xbd954bcc	-0.07289848
78	0xbe020d23	-0.12700324
79	0x3e0acd2c	0.1355483
80	0x3d661bc8	0.056178838
81	0x3e15030c	0.14551944
82	0xbd5203d0	-0.051273167
83	0x3d68bf0e	0.05682283
84	0x3d7fe0cf	0.062470254
85	0x3d4220a6	0.047394417
86	0xbd2efb85	-0.042720336
87	0xbdf8bb6e	-0.121451244
88	0x3d7fecf9	0.062481854
89	0x3e24f0fb	0.16107552
90	0x3d413b7e	0.047175877
91	0xbd7c3b32	-0.06157989
92	0x3cd85954	0.026409782
93	0xbcec8cd1	-0.02887574
94	0xbd814784	-0.06312469
95	0x3e149eb6	0.14513668
96	0x3ddedacd	0.10881577
97	0x3dd72fb5	0.10507146
98	0x3d5fdadd	0.054652084
99	0x3e0f10aa	0.139712
100	0xbd89b8e9	-0.06724722
101	0xbe04d6b8	-0.12972534
102	0x3d9b7a47	0.07591682
103	0xbd806f64	-0.06271246
104	0xbdf59b1e	-0.11992477
105	0xbe27d6cd	-0.16390534
106	0xbdd96833	-0.106155775
107	0x3d9ab181	0.075533874
108	0x3c260203	0.010132316
109	0x3df4a1f5	0.11944953
110	0xbe083d30	-0.13304591
111	0xbe198535	-0.1499222
112	0x3d5b7395	0.053577024
113	0x3d1796c2	0.03700901
114	0x3de5f9b9	0.112292714
115	0xbe38bb01	-0.18040086
116	0xbe4d01fc	-0.20020288
117	0x3d52ed43	0.0514958
118	0xbd83986e	-0.06425558
119	0x3b9b95ce	0.0047480827
120	0x3d15e4cf	0.036595162
121	0x3dd79297	0.10526007
122	0x3d1f697e	0.038918965
123	0x3c92c0a2	0.01791412
124	0xbdd88f1c	-0.10574171
125	0xbe13f90f	-0.14450477
126	0x3ccd949c	0.025095277
127	0x3c8230d0	0.015892416
128	0x3d0a87a3	0.03382076
129	0xbc94eab0	-0.018178314
130	0xbd5cc2b4	-0.05389662
131	0x3c7c10dc	0.015384879
132	0x3d83c820	0.06434655
133	0x3e5999ed	0.21250124
134	0x3e1a032d	0.15040274
135	0xbd86a6a0	-0.0657475
136	0xbd1440f9	-0.036194775
137	0xbd8d5d6f	-0.06902587
138	0x3b9f4556	0.0048605604
139	0x3d5881d9	0.052858207
140	0x3e41b06b	0.18914954
141	0x3d9a9897	0.075486355
142	0xbe10d9bf	-0.14145564
143	0x3e2b1427	0.16706906
144	0x3df5720a	0.11984642
145	0xbdb81fa2	-0.089904085
146	0xbdb4243b	-0.08795973
147	0x3ddb73b3	0.10715427
148	0x3dca3f27	0.098753266
149	0x3d4849f5	0.048898656
150	0xbbda7076	-0.0066662384
151	0xbdc66ae6	-0.09688358
152	0x3e00453e	0.12526414
153	0x3d8a3fc2	0.06750442
154	0x3df54fc2	0.11978103
155	0xbdcd4810	-0.100235105
156	0x3e52c632	0.20583418
157	0x3c4b4175	0.012405743
158	0xb9cbe1d4	-0.00038887432
159	0x3e17b140	0.1481371
160	0xbe139def	-0.14415716
161	0xbd4ec0e2	-0.050476916
162	0x3b9ac0e2	0.0047227005
163	0x3e200833	0.15628128
164	0xbe1be22b	-0.15222995
165	0xbd42ac41	-0.047527555
166	0x3db53f52	0.08849968
167	0xbd872f16	-0.06600778
168	0xbd6a4829	-0.057197724
169	0xbe46dba1	-0.1941972
170	0xbe170acc	-0.14750212
171	0x3c22cb4c	0.009936165
172	0x3dfb68de	0.12275861
173	0xbd58c73a	-0.052924372
174	0x3ccb9efa	0.02485608
175	0x3abe92c2	0.0014539587
176	0x3e16200f	0.14660667
177	0xbb4da418	-0.0031378325
178	0xbe0873ba	-0.13325396
179	0x3c805581	0.015665771
180	0xbe2c703a	-0.16839686
181	0xbd7d5e79	-0.061857674
182	0x3c031b28	0.00800208
183	0xbc2909df	-0.010317295
184	0xbad63f3e	-0.0016345752
185	0x3de6c91a	0.11268826
186	0xbdcf1f01	-0.101133354
187	0xbe0aea23	-0.13565879
188	0xbe14a8dc	-0.1451754
189	0xbd55335c	-0.052050933
190	0xbd41cc21	-0.047313813
191	0x3cedc38a	0.029023904
192	0xbd80af11	-0.06283391
193	0x3d9d7602	0.07688524
194	0x3d93cbf8	0.07216638
195	0x3d07c301	0.033144955
196	0xbe6b1d2e	-0.2296035
197	0x3d063762	0.03276766
198	0x364b3f85	3.028633e-06
199	0x3d4c7f08	0.049925834
200	0xbd98cf3a	-0.074614
201	0x3dca62f7	0.09882157
202	0x3da699fb	0.08134838
203	0x3e419c80	0.18907356
204	0xbe12493d	-0.1428575
205	0x3d024c2c	0.031810924
206	0xbd9a1ddf	-0.07525229
207	0x3deb0952	0.11476387
208	0xbd183097	-0.037155714
209	0x3de3c135	0.11120836
210	0xbd2243dd	-0.0396155
211	0xbdf34e59	-0.11880178
212	0xbd904526	-0.07044439
213	0xbd9c5992	-0.07634272
214	0x3e307d1f	0.1723523
215	0x3c614669	0.013749697
216	0xbd6b1549	-0.057393346
217	0xbe179da2	-0.14806226
218	0x3d2595c2	0.040426023
219	0xbd58370c	-0.05278687
220	0x3dae9bfd	0.08525846
221	0xbe17cd58	-0.14824426
222	0xbdd04d7d	-0.1017103
223	0xbdf55ba7	-0.11980372
224	0x3e6129b6	0.21988568
225	0x3d66c750	0.056342423
226	0x3e487b60	0.19578314
227	0x3dab2a52	0.08357681
228	0x3e180306	0.14844903
229	0x3c7cbf61	0.015426488
230	0xbe6b2efe	-0.22967145
231	0x3d71d7af	0.059043583
232	0x3e29e39b	0.16590731
233	0x3d8c052d	0.06836925
234	0x3d1c96d8	0.038229793
235	0xbcbdb4c4	-0.023157485
236	0xbe23fbb5	-0.16013987
237	0x3e467da5	0.19383867
238	0x3cc3680e	0.023853328
239	0xbbd66109	-0.006542329
240	0xbc56660e	-0.013085855
241	0xbcef94cb	-0.029245755
242	0x3d536396	0.051608644
243	0xbd7d87c7	-0.061897065
244	0x3e3d6f58	0.18499506
245	0x3d3f96d9	0.04677472
246	0x3cbd8685	0.023135433
247	0xbd9998f6	-0.07499878
248	0x3e8b531d	0.27211848
249	0x3d55c17c	0.052186474
250	0xbc9eb8f6	-0.019375306
251	0x3d86979c	0.06571886
252	0xbd105f19	-0.035246942
253	0x3e758aac	0.2397868
254	0xbbe75a25	-0.0070603066
255	0x3bc7dcb9	0.0060993102

weight_hh_l1 f4 [256, 64]
0	0x3d2c5cda	0.042080738
1	0x3d806ebe	0.062711224
2	0xbd38adc3	-0.045087587
3	0x3d1d1546	0.038350366
4	0xbcc3c61b	-0.023898175
5	0xbd8bc654	-0.068249375
6	0xbdc5bb92	-0.09654917
7	0xbc623c1f	-0.013808279
8	0x3daa142e	0.0830463
9	0x3b8ab8c9	0.004233454
10	0x3d4539dd	0.048150886
11	0xbda392d9	-0.07986993
12	0xbd060e44	-0.03272845
13	0xbc820c6c	-0.015875064
14	0x3b6719fb	0.0035263288
15	0xb91e6f9f	-0.00015109636
16	0xbd0f7f93	-0.035033774
17	0xbd080cd8	-0.033215374
18	0xbddd6266	-0.10809784
19	0x3cdb74ca	0.026789088
20	0x3bd302d4	0.006439546
21	0xbddcf868	-0.10789567
22	0xb90492ff	-0.00012643261
23	0xbd1b6366	-0.03793659
24	0x3c6b909f	0.014377742
25	0x3cf03c0f	0.029325513
26	0xbde743ee	-0.112922534
27	0xbc97ed0a	-0.018545646
28	0x3b1f6aa2	0.0024325033
29	0xbd06aa6f	-0.032877382
30	0xbd1ea413	-0.038730692
31	0x3d338dbb	0.043836337
32	0x3d867b97	0.06566542
33	0x3d87f2e2	0.06638123
34	0x3c7d9f1c	0.015479829
35	0x3cb04d67	0.021521283
36	0x3d08760a	0.033315696
37	0x3d8f4dfe	0.06997298
38	0xbd149f2e	-0.036284618
39	0xbd4c7503	-0.04991628
40	0x3d6b3965	0.057427783
41	0x3d8050e0	0.06265426
42	0xbd622bc7	-0.05521753
43	0xbbe157c6	-0.0068769185
44	0x3ccfd658	0.025370762
45	0xbb2ae716	-0.002607768
46	0x3ce18a9a	0.02753191
47	0xbc4c3e82	-0.012466075
48	0x3d85fb2d	0.065420486
49	0x3bb17675	0.0054157325
50	0xbc83b5bd	-0.01607787
51	0xbc813dfb	-0.015776625
52	0x3d916caa	0.07100804
53	0x3c18fd25	0.009337698
54	0x3da9283f	0.082596295
55	0xbda4fd7a	-0.08056159
56	0xbdb80bdb	-0.08986636
57	0xbd4508d0	-0.048104107
58	0x3da439a1	0.08018804
59	0x3d8b695b	0.06807204
60	0x3db05e2b	0.08611711
61	0x3d432152	0.0476392
62	0x3bc45b2a	0.005992313
63	0xbd24f291	-0.04027039
64	0xbd079680	-0.033102512
65	0x3d19ff5a	0.037597038
66	0x3d1fafbd	0.038985956
67	0x3c308680	0.010774255
68	0xbcf45daa	-0.029829819
69	0x3d81d80c	0.06340036
70	0x3c71ea36	0.014765313
71	0xbb8b02ff	-0.0042423005
72	0xbc2c0daf	-0.010501309
73	0xbd1920d9	-0.03738484
74	0x3d64f537	0.055897918
75	0x3ca06686	0.019580137
76	0x3d6aca6e	0.05732196
77	0xbd23c81c	-0.03998576
78	0x3bb09695	0.0053890445
79	0x3c88fa5d	0.016720945
80	0x3b10e081	0.002210647
81	0x3c8fe3d8	0.017564699
82	0xbca89584	-0.020579107
83	0x3bac2b68	0.005254198
84	0xbdc7a00d	-0.09747324
85	0xbd87c222	-0.06628825
86	0x3d278acc	0.04090385
87	0x3d015fd2	0.031585522
88	0x3d453abe	0.048151724
89	0xbd53ddab	-0.05172507
90	0x3c91e908	0.017811313
91	0xbdb841c5	-0.089969195
92	0xbd483397	-0.048877325
93	0xbd590c3c	-0.052990183
94	0x3c8f080f	0.017459897
95	0xbd6b8862	-0.05750311
96	0x3d73a6fa	0.059485413
97	0xbce268ff	-0.027637957
98	0xbd02a5c1	-0.031896356
99	0x3d4054c5	0.046955843
100	0xbd82588d	-0.06364546
101	0xbb7354d9	-0.003712943
102	0x3d2cbdb8	0.042173117
103	0xbcc8d767	-0.024516774
104	0xbb2c5d37	-0.0026300678
105	0xbc76ce19	-0.015063786
106	0x3c8e041c	0.017335944
107	0x3d2e34c2	0.042530783
108	0xbd1fb33f	-0.0389893
109	0xbc06906c	-0.008213144
110	0xbdef63f1	-0.11688984
111	0xbd040e79	-0.032240365
112	0xbd32e91d	-0.043679345
113	0x3d1307b5	0.035896022
114	0xbcd00dad	-0.025397146
115	0xb9b87a9c	-0.00035186566
116	0xbc18fee7	-0.009338117
117	0x3dcba569	0.09943659
118	0xbc279915	-0.010229369
119	0xbb14e68c	-0.0022720424
120	0x3ca97060	0.020683467
121	0xbd16a2d4	-0.03677638
122	0xbd1ad88c	-0.03780417
123	0x3c9dfd64	0.019285865
124	0x3d40f0b5	0.047104556
125	0xbca8b7d4	-0.020595469
126	0x3d3cb26b	0.04606859
127	0x3b2e1c29	0.0026567078
128	0x3d669fcf	0.05630475
129	0x3af3cc6a	0.0018600349
130	0xbc812440	-0.015764356
131	0x3d872584	0.065989524
132	0xbde547c2	-0.11195327
133	0x3ba3aae7	0.0049947384
134	0xbdd1e51c	-0.10248777
135	0x3d2fd45a	0.042927124
136	0x3d7c6259	0.06161723
137	0xbcc01cbb	-0.0234512
138	0xbd0da392	-0.03457982
139	0xbda99693	-0.08280673
140	0x3caa922f	0.020821659
141	0xbd9c787e	-0.076401696
142	0x3c6714b9	0.014104062
143	0x3c7cf088	0.0154382065
144	0xbd07b3ed	-0.033130575
145	0x3bba2907	0.0056811604
146	0x3d50a844	0.05094172
147	0x3d1d91b2	0.038469024
148	0x3be04c9e	0.006845071
149	0x3bb259d4	0.0054428373
150	0xbd9e1f76	-0.077208444
151	0xbd7835e6	-0.060598277
152	0x3ce21e0b	0.027602216
153	0x3d59da4c	0.0531867
154	0xbdf107c7	-0.117690615
155	0xbd378e6e	-0.044813566
156	0x3cef641f	0.029222546
157	0x3cae4068	0.021270946
158	0xbc1d098b	-0.009584795
159	0xbb83d1ff	-0.004022836
160	0x3c9b32c1	0.0189451
161	0x3d71094f	0.058846768
162	0x3c6ef9f1	0.014585958
163	0x3d4a23eb	0.04935066
164	0x3d77ab03	0.060465824
165	0x3e2aaa09	0.16666426
166	0xbd50be6f	-0.05096286
167	0x3c60523b	0.01369148
168	0xbd333d98	-0.043759912
169	0x3db8ccb1	0.09023417
170	0x3d59f86a	0.05321542
171	0xbd44be1c	-0.048032865
172	0xbcb9446c	-0.022615634
173	0xbbf7ef97	-0.007566403
174	0xbd463fe8	-0.04840079
175	0xbbe0df8b	-0.006862586
176	0xbc5d5299	-0.013508462
177	0x3d08cb54	0.033397034
178	0x3d198406	0.037479423
179	0x3cbfca7e	0.023411985
180	0x3d7df5c3	0.062001955
181	0xbcb5d8f3	-0.022198176
182	0x3d52c460	0.05145681
183	0x3d451bd4	0.048122242
184	0x3ba8f87f	0.005156576
185	0xbca074b4	-0.019586898
186	0x3dafd688	0.085858405
187	0xba26f86c	-0.0006369415
188	0xbc1caeaa	-0.0095631275
189	0x3d774fa2	0.06037868
190	0xbd55d03c	-0.05220054
191	0x3cf85123	0.030312127
192	0xbd15713f	-0.036484953
193	0xbd60708a	-0.054794826
194	0x3cab64e5	0.020922134
195	0x3d5d56e1	0.054037932
196	0xbdd3d665	-0.10343627
197	0x3d33fddd	0.043943275
198	0x3d6d6b05	0.05796339
199	0xbcef04d4	-0.029177107
200	0x3d609a41	0.054834608
201	0x3e34a4c9	0.17640986
202	0xbe06532c	-0.13117665
203	0xbcb4dfe0	-0.022079408
204	0xbc98d9f6	-0.01865862
205	0xbdb1d859	-0.08683843
206	0xbc052f94	-0.008129019
207	0xbd9f0748	-0.07765061
208	0xbc40917f	-0.011753439
209	0xbc85242b	-0.016252598
210	0xbdd1c815	-0.10243241
211	0xbdc15515	-0.09440056
212	0xbc1458a3	-0.009054336
213	0xbd65fdb3	-0.05615015
214	0xbd3047f6	-0.043037377
215	0x3cdff882	0.027340177
216	0xbdf2bb56	-0.11852138
217	0x3d0ac0f7	0.033875432
218	0x3dfc9302	0.12332727
219	0xbd3d1ad9	-0.046168182
220	0x3ce318c8	0.027721778
221	0x3c06afa1	0.008220584
222	0xbcb9e5ca	-0.02269258
223	0x3d32eed1	0.043684784
224	0x3d1ef2f4	0.038805917
225	0x3da50d82	0.08059217
226	0x3d461b03	0.048365604
227	0xbba4d3b9	-0.005030122
228	0xbcc3b391	-0.023889335
229	0xbc977538	-0.018488511
230	0x3c65a68f	0.014016761
231	0xbdc8bb43	-0.09801342
232	0x3decc2a5	0.11560563
233	0xbdeb2782	-0.11482145
234	0xbdc8f695	-0.09812657
235	0x3bb56c68	0.0055366047
236	0x3d4742e8	0.04864779
237	0x3db5674e	0.088575944
238	0xbcd188a8	-0.025577858
239	0xbd18a73d	-0.037268866
240	0x3e106ee8	0.14104807
241	0xbdf3e685	-0.119092025
242	0xbcc88b96	-0.024480622
243	0xbbba623a	-0.005687979
244	0xbda0c260	-0.07849574
245	0xbd5f08d2	-0.05445177
246	0xbdb32265	-0.087467946
247	0xbd5e86a1	-0.05432761
248	0xbdb86067	-0.09002762
249	0xbcbe4d47	-0.023230208
250	0x3d5448a4	0.051827088
251	0xbc24cf84	-0.010059241
252	0x3aca4b9a	0.0015433908
253	0xbc25431a	-0.010086799
254	0x3d2f9423	0.042865884
255	0xbbb2d77c	-0.0054578166

bias_ih_l1 f4 [256]
0	0x3e580bd8	0.21098268
1	0x3e02d82a	0.12777773
2	0x3e00a85a	0.12564221
3	0xbd896982	-0.06709577
4	0xbe00b294	-0.12568122
5	0x3c22ea35	0.009943535
6	0x3e000333	0.1250122
7	0x3a9a095b	0.0011752056
8	0x3dffb5f5	0.124858774
9	0x3e512407	0.204239
10	0x3e1a3167	0.15057908
11	0x3e8417a3	0.25799283
12	0x3e67f564	0.22652203
13	0x3d4b8bed	0.04969399
14	0xbd3f8db1	-0.046765987
15	0xbca56d1a	-0.020193625
16	0x3d59ddc4	0.053190008
17	0x3df5ba56	0.119984314
18	0x3d7103cd	0.058841515
19	0x3e2b73e6	0.1674343
20	0x3e779840	0.24179173
21	0xbdbd5ead	-0.092465736
22	0x3dd2d350	0.10294211
23	0x3e57d1c2	0.2107611
24	0x3c102c33	0.0087996
25	0x3d39242c	0.04520051
26	0x3e98e78d	0.2986416
27	0x3d0de431	0.03464145
28	0x3e436a4d	0.1908352
29	0x3d96d96c	0.07365689
30	0x3e8604fb	0.26175675
31	0xbe215856	-0.15756354
32	0x3bb85e28	0.0056264587
33	0xbc712a54	-0.0147195645
34	0x3e435907	0.1907693
35	0xbdd64728	-0.10462791
36	0x3e2db28e	0.16962644
37	0x3dffb71e	0.12486099
38	0x3e733841	0.23751928
39	0xbcca0534	-0.024660684
40	0x3c1dbead	0.00962798
41	0x3e08a6e1	0.13344909
42	0x3d7779ef	0.06041902
43	0x3dc6f680	0.09714985
44	0x3e0ad2df	0.13557003
45	0xbcb0e402	-0.021593098
46	0xbd96e91c	-0.07368681
47	0x3dc62575	0.09675113
48	0x3c6d1981	0.014471413
49	0x3e68503d	0.22686858
50	0x3d0763f9	0.033054326
51	0x3d3dff09	0.0463858
52	0x3de8ecd6	0.11373298
53	0x3d3d2c4d	0.046184827
54	0x3e210dbb	0.15727894
55	0xbdbf7a24	-0.09349468
56	0xbbb081ee	-0.0053865826
57	0x3d9e600e	0.07733165
58	0x3d7feb46	0.062480234
59	0xbdcda44a	-0.10041101
60	0xbc7e2580	-0.01551187
61	0x3d4a0411	0.049320284
62	0x3e64fb9d	0.22361608
63	0xbcc7d018	-0.024391219
64	0x3ddf568b	0.10905179
65	0x3d8c120c	0.0683938
66	0x3e104262	0.14087823
67	0xbd27d3cb	-0.040973466
68	0xbe32fa74	-0.17478353
69	0x3e12f013	0.14349394
70	0x3d9be6ba	0.07612367
71	0xbda7666a	-0.08173831
72	0x3dce62c5	0.100774325
73	0x3da65067	0.08120804
74	0xbe56af33	-0.2096527
75	0x3e75fe6b	0.24022834
76	0x3d8e5f67	0.0695179
77	0xbdec023b	-0.11523863
78	0x3e14a538	0.14516151
79	0x3d69ce55	0.05708154
80	0xbdc0e034	-0.09417763
81	0x3d7a1a85	0.061060447
82	0x3e0c2b9a	0.13688508
83	0x3d23f478	0.040028065
84	0xbd96cf6a	-0.0736378
85	0x3d2ef614	0.042715147
86	0x3cbde77a	0.023181666
87	0x3d89fe77	0.067379884
88	0x3e178a45	0.1479884
89	0x3e82476d	0.2544512
90	0x3e44dbe3	0.19224505
91	0x3dd09f0c	0.10186586
92	0xbdb9409e	-0.09045528
93	0xbc113bc0	-0.008864343
94	0x3e3b9fbc	0.18322653
95	0x3de4fcea	0.11181052
96	0x3d27bf8d	0.04095416
97	0x3dd09f68	0.10186654
98	0x3da831a2	0.08212592
99	0x3d9c5784	0.0763388
100	0x3db3f7cf	0.087875
101	0x3e357b8e	0.17722914
102	0x3d7750ff	0.06037998
103	0x3cb8789a	0.022518445
104	0x3de300e4	0.11084154
105	0xbc1780f5	-0.009247054
106	0x3e7fd891	0.24984957
107	0xbddc1883	-0.10746863
108	0xbcfc5e88	-0.030806795
109	0xbce6d370	-0.028176993
110	0x3e13f3af	0.14448427
111	0x3e04cbcd	0.12968369
112	0x3e6b8361	0.22999336
113	0x3dc8a8d2	0.09797825
114	0x3e035de4	0.12828785
115	0x3d96017f	0.07324504
116	0x3e41eba9	0.18937553
117	0x3dc76a42	0.09737064
118	0x3c831cd4	0.016004957
119	0x3e133f9e	0.14379737
120	0x3d7fe616	0.062475286
121	0xbd894831	-0.067032225
122	0x3dff0f9c	0.12454149
123	0xbd593c0e	-0.05303579
124	0xbcf8f32f	-0.030389396
125	0x3da0b03c	0.07846114
126	0xbe0a644d	-0.13514824
127	0xbe11ef85	-0.14251526
128	0x3d2a6274	0.0415978
129	0x3e4db308	0.20087826
130	0xbd893c98	-0.067010105
131	0x3cce82eb	0.02520891
132	0x3d7a273f	0.061072584
133	0xbe1573f2	-0.14595011
134	0xbe46f330	-0.19428706
135	0xbd99383a	-0.074814275
136	0x3e1e5b91	0.15464617
137	0x3d26988c	0.040672824
138	0x3c48fd91	0.012267486
139	0xbba51448	-0.005037818
140	0x3d070caa	0.03297106
141	0x3d0072fa	0.03135965
142	0x3e41a1b8	0.18909347
143	0xbd78ee8f	-0.060774382
144	0xbe2e95e6	-0.17049369
145	0xbda95b98	-0.08269423
146	0xbd8a78c5	-0.06761316
147	0x3dc08f1c	0.09402296
148	0x3dea3f81	0.11437894
149	0xbd8f5bd4	-0.06999937
150	0x3daa7dae	0.08324753
151	0xbdddcbe4	-0.10829905
152	0x3cc823f0	0.024431199
153	0x3dd01f25	0.1016219
154	0xbc3bb5e1	-0.0114569375
155	0xbdabcc03	-0.083885215
156	0x3dd3b68b	0.10337552
157	0xbdb39143	-0.08767941
158	0xbe2cddf2	-0.1688154
159	0xbc238646	-0.009980744
160	0x3e0b58cc	0.13608092
161	0x3e78c0d6	0.24292311
162	0x3cd52451	0.026018294
163	0x3e00cad4	0.12577373
164	0xbd2a46ab	-0.0415713
165	0x3de30aa6	0.110860154
166	0xbd95e564	-0.073191434
167	0xbe2f337c	-0.17109483
168	0x3df2398a	0.11827381
169	0x3b888269	0.0041659367
170	0xbd4c97ba	-0.049949385
171	0x3ccae957	0.024769468
172	0x3e020866	0.12698516
173	0xbe1e6037	-0.1546639
174	0xbd5f9be9	-0.054592047
175	0xbe12420e	-0.1428301
176	0xbd909ee6	-0.070615575
177	0x3cfb0e7d	0.030646557
178	0xbd5f5a0c	-0.054529235
179	0x3cc500ca	0.024048228
180	0xbb248de3	-0.0025108985
181	0xbda49e80	-0.08038044
182	0x3dab105f	0.08352732
183	0x3c1abc05	0.009444241
184	0xbdde8f14	-0.10867134
185	0xbe104fa7	-0.14092885
186	0x3dc0498d	0.09389029
187	0x3d7236ad	0.059134174
188	0xba2b64a9	-0.0006538132
189	0x3d316541	0.043309454
190	0xbdbd8de3	-0.09255578
191	0x3c8e89e5	0.017399738
192	0x3dc2b947	0.09507995
193	0xbd44ed4a	-0.04807786
194	0x3c05799e	0.008146672
195	0x3c5f14d1	0.013615803
196	0x3d573b86	0.052547
197	0x3e71bd3c	0.23607343
198	0x3e8c5cf6	0.27414674
199	0xbcab9518	-0.020945117
200	0x3e7a6681	0.24453165
201	0x3e4b89a7	0.19876729
202	0x3e585102	0.21124652
203	0x3e23cf03	0.15996937
204	0x3e0b2348	0.13587677
205	0xbe082002	-0.1329346
206	0xbcf9f438	-0.03051196
207	0x3db327de	0.087478384
208	0x3e338b35	0.17533572
209	0x3c8afffd	0.016967768
210	0x3cde0cdc	0.027105741
211	0x3dc253e0	0.09488654
212	0x3e07b54c	0.13252753
213	0xbde1efdb	-0.11032077
214	0x3e8948ca	0.26813346
215	0x3e1ef93d	0.15524764
216	0x3d48e6e0	0.049048305
217	0x3e58ebb3	0.21183662
218	0x3e3342c4	0.17505938
219	0x3d05a107	0.03262427
220	0x3e116d1c	0.14201778
221	0xbbb912b1	-0.00564798
222	0x3e4e5278	0.20148647
223	0xbe123530	-0.14278102
224	0xbe0c7f5e	-0.13720462
225	0x3e01b7d6	0.12667784
226	0x3c916284	0.017747171
227	0x3d4a5aaf	0.04940289
228	0x3e449fd1	0.1920159
229	0x3deceda0	0.11568761
230	0x3d7d9ba4	0.06191601
231	0xbb8ddac1	-0.004329056
232	0x3dec60af	0.115418784
233	0x3ea41037	0.3204362
234	0x3d4681b9	0.048463557
235	0x3e094f2b	0.13409106
236	0x3e6f7205	0.23383339
237	0x3e3ed39f	0.18635415
238	0x3e5b9993	0.21445303
239	0x3c07a53f	0.008279144
240	0x3d32c59b	0.043645483
241	0x3e1f61ad	0.15564604
242	0x3dc9bb41	0.09850169
243	0xbe23b41c	-0.15986675
244	0x3e1ac8a0	0.15115595
245	0x3e4f5201	0.20246126
246	0x3e5def14	0.21673232
247	0x3e546ca6	0.20744571
248	0x3de253a6	0.11051111
249	0x3d2793aa	0.040912308
250	0x3d3d4b57	0.046214428
251	0x3c8cebe6	0.017202329
252	0xbd92474f	-0.07142507
253	0x3dd3d70c	0.10343751
254	0x3e6026e7	0.2188984
255	0xbc89e249	-0.016831534
