Model/model.pth (torch, 350663 bytes, 18 tensors)

lstm.weight_ih_l0 f4 [256, 3]
00000000: d091 21bd 7cb4 7bbd 00aa 4f3a 3a77 8e3d
00000010: ec8d dfbd 1205 c9bd 2048 013d f4bf d13d
00000020: 3eba 83bd 8eee 983d a820 a1bd da6e ba3d
00000030: c89b d93c 785a d23d 3006 05bd 7887 c6bc
00000040: a8d4 353d 000f 413b 303a 73bd 2ab6 f63d
00000050: d030 ad3d f051 5e3c 0ad8 f9bd 905a f93d
00000060: 3429 5f3d 90ec e2bc b6b4 df3d 4c89 fd3d
00000070: 70b5 743d 5065 013c 9867 83bd 80dd e63a
00000080: 8032 debd a8cd 793d 70f6 90bc 1887 d43c
00000090: 188c a63d e0b1 0cbc b8a9 913c b4dd 5abd
000000a0: 60b4 943b c85e 8dbd 203a dc3c 9c14 99bd
000000b0: 7624 c2bd 6cc4 cabd d2b7 913d d0c6 263d
000000c0: 027c fb3d 3e0f d0bd d821 95bd 486f 27bd
000000d0: fe94 e63d 6035 8fbb 30d9 d53d 804a a23a
000000e0: 4c2e 52bd 3e6f f73d c0e3 28bc dece fa3d
000000f0: 6023 273d 6074 013d aa26 fa3d ac75 cd3d
00000100: 9049 6fbc ac6e ecbd 34b1 bdbd f4db d33d
00000110: 800e bebc 144d 8d3d f434 4cbd d070 e7bd
00000120: 004d b73b 009b c3bd 8213 a5bd 8414 503d
00000130: 448b e33d 00ac 7e39 4050 ac3c 1294 9e3d
00000140: d096 f8bd 20b0 a0bc 502f d43c 24e9 e6bd
00000150: 90e1 82bd 8a56 b7bd 7ef4 ff3d 90aa ffbc
00000160: d84a 673d 8044 0fbc 58f1 eabc 02d4 dd3d
00000170: 409e fa3b 70c1 a6bd e0df f73c 9ec0 b7bd
00000180: 7014 5fbc 3c11 01bd 3204 c5bd 8cec d3bd
00000190: c61c 8a3d 2665 e53d 786c 913d 8684 9fbd
000001a0: f465 5e3d e040 90bd d883 c63d f8d5 b7bc
000001b0: 1cb2 583d 14f9 d3bd da1d a83d 68e5 3f3d
000001c0: 4238 c6bd 6a47 c23d 3055 4cbc e03a d6bc
000001d0: 36be e93d d052 edbc f232 a93d c643 893d
000001e0: c2ab f73d f012 fabc f65d acbd 8051 4e3c
000001f0: b4bc 62bd 90e7 c7bc 44b7 04bd 74d1 0ebd
00000200: f6c1 a2bd 2ccf cebd 583b b7bc f432 6e3d
00000210: 8e90 973d a8a6 ba3c c636 cd3d 7090 6bbd
00000220: 54ba 7abd bc33 ecbd c09b 72bb 4089 b43b
00000230: ca28 b4bd e0ec debc 1046 47bd 0029 0ebc
00000240: c874 8dbd c041 1fbc d8a5 f2bc eece a9bd
00000250: 9c4b 013d ea5c 86bd d427 46bd 1ead f03d
00000260: 8228 ffbd 121d fcbd 7e53 b93d 70bf 82bc
00000270: 7436 db3d 04cb e73d c097 2cbd 94d3 21bd
00000280: a09d 943c 341c c93d ee12 febd 8e35 f0bd
00000290: 20a1 873b 845d fabd 10d3 51bd e0b0 9d3b
000002a0: 9cc3 9a3d 42b0 babd d882 d9bc f0ae 133c
000002b0: e481 3b3d ee0b d5bd 9a5f b1bd 80ea bb3d
000002c0: acc5 e13d c297 bfbd 6c1a 5b3d 5050 15bd
000002d0: 905a a13d 5cb0 34bd 663d a5bd c0c7 abbb
000002e0: 0402 b1bd 326d a93d 80a2 7fbd 9c84 0c3d
000002f0: 20e8 9f3b 480f f13c 4039 4ebc 58d3 fbbd
00000300: d000 48bd 1c64 e83d c66e ddbd e84c f73d
00000310: 58c1 8dbc 7061 343c 642e 0dbd 08f1 f5bc
00000320: c69a c9bd 4ceb 0b3d d6d6 f6bd 3c55 d6bd
00000330: c65e dd3d 8002 b1bd 404f a23c 0c9f 133d
00000340: 0030 7f38 7646 9d3d f820 a2bc 0824 2b3d
00000350: 5c26 78bd accb 6cbd 2eba f1bd 2874 4dbd
00000360: c0ca 43bb 7ce7 8c3d 8c2c 533d 0089 003d
00000370: 5033 99bd 985f 393d 0c72 0bbd cea8 a73d
00000380: f6db f9bd 3011 8fbc 2ce2 a0bd c8fa 7cbd
00000390: 4c85 873d 1cdb c2bd ba06 b13d f8e4 a6bc
000003a0: 8e83 983d b621 94bd 6632 b63d aaca b63d
000003b0: d851 013d 8075 3e3d e299 f13d 1c1f b03d
000003c0: 4032 d13d d41a fc3d 2a68 96bd 20be 6abd
000003d0: 9018 83bd 00c5 8bba 48e2 b63c f4a6 e73d
000003e0: bc96 8dbd e86a 0b3d c2a2 c5bd 688b 343d
000003f0: 20a8 a7bc cc2f 323d 00ad 74bc 3875 27bd
-0.0394457 -0.06145142 0.00079217553 0.069563344 -0.10915741 -0.0981542 0.031562924 0.1024169
-0.06432007 0.07467376 -0.07867557 0.091031745 0.02656354 0.10271162 -0.032476604 -0.024234518
0.044392258 0.0029458404 -0.059381664 0.12046464 0.08456576 0.01356934 -0.12199409 0.121754766
0.054482654 -0.027700692 0.1092314 0.12379703 0.059743345 0.00789769 -0.06416243 0.001761362
-0.10849476 0.060987145 -0.017695636 0.025943324 0.081321895 -0.008587331 0.017781124 -0.05343409
0.004538104 -0.06902844 0.026883185 -0.07474634 -0.094796106 -0.09900746 0.07115139 0.040716946
0.12279512 -0.10159157 -0.07281846 -0.04087761 0.11258887 -0.0043703765 0.10441816 0.0012381822
-0.051313683 0.12081765 -0.010308206 0.12246488 0.04080522 0.031605124 0.12214406 0.1003221
-0.014604941 -0.115445465 -0.092623144 0.10344687 -0.023200274 0.06899467 -0.049855188 -0.11300814
0.005593896 -0.09551048 -0.080603614 0.050800815 0.11110547 0.00024287403 0.02103436 0.07743086
-0.1213814 -0.019615233 0.025901467 -0.11274937 -0.06390679 -0.08952053 0.12497805 -0.03120926
0.05646786 -0.008744359 -0.028679535 0.10831453 0.0076482594 -0.08142364 0.03025812 -0.08972286
-0.0136157125 -0.031510577 -0.09619941 -0.10347852 0.06743769 0.11200933 0.07100767 -0.07788949
0.05429645 -0.07043624 0.09693116 -0.022440895 0.052904233 -0.10350242 0.08208819 0.04684964
-0.09678699 0.094862774 -0.012471482 -0.02615112 0.11413233 -0.028970152 0.0826167 0.0670238
0.12093307 -0.030526608 -0.08416359 0.012592673 -0.055355743 -0.02440241 -0.03240134 -0.03486772
-0.07947151 -0.10098109 -0.022367164 0.05815406 0.074006185 0.022784546 0.10020213 -0.057510793
-0.061212853 -0.11533305 -0.0037019104 0.0055095255 -0.087968424 -0.02721256 -0.0486508 -0.008676767
-0.0690704 -0.009720266 -0.029620096 -0.08291422 0.031566247 -0.06560691 -0.048377827 0.117517695
-0.12458898 -0.12310232 0.09049128 -0.015960425 0.107037455 0.11318019 -0.042136908 -0.039508417
0.018141568 0.098198324 -0.12405954 -0.11728965 0.0041390806 -0.12224868 -0.051226676 0.004812345
0.07556841 -0.0911565 -0.026551649 0.009013876 0.04577817 -0.10402666 -0.08660813 0.09175587
0.11024031 -0.093551174 0.053491995 -0.036453545 0.078786016 -0.044113502 -0.080683514 -0.005242318
-0.086429626 0.082727805 -0.06241083 0.034306154 0.0048799664 0.029426232 -0.012586892 -0.1229617
-0.0488289 0.11347219 -0.10812144 0.120752156 -0.017304108 0.011009559 -0.03446807 -0.03002216
-0.09843974 0.034159943 -0.120526955 -0.10465476 0.10809092 -0.08643055 0.01981318 0.03604035
6.084144e-05 0.07679455 -0.019791111 0.04178241 -0.060583457 -0.057811424 -0.11803089 -0.050159603
-0.0029875487 0.0688009 0.051556155 0.031380653 -0.0748049 0.04525718 -0.03404431 0.08186494
-0.12200157 -0.01746425 -0.07855639 -0.0617626 0.06617221 -0.09514448 0.08643861 -0.020372853
0.07446967 -0.07232992 0.088963315 0.08925374 0.031572193 0.046498775 0.11796929 0.08599684
0.102146626 0.123098046 -0.073440865 -0.057310224 -0.06401169 -0.0010663569 0.022324696 0.11311141
-0.06913516 0.0340375 -0.09650184 0.04407826 -0.02046591 0.043502614 -0.014933825 -0.040883273

lstm.weight_hh_l0 f4 [256, 64]
00000000: 1817 d6bd f80d f63d 002c 6dbb e088 bbbc
00000010: 58fb 28bd fa64 bfbd 744a e0bd 30a2 883d
00000020: b418 073d f8ee 9c3c e2a2 fabd 184e 80bd
00000030: 0a04 db3d 0ea3 babd 0093 aabc f83c f9bd
00000040: 488b 1fbd 0094 b03a 001b 973d 0814 d7bd
00000050: 30e6 673c cea4 d3bd c8cf b03d f8ee 303d
00000060: 9e4b 973d be27 8b3d 10f5 733c 80d9 e5bd
00000070: f09d dc3c 0072 a3b9 7871 98bc 2805 043d
00000080: d4c3 1d3d cc48 173d f078 0f3c e63b e53d
00000090: 8c88 ee3d 0094 aa3d c2f9 dbbd 1020 b13d
000000a0: 8855 163d ea5a b43d a4e6 4c3d f88d adbc
000000b0: 9cbb 30bd 801f 5fbc b863 ddbd b8e9 bdbc
000000c0: 08fb a7bc 4808 cf3d 4414 16bd d865 9e3c
000000d0: c02a a63c 5ae8 98bd 9a3e b63d ac6e 2ebd
000000e0: 0861 f7bc d83b f5bc 38d6 a53d 3a7b fc3d
000000f0: 2c03 203d 9881 423d 7e55 ba3d 3857 ebbc
00000100: 7898 c9bd a0e2 cd3d f899 6a3d e09a 043d
00000110: 9887 06bd c87a 163d c0ec 413b 384c e33d
00000120: 0473 923d 384b b9bc 0c1a 1fbd 6ce0 fcbd
00000130: a008 233d a08d e83d 8488 09bd 0a08 8fbd
00000140: 78eb f73d 348a b33d 00f0 383d ecd9 373d
00000150: 7665 d1bd 384a 5fbd a8a7 8d3c d4cc 773d
00000160: a279 c73d 1aaa 83bd 00f0 f53d c4ca 553d
00000170: 3a17 ea3d e0d7 f2bc d8fe 043d 6cff eabd
00000180: 381e 2fbd 2829 af3d 40f7 2c3b 9c00 a83d
00000190: 2ccd e33d 900b d3bd 949d febd c2e7 8ebd
000001a0: 3c3d f6bd 1875 803c 6af9 b0bd d442 5dbd
000001b0: 4090 ff3d 3046 5dbd 0494 193d 1ec7 e7bd
000001c0: e03a 47bc 50bb c43d 4af4 e73d cc7b 35bd
000001d0: a4e0 3b3d 98db e23d 208f ed3b 705a 98bc
000001e0: c87a 8fbd f486 7b3d 5c8a 19bd 9c0e f13d
000001f0: 789b b5bd 9cc8 edbd 102f 263c 8088 e23d
00000200: 48db 9dbc 58c0 25bd 04ad f23d 40ab 563c
00000210: ac1c ea3d f08e ad3d a871 a1bd d2df eb3d
00000220: 36d0 ff3d 8841 833d 5264 e7bd 48a9 153d
00000230: 1824 6abd 30ac bdbd 70d3 863c 5ac9 9d3d
00000240: ac6d e3bd 665d cc3d c606 aa3d 48d8 edbc
00000250: 202e fb3d 00e5 303c 709e 7bbd 6c6c 75bd
00000260: c80f f63c a035 cd3b 909f efbd cabe ddbd
00000270: a87c 73bd 6e4c b8bd 4acd c4bd 301a e93c
00000280: 64be 2ebd 48a4 cc3c 2c8b 12bd 680e 4fbd
00000290: da65 ca3d ec82 a5bd 2045 18bc 18d5 af3d
000002a0: 005a c5ba e400 0f3d d403 6f3d 90f0 533d
000002b0: c423 c43d b849 d2bc dade 8c3d 30dc b23c
000002c0: 6005 4f3d 6e5e 8e3d f0d0 7fbd 58e1 c93c
000002d0: 70d0 adbd 2805 aebc 60bb 9fbd 0045 0ebd
000002e0: da31 acbd ec93 553d 0c92 15bd 10a1 633c
000002f0: 58c8 9fbd 92cb fbbd e8a7 ccbd 10a3 88bd
00000300: e6c7 ea3d 34e0 2f3d 2a1c f43d 206c b2bd
00000310: d65e bd3d ec19 ca3d c06c b13d 38aa 2cbd
00000320: 4890 f43c e084 b8bb 489b 6c3d 7849 efbc
00000330: e031 3fbd f64d fb3d 8028 7bbd e4dd f93d
00000340: b0cd 343c 2004 023d a886 c93c fab9 92bd
00000350: c65f bbbd 9082 07bd 0831 93bd c04f bcbd
00000360: 00aa f43d aaba b6bd 760d d5bd fc81 acbd
00000370: a874 f2bd 7caa 583d e0c9 c9bb c6b4 ffbd
00000380: 44ba f73d 54d1 3fbd d2da 863d 5e33 bc3d
00000390: 1cb1 593d d046 7a3c e86b 103d 6c3c 703d
000003a0: f0be 79bd ba3b dd3d 1edc b33d fcdc 62bd
000003b0: 188f e93c b04e 253d 1480 6a3d ae78 9a3d
000003c0: 8c92 2f3d b037 9bbd 803e 8abd e4e7 0c3d
000003d0: 6842 c03d 3247 aebd 28e1 edbc 680c 5cbd
000003e0: 40a0 35bb 326f 9d3d a465 7b3d fc69 ebbd
000003f0: 0013 70ba 048a 1abd 284b f93c de5e d4bd
-0.104536235 0.12014383 -0.0036189556 -0.022892416 -0.041255325 -0.093454316 -0.10951701 0.0667156
0.032982543 0.019156918 -0.12238099 -0.06264895 0.1069413 -0.091131315 -0.020822048 -0.12169832
-0.03895119 0.0013471842 0.07378197 -0.105018675 0.014154002 -0.103341684 0.08633381 0.04319665
0.0738747 0.067946896 0.01488997 -0.112231255 0.02693078 -0.0003117472 -0.018608794 0.03223148
0.038516834 0.03693466 0.008756861 0.11193065 0.11647138 0.0832901 -0.10740997 0.086486936
0.036702663 0.08806403 0.050024644 -0.02118586 -0.04314767 -0.01361835 -0.108100355 -0.023182735
-0.020505443 0.101090014 -0.03664042 0.019335672 0.020284057 -0.074661925 0.08898659 -0.042586014
-0.030197635 -0.029935762 0.080974996 0.12328191 0.039065525 0.04748687 0.090983376 -0.028728113
-0.09843534 0.10052991 0.057275742 0.032374263 -0.032844156 0.036738187 0.0029590577 0.11098522
0.07150844 -0.022618875 -0.0388432 -0.123474926 0.039803147 0.11355138 -0.033577457 -0.06983955
0.12105459 0.087665945 0.045150757 0.04488556 -0.1022443 -0.05451414 0.017291859 0.060498074
0.097399965 -0.06428929 0.12008667 0.052195325 0.11430211 -0.029643953 0.0324696 -0.11474499
-0.04275343 0.08552772 0.002639249 0.08203241 0.11123118 -0.1030494 -0.124323994 -0.06977798
-0.12023398 0.015680835 -0.08641322 -0.05401881 0.124786854 -0.054022014 0.037494674 -0.113172755
-0.012160033 0.096060395 0.11325891 -0.044307515 0.04586853 0.110770404 0.007249728 -0.018597811
-0.070058405 0.061408 -0.037485465 0.11770365 -0.08867544 -0.11610529 0.0101430565 0.110611916
-0.0192696 -0.040466636 0.11849406 0.013102353 0.1143125 0.08474529 -0.07883006 0.115173
0.12490885 0.064089835 -0.112984315 0.036538392 -0.057163328 -0.09261358 0.016458243 0.077044204
-0.111049026 0.09978752 0.08302073 -0.029033795 0.12264657 0.010796785 -0.061430395 -0.059917852
0.030036822 0.006262496 -0.11700356 -0.10827406 -0.059445053 -0.08998953 -0.09609468 0.02845487
-0.04266204 0.02498068 -0.035777256 -0.05055085 0.09882708 -0.08081612 -0.009293824 0.08585566
-0.0015056729 0.03491296 0.05835326 0.05174309 0.09577134 -0.025669917 0.06878443 0.02183351
0.050542235 0.06951605 -0.062455118 0.024643585 -0.08487022 -0.021242693 -0.07799411 -0.034733772
-0.08407946 0.052143022 -0.036516234 0.013893381 -0.078018844 -0.12294687 -0.09992963 -0.06671727
0.11463909 0.042938426 0.11919434 -0.087120295 0.09246604 0.098682255 0.086633205 -0.04215452
0.029853955 -0.0056310743 0.057765275 -0.029209837 -0.046678424 0.12270729 -0.06131792 0.122005254
0.011035368 0.031742215 0.024600342 -0.071643785 -0.09149127 -0.0330835 -0.07187086 -0.091948986
0.119464874 -0.08922322 -0.10402958 -0.0842323 -0.11838657 0.05289696 -0.0061580986 -0.12485652
0.12096074 -0.04683049 0.065847054 0.09189485 0.05314742 0.015275672 0.035259157 0.058651373
-0.060973108 0.108024076 0.087822184 -0.05538653 0.028510615 0.040358245 0.05725105 0.07542549
0.042864367 -0.07578981 -0.06750202 0.034400836 0.09387666 -0.08509673 -0.029038027 -0.05372277
-0.0027713925 0.076872244 0.06137623 -0.11494824 -0.00091581047 -0.03772928 0.030431345 -0.10369657

lstm.bias_ih_l0 f4 [256]
00000000: 9063 8b3d b483 f83d c093 b5bd e4d2 50bd
00000010: 6ea4 edbd 706c 2a3c 6c2f 40bd 6059 cebd
00000020: b686 edbd 96af f9bd 08d7 9dbd 00be b23a
00000030: 4657 c4bd 9067 0fbc 248c b93d c6eb cabd
00000040: 58e7 39bd 1078 b5bd 2898 0b3d 4cbf 2dbd
00000050: d247 9d3d fc95 39bd 9cdd 00bd b037 62bd
00000060: 26a4 ac3d c0f7 4fbc 00b4 baba 7cc1 3f3d
00000070: cce9 f03d 00a1 24ba 8840 1e3d 32dd 95bd
00000080: b859 ad3c 4a30 f6bd 009b 30bd e6c2 a7bd
00000090: 6a0f f23d 5227 bbbd 1424 5dbd 66a4 a33d
000000a0: 80bb cf3b c4e6 e2bd e81e fa3d 60b9 e23d
000000b0: 9234 8c3d 8e9d bfbd 7c2e 823d 201d d2bd
000000c0: 4c5f cebd 36fe e4bd 2053 8fbb 0c9e f2bd
000000d0: a0c9 0b3c 7873 fabc d610 e53d 7869 e73d
000000e0: 144b e9bd 7e92 edbd 68f3 e4bd 8061 cfba
000000f0: 044d 053d fca0 3d3d 00a3 fc3a 7e7b b5bd
00000100: 223a da3d 7456 153d c86d 28bd fa8c ee3d
00000110: 5626 d83d d859 6a3d 689c 893d 8489 3dbd
00000120: 38ac 18bd 30b3 54bd 4cd3 873d f25a dfbd
00000130: 6ce9 60bd 347a 213d ecc3 8fbd 68a5 643d
00000140: e833 cf3d 8cbb 1ebd f896 a2bd b610 b23d
00000150: 081f b9bd 54c7 813d c0d6 ea3d 1666 af3d
00000160: 6812 683d 04ae e03d 3ce7 8abd f88f 8dbd
00000170: 485b 5d3d 705e 573c 081e 4dbd 24bc e73d
00000180: 64bf 2abd c292 ab3d 948e b5bd 10c8 7a3d
00000190: 6e41 8fbd 64a8 e3bd 6c82 41bd ec65 64bd
000001a0: 6ab4 fa3d 3813 3bbd 3cef 39bd 0a61 d2bd
000001b0: 00e2 dfbd 404c ce3c a075 063d dcb1 df3d
000001c0: 00ca 6c3b a890 71bd 14c1 b8bd ec9f 36bd
000001d0: 7033 76bc d0fe d3bd 8c07 cfbd 6830 0abd
000001e0: bccb a4bd 40bc 0a3d 3090 7b3c c041 fd3b
000001f0: 488b e93c 4851 dfbc da62 f2bd 9c4c 45bd
00000200: c022 30bd c47a 9b3d 0c1a 1fbd 1669 923d
00000210: 4076 e4bb e461 7b3d 563b cd3d d66d 98bd
00000220: 10de 69bc 7096 f9bc c0f8 18bd 201c e03b
00000230: 1c70 ae3d 9867 283d 5886 e43d 64fc 53bd
00000240: a291 c93d 0ee4 d0bd c637 ecbd e086 38bc
00000250: b8ac dbbd 48ff c1bd 4058 a43c 50fa 343c
00000260: 9403 e8bd 382d 91bd d8e5 6abd 7478 dabd
00000270: 8c45 273d 3c54 b1bd 405d 34bc ec4c c13d
00000280: 644d f03d b829 1d3d c694 b0bd 9002 2c3d
00000290: 800a 04bb 1217 993d d46b ec3d 98bf e2bc
000002a0: 844c da3d d090 42bd 90e2 a13c 78b4 33bd
000002b0: d24d ab3d 544e 59bd 30cd bdbc 00c7 543c
000002c0: 50d0 353d d285 fc3d f41a 50bd 8802 45bd
000002d0: 542d ee3d 6002 91bc ecb4 a0bd eab4 f6bd
000002e0: 6418 e4bd 4ccb 9d3d fe4c dabd 68ab cabd
000002f0: e694 cb3d 3c51 50bd d82d 533d 704a a63c
00000300: a0d3 a73d c8c3 94bc 4472 e73d 9047 383c
00000310: 5c9f ce3d 4889 143d 74c9 d4bd 80e1 db3d
00000320: 46e9 bf3d b872 80bc 00d8 eabb 9e98 d93d
00000330: a6f0 cabd 4e3a f3bd fe16 d5bd 826c b73d
00000340: dc0e 8c3d 44e7 24bd 486d 58bd a0ab d5bd
00000350: 6ee7 f43d 46f6 b1bd 303b 9f3d 387e 883c
00000360: 825f ecbd d0fe 7cbd 20a4 9d3b b84a 843c
00000370: 88cb c03c e04f 7ebd 8850 c6bc b8cc 2fbd
00000380: e032 4fbd 18e6 6e3d 4c9f 8d3d 489d ad3d
00000390: 06e4 e4bd 208e f13c 401b 76bd 50d2 323d
000003a0: 1824 823c 7c0b c9bd 9401 0c3d fe44 abbd
000003b0: 4430 afbd f065 7abc 1893 10bd 0cbf f53d
000003c0: 188c 23bd d4cb 553d ae25 973d a0fa 0f3d
000003d0: d0d0 b6bc c026 f0bd 4abb babd 74b9 a3bd
000003e0: a801 7d3d 28ba 8f3c b675 8f3d 5c95 bdbd
000003f0: dcb5 f53d 38f9 273d 2eb2 f5bd 7028 d03c
0.068060994 0.121344954 -0.08866072 -0.05098237 -0.11603628 0.01040183 -0.046920225 -0.10075641
-0.1159796 -0.121916935 -0.077070296 0.0013636947 -0.095869586 -0.008752719 0.09059933 -0.099082515
-0.045386642 -0.08860791 0.034080654 -0.042418763 0.07679714 -0.045309052 -0.031461343 -0.05522889
0.08429746 -0.012693346 -0.0014244318 0.04681538 0.11763343 -0.00062800944 0.03863576 -0.0731758
0.021160945 -0.12020929 -0.04311657 -0.08191471 0.11819346 -0.09138359 -0.053989485 0.07990341
0.0063394904 -0.11079171 0.12212926 0.11070514 0.068459645 -0.09356223 0.063565224 -0.102594614
-0.1007677 -0.111812994 -0.004373923 -0.11846551 0.008531958 -0.030572638 0.11184852 0.112994134
-0.11391273 -0.11600207 -0.111792386 -0.0015821904 0.03254415 0.046296105 0.0019274652 -0.08861445
0.10655619 0.0364594 -0.04112032 0.11647983 0.10554187 0.057214588 0.06719285 -0.046273723
-0.037273616 -0.0519287 0.066320986 -0.10906018 -0.05491011 0.039423183 -0.07019791 0.055821806
0.10117322 -0.038753077 -0.07938951 0.086945936 -0.09039122 0.06336847 0.114667416 0.08564393
0.05665818 0.10970691 -0.06782386 -0.069122255 0.05404213 0.013145074 -0.05007747 0.11315182
-0.04168643 0.08377601 -0.08865085 0.06122595 -0.069949016 -0.11116102 -0.04724352 -0.055761263
0.122414425 -0.045672625 -0.045394167 -0.10272415 -0.10931778 0.025182843 0.03282702 0.10922596
0.0036131144 -0.058975846 -0.09021202 -0.044586107 -0.015026912 -0.10351336 -0.10108861 -0.03373757
-0.08046672 0.033870935 0.015354201 0.0077287853 0.028508797 -0.027260438 -0.11835261 -0.048168764
-0.04300189 0.07591775 -0.0388432 0.0714895 -0.0069721043 0.061372653 0.10021083 -0.074428245
-0.014274135 -0.030467242 -0.0373466 0.0068392903 0.08517477 0.04111442 0.111584365 -0.05175437
0.098422304 -0.10199748 -0.115340754 -0.011262625 -0.10726303 -0.09472519 0.020061612 0.011046007
-0.113288075 -0.07088703 -0.057348102 -0.10667506 0.04083781 -0.086586446 -0.011008561 0.094385
0.11733511 0.038369864 -0.08622126 0.04199463 -0.002014786 0.074751034 0.11544004 -0.02767925
0.106591254 -0.047501385 0.019761354 -0.04387328 0.083644524 -0.053053215 -0.02316913 0.012986898
0.044388115 0.12330212 -0.050806955 -0.048098117 0.116297394 -0.017701328 -0.07847008 -0.12046225
-0.11137465 0.077047914 -0.10659216 -0.098959744 0.099405095 -0.05085872 0.051557392 0.020299166
0.08194661 -0.018159762 0.11301091 0.011247531 0.10088989 0.036263734 -0.10389987 0.1073637
0.09370665 -0.015679702 -0.0071668625 0.106248125 -0.09909181 -0.11876355 -0.10404776 0.08956243
0.06838772 -0.040259615 -0.052838594 -0.104331255 0.11958204 -0.08689551 0.07774961 0.016661748
-0.11541654 -0.061766446 0.004810825 0.01614891 0.023534551 -0.062087893 -0.024208322 -0.042919844
-0.050585628 0.058324903 0.06915149 0.08477265 -0.111763045 0.029486716 -0.06008458 0.0436576
0.015886351 -0.098166436 0.034181193 -0.083627686 -0.08554128 -0.015283093 -0.03529653 0.1199933
-0.039928526 0.05219634 0.07380234 0.035151124 -0.022316366 -0.11726141 -0.09117754 -0.07994357
0.061769158 0.01754482 0.070048735 -0.09257004 0.119975775 0.041009158 -0.11996876 0.025409907

lstm.bias_hh_l0 f4 [256]
00000000: 4899 fd3c f0bc 24bc 00f5 2ebc b0a5 4bbd
00000010: 702a 24bc 1026 1ebc e4ec 3ebd 34ff 4f3d
00000020: 8cfa 75bd b8cc c8bd e466 de3d 10fb ccbd
00000030: b84f d5bd 9a23 d0bd 02ff b7bd 0aa9 92bd
00000040: d401 9bbd 00bd 2bbd 48dd ccbc 564d e2bd
00000050: b84e 293d e424 de3d 9a9f b43d 0ca8 ec3d
00000060: 382d f3bd 363e 8a3d 28bc 13bd 448a d73d
00000070: ee5e c4bd 648a 1b3d a089 8e3c 34ed 5ebd
00000080: f06f a93d e81c 503d d02d b3bd 4c03 d2bd
00000090: b8f4 45bd e8cb 483d 68d3 8b3c 82d5 cc3d
000000a0: 2015 efbd a280 e33d e0b8 d9bc f0e5 babd
000000b0: 02dc e63d 56d3 de3d 00b8 82bb 90de ca3c
000000c0: 988a a5bd 3092 f9bd d47f 033d c076 9a3d
000000d0: 6c70 343d 885f 86bd c82a bbbd f42b 7ebd
000000e0: b84b 6abd bc5b c43d 6473 5fbd 0816 5a3d
000000f0: 72ce df3d 1043 6f3c 701b ba3d 74d4 7abd
00000100: c038 23bd ec1d 1c3d 8405 8f3d 3c55 d6bd
00000110: 0875 8c3d 5601 b6bd 0cf5 8e3d 923e d13d
00000120: 1037 fdbc 50a7 c3bc 1c30 5a3d 4011 4fbc
00000130: 56bc a0bd 24d0 d0bd 388f ed3c 804f 37bd
00000140: 2033 33bc ce84 873d 402a 213b 6c37 fc3d
00000150: 40bc 623b 9886 553d 7058 13bd a4a3 58bd
00000160: c8d4 d53c 3ef9 c13d d604 9ebd 1050 0ebd
00000170: 30ec c53c 40aa f23c ac30 99bd 3e93 a73d
00000180: c0ea a7bd 20c0 663c 04af c6bd 52c7 ca3d
00000190: 24f3 623d 20c5 ecbc 12d4 a53d 0000 0237
000001a0: 9018 2cbc 5871 e3bd 0068 bcbb 741c d93d
000001b0: 004c c03d 6044 ae3d a292 e03d d42d bfbd
000001c0: 2412 6dbd a0c7 bd3c e819 1dbd b088 37bd
000001d0: 5e81 cb3d 2abe a13d 8477 0f3d 78b1 f6bc
000001e0: 3a51 9fbd 70f7 713d ac56 9abd ac5f 053d
000001f0: b49f 343d 302a 073d 78ff 8a3d 7cc9 dc3d
00000200: d038 ff3c 4087 63bb 80d0 b73d 9495 38bd
00000210: 6077 713c 10be adbc 4032 5dbb 5024 15bd
00000220: cc40 b1bd 600d 7b3c 7cb7 ba3d 7243 b4bd
00000230: c0dc 313b 1896 443d c894 ad3c 488c 0e3d
00000240: a04b da3b 6042 c2bb 5cee 1fbd acb8 f5bd
00000250: 2ce6 683d fc7a ea3d 9607 9e3d 6046 743d
00000260: 409b 593c e873 803d 5aaa f3bd d059 0cbc
00000270: 9684 9f3d 188f 933d e0a6 f43c 3a89 b7bd
00000280: e834 4d3d 4800 21bd 222b e43d e048 5cbc
00000290: 4415 1cbd c818 ff3d baf5 a23d 982f fa3c
000002a0: 54a5 cb3d ae89 bbbd d8cd aa3c a06a 483d
000002b0: 085f f0bd 00c3 f5bb 9288 ae3d 38ab 593d
000002c0: ca83 d73d d4ff c8bd 80c8 c93c 423f c23d
000002d0: 5486 a23d 4099 d9bb 189b 493d 22b0 8fbd
000002e0: 14ba f53d e6e3 e63d cacf ddbd 2602 943d
000002f0: 1cfa 1cbd 5222 9b3d b686 fa3d 9c52 00bd
00000300: e689 f63d e0f2 18bc 00fe beba 34f9 d8bd
00000310: f8c9 fabd 4c9f 23bd 1aaf e23d 8c5b 623d
00000320: de6e ecbd 2ed2 f13d 6c5f dbbd 5065 cebd
00000330: 983b 85bd 10e0 0f3c 001a 6bbc 843c 52bd
00000340: dc82 9b3d 383b 843d 2425 9a3d cc1f ccbd
00000350: 7c63 82bd c0e2 533c 0026 503c 32e8 b3bd
00000360: a093 69bd a86e c9bc 6000 d63b 46d5 c83d
00000370: 6876 85bd 5277 db3d 8066 df3a 7873 a1bc
00000380: cc9a b23d 143b 6a3d d253 89bd aa27 873d
00000390: 427c eb3d 8c72 143d b646 b2bd 00a3 62bc
000003a0: 4c64 6dbd 1883 85bd e893 78bd 64e2 acbd
000003b0: 76d0 bfbd a452 babd 4ab7 d7bd 1808 4abd
000003c0: f41b 7e3d 34f0 323d ce65 84bd 90f1 6cbd
000003d0: ec29 00bd 2e92 e8bd 800b b1ba 42d7 b53d
000003e0: 92f5 c4bd 8083 083d 0c92 0c3d f682 f73d
000003f0: 72b4 eb3d 3c14 89bd 6897 a9bd 8c4f e03d
0.03095688 -0.010054812 -0.01067853 -0.04971856 -0.0100198835 -0.0096526295 -0.046612635 0.05078049
-0.060053393 -0.09804672 0.108594686 -0.10008824 -0.10415596 -0.101630405 -0.08984186 -0.07161148
-0.07568708 -0.04192829 -0.025007859 -0.11049907 0.041334838 0.1084688 0.08819504 0.1155549
-0.11873859 0.06750147 -0.03606811 0.10524419 -0.09588419 0.037973776 0.01739961 -0.054425433
0.082733035 0.050808817 -0.087489724 -0.10254535 -0.048329085 0.049022585 0.01706858 0.10001661
-0.11673951 0.11108519 -0.026577413 -0.09125888 0.11272432 0.10880153 -0.0039892197 0.02476433
-0.08083075 -0.12186086 0.03210433 0.07542181 0.044052526 -0.0656119 -0.09139019 -0.062053636
-0.057201117 0.095878094 -0.054553404 0.053243667 0.10928048 0.014603391 0.090872645 -0.061237767
-0.039849043 0.038114473 0.06983474 -0.10465476 0.068582594 -0.088869736 0.06980333 0.102170125
-0.030910045 -0.023883492 0.053268537 -0.01263839 -0.07848422 -0.1019595 0.028998956 -0.04475355
-0.010937482 0.06617127 0.0024591833 0.123152584 0.003459707 0.05213031 -0.035973012 -0.052890435
0.026102439 0.09471367 -0.07715766 -0.034744322 0.024160475 0.029622197 -0.074799865 0.08182381
-0.08199072 0.014083892 -0.0970135 0.099012986 0.05540766 -0.02890259 0.0809709 7.748604e-06
-0.010503903 -0.11105603 -0.0057497025 0.1060113 0.09389496 0.08509135 0.10965468 -0.09334913
-0.05787863 0.023166478 -0.038354784 -0.04480809 0.09936784 0.07897599 0.03502609 -0.03011392
-0.077791646 0.059073865 -0.075360626 0.032561943 0.044097617 0.032999218 0.06787008 0.107806176
0.03115502 -0.0034718066 0.08975315 -0.045064524 0.014737934 -0.021208793 -0.0033751875 -0.036411583
-0.08654937 0.015323013 0.09117028 -0.08801927 0.0027139634 0.047994703 0.021189108 0.03480175
0.0066618472 -0.0059283227 -0.039045677 -0.11998114 0.056860134 0.11449239 0.07716291 0.059637427
0.013281643 0.06272107 -0.11897726 -0.008566335 0.07788961 0.07205027 0.029864728 -0.08961721
0.050099283 -0.03930691 0.111410394 -0.013445109 -0.038106218 0.124558985 0.07957025 0.030540273
0.09943643 -0.0915712 0.020850107 0.04892981 -0.11736876 -0.0075000525 0.085221425 0.053141803
0.10523184 -0.0981442 0.024631739 0.09484722 0.07935777 -0.0066405833 0.049220175 -0.070160165
0.11998382 0.11273937 -0.10830648 0.07226972 -0.03832446 0.075749055 0.12232725 -0.031328782
0.12038021 -0.00933525 -0.0014571548 -0.10594407 -0.12245554 -0.03994684 0.11068554 0.055263087
-0.11544584 0.11807667 -0.1071156 -0.100779176 -0.06505507 0.008781448 -0.014349461 -0.051327243
0.07593319 0.064566076 0.07526615 -0.09967002 -0.063666314 0.012932479 0.012704372 -0.08784522
-0.05702555 -0.024588898 0.0065308064 0.09806304 -0.06516725 0.10716118 0.0017044097 -0.01970838
0.087209314 0.057185248 -0.067054406 0.06599362 0.1149831 0.036242053 -0.08704893 -0.013832808
-0.05795698 -0.06519145 -0.06068793 -0.08441618 -0.09365933 -0.09097794 -0.105330065 -0.049324125
0.062038377 0.043686107 -0.0646473 -0.05784756 -0.03128998 -0.113560066 -0.0013507456 0.08878948
-0.09617151 0.033328533 0.03431897 0.12085526 0.115090266 -0.066933125 -0.082808316 0.10952672

lstm.weight_ih_l1 f4 [256, 64]
00000000: 60f1 a1bb 78f6 9d3d 9c90 253d 0007 b33a
00000010: 3a6a e23d 6c4e 3dbd b4d0 4e3d 7671 a8bd
00000020: 2065 d93d d4f0 85bd c0be 5cbb f85a f23d
00000030: c00c af3c 304d b43d 7e6f c13d 36bb a53d
00000040: 80d0 363b f481 c2bd c877 ea3c 268f e63d
00000050: 809d e83a 688b 293d 2a39 fc3d 6cc3 543d
00000060: 1099 d3bc e0d9 2b3d 5093 713c e4fd 673d
00000070: b0fc c73d 80f5 7bbb 24a3 643d 8042 7bbc
00000080: 604b a03b 003f 51bd 2cd1 0e3d ec40 a9bd
00000090: 16f3 ef3d c2f1 99bd 5844 7e3d 18ba 8cbd
000000a0: b805 b73c 3414 31bd f02f 5fbd e6bf be3d
000000b0: be67 f33d c2c2 b5bd e61c c9bd 0224 da3d
000000c0: 061c d33d 248e 1b3d 44df 563d 4217 d23d
000000d0: 1c08 20bd 906e e6bd 4021 a23d 0051 c5bb
000000e0: cccd 3c3d 8ed4 db3d 5883 bb3d e026 d83d
000000f0: 9c42 d63d d8e4 bf3c d8e2 843d 1869 5d3d
00000100: 0618 f93d 003f 473c 2c44 173d 0094 84bc
00000110: 7abd 853d e86f 5d3d 2a14 9a3d a801 7c3d
00000120: 90a3 77bc c0a0 8e3b 001b ad3c f025 b23d
00000130: d45c 98bd 307c 75bc e480 6cbd 8068 65bc
00000140: f854 53bd 801a f73b e82a c03d 8080 983d
00000150: 2449 02bd 4c6b 00bd aa6e debd e455 bc3d
00000160: 168a f33d 50ab d6bd d082 b53c de0c b03d
00000170: c2e4 d5bd 6c38 96bd 18ae 1b3d 3014 923d
00000180: 0ac8 ad3d 58ab 923d ca39 d1bd 0631 f0bd
00000190: 76f2 eb3d 8acb d0bd b0e4 823d ce23 d2bd
000001a0: fed7 febd c62a a1bd 5868 44bd 0476 143d
000001b0: dc24 0cbd 000f a1bd 58c9 a5bc 6054 40bc
000001c0: d2cd 8c3d 3022 083c 68e9 2c3d da3b a03d
000001d0: 204a 7b3c 2814 6b3d a26c 8c3d c2ee f03d
000001e0: de9d fc3d 807a 65bb 022b 8e3d b86a a9bc
000001f0: 7817 94bd fce1 b93d 2042 a8bd b6e5 a0bd
00000200: fa24 de3d ae22 e4bd c0fd 7d3c 0e88 efbd
00000210: 207a fabb e21d 99bd 80ac 0cbc 7c26 ea3d
00000220: 548f 29bd 8c99 153d 0c32 41bd 889f afbd
00000230: e405 cbbd a037 d93c 54e0 42bd 4826 f2bd
00000240: 8091 643c 541f a83d 3081 b6bc 0e5c a53d
00000250: 80cc 1ebd 10e6 563c 0055 b9bc 6e86 febd
00000260: 6016 8bbc 00c3 b23a 8c7b 46bd 62d9 c0bd
00000270: 4875 9e3d 90d4 b1bd 80c2 88bb aecb b73d
00000280: 20dc bf3b b0db 31bc a882 c63c 4a93 e2bd
00000290: 2852 39bd c01b ce3d 64d0 cf3d e82d 563d
000002a0: 8a01 a3bd e086 993b 64ca 5fbd 08fa f7bc
000002b0: be98 efbd 4a0e 83bd 0005 783c 8876 4e3d
000002c0: 14d9 9e3d a054 f4bd 76ee babd 54dc afbd
000002d0: 00e4 fdbd a457 d8bd 9216 833d 4a53 96bd
000002e0: d820 13bd 001c ce3b 5006 ddbc ca58 b23d
000002f0: 8c2b 26bd 388a 97bd be18 bfbd b4a9 ff3d
00000300: 5600 a3bd a2c4 943d 68bf 673d 3a03 f43d
00000310: 18ee b63c e0a4 1abd 0a10 b53d fe60 c0bd
00000320: ceef d0bd e09b d53c 70a2 f83c 24e1 3fbd
00000330: 466a 9a3d 2cb4 24bd 9602 cdbd fc70 2dbd
00000340: ba02 8a3d 2a0a a33d e03f 36bd ec53 35bd
00000350: a851 d1bd e4ef b53d d0ce 0dbc ced4 cd3d
00000360: 007d 61bd a0bd aabb 780b f53c 5662 89bd
00000370: 0c28 d0bd bc33 47bd e0d8 da3b b627 98bd
00000380: ba88 d83d c88d 01bd 8a85 f53d b888 ef3d
00000390: acc6 34bd c0ac 153b 608a 83bd 9011 82bc
000003a0: 385e fbbd 14cc dc3d 5431 c2bd 80ce 11bc
000003b0: c28f fc3d f4f7 673d 183b 073d 4458 f1bd
000003c0: 00a6 583a d2d1 d6bd d453 7e3d 34b7 9abd
000003d0: 721a 96bd dcf3 1f3d bcb1 a23d c871 f23d
000003e0: 2230 a43d 3094 653c eca1 4dbd 0014 9f3d
000003f0: 8ed6 d63d 885e d03d e21d a2bd 5cdb 83bd
-0.004942104 0.07713026 0.040421113 0.0013658702 0.11055417 -0.046217367 0.050492004 -0.08224766
0.10614991 -0.06540075 -0.0033683032 0.11833757 0.021368384 0.08803785 0.094450936 0.08092348
0.0027895272 -0.09497443 0.02862157 0.11257772 0.0017747134 0.041392714 0.12315591 0.05194418
-0.025829822 0.04195583 0.014744595 0.056638613 0.09764993 -0.003844589 0.055819646 -0.015335679
0.004891798 -0.051085472 0.03486745 -0.08264336 0.11716287 -0.07516815 0.062076896 -0.06871432
0.022341594 -0.043232158 -0.054489076 0.093139455 0.118850216 -0.08875038 -0.09819965 0.10651399
0.103080794 0.037977353 0.052459016 0.10258342 -0.039070234 -0.11251557 0.07916498 -0.006021619
0.0460947 0.10733901 0.09155911 0.1055429 0.104619235 0.02342455 0.064885795 0.054055303
0.12162785 0.012161016 0.03693025 -0.016183853 0.065302804 0.0540618 0.07523377 0.061525017
-0.01511468 0.004352659 0.021131039 0.08698642 -0.074395806 -0.014983222 -0.057740107 -0.0140019655
-0.051594704 0.007541001 0.09383184 0.074463844 -0.031808034 -0.031352326 -0.10860951 0.0919607
0.11891572 -0.10481894 0.022157103 0.08596204 -0.10444023 -0.0733498 0.038007826 0.07132757
0.0848542 0.071615875 -0.102161005 -0.117281005 0.11520855 -0.10195072 0.06391275 -0.102607355
-0.12443541 -0.078694865 -0.047951072 0.03624536 -0.03421484 -0.07864189 -0.02023761 -0.011738867
0.068751946 0.008308932 0.04221478 0.07823916 0.015337497 0.05739227 0.068566576 0.117642894
0.12334798 -0.0035015643 0.06941797 -0.02068077 -0.07231039 0.09076306 -0.08215737 -0.07856314
0.108468965 -0.11139427 0.015502393 -0.11695872 -0.007643953 -0.07476403 -0.008586049 0.114331216
-0.041396454 0.036523387 -0.04716687 -0.0857535 -0.09913233 0.026515782 -0.047577217 -0.11823708
0.0139507055 0.082091 -0.022278398 0.08074199 -0.038769245 0.013116375 -0.022623539 -0.12427984
-0.016978443 0.0013638437 -0.048457667 -0.094164625 0.077372134 -0.08683121 -0.004173577 0.08974396
0.0058550984 -0.0108556 0.024232224 -0.110632494 -0.045244366 0.10063887 0.10147169 0.052289873
-0.07959278 0.004685268 -0.054636374 -0.030270591 -0.11699055 -0.0639921 0.015137911 0.05040601
0.07756248 -0.119302034 -0.09127514 -0.08586946 -0.12397003 -0.10563591 0.06400789 -0.07340105
-0.035919994 0.006289959 -0.02698055 0.087083414 -0.040568873 -0.0739941 -0.09330891 0.1248354
-0.079590484 0.07264067 0.056579024 0.11914678 0.022330329 -0.037754893 0.0884095 -0.093935
-0.10201989 0.026075304 0.030350894 -0.04684557 0.07539801 -0.040210888 -0.10010259 -0.04234408
0.06738801 0.07960923 -0.04449451 -0.044269487 -0.10220653 0.08883646 -0.008655265 0.10050355
-0.05505085 -0.0052105933 0.029912695 -0.06708209 -0.10163888 -0.048633322 0.0066786855 -0.07429449
0.105729535 -0.031629354 0.11988361 0.11695999 -0.04413478 0.0022838563 -0.06422877 -0.015877515
-0.1227383 0.10781112 -0.09482065 -0.008899331 0.12332107 0.05663295 0.03301534 -0.117844135
0.0008264482 -0.10489239 0.062091663 -0.075544745 -0.07329263 0.03905092 0.079440564 0.11838108
0.08016993 0.014012381 -0.05020325 0.077674866 0.10490142 0.101742804 -0.07915856 -0.06438324

lstm.weight_hh_l1 f4 [256, 64]
00000000: 0069 223a 00c8 e2bb ecbc a03d da3c 8a3d
00000010: 4072 ca3c aa2a 89bd 281e 763d 8ed0 a4bd
00000020: 6627 823d 5842 0cbd 987b 3a3d 1eee a33d
00000030: 4040 bcbd 7882 d53d f032 aa3c cc2c 933d
00000040: 6020 423c 786a 0c3d 204e f73b 3669 aa3d
00000050: 783b 7d3d eeb8 dfbd 3c20 0fbd 3898 53bd
00000060: 3ae2 f03d 80aa 8dba c05b 573c 082d 413d
00000070: bad8 8bbd 784c 953d cecc f0bd 9ea8 d03d
00000080: 5095 f9bc 062d a1bd 2248 8abd dc05 50bd
00000090: 649c d4bd 8291 8cbd 28c7 a43d 8c07 cfbd
000000a0: c092 ddbc 349c 7fbd 60a1 c53d ea60 83bd
000000b0: a8ae 1a3d 00d4 89bc f87c 193d 5804 f5bc
000000c0: a673 d9bd 30f2 eabc 8862 d9bc 4419 7bbd
000000d0: ca8b b03d 56f9 e53d 7a7d 9e3d 4889 cbbd
000000e0: fc11 b8bd f461 0fbd 82ee 8b3d 2e7d eebd
000000f0: 845d 4d3d 8050 b13c 8eb8 be3d e07e 9fbc
00000100: dc8c bdbd ca90 96bd 004d 3bbd be42 bcbd
00000110: 20d7 c9bb dcff 31bd 90e9 ccbc fc9c c63d
00000120: c49f c93d 7e8c e7bd 8cf2 7c3d 487f b9bd
00000130: 60dc 88bb a07e c73d 00cf 6e3c 6e15 e63d
00000140: 2098 b33b 5068 383c 5c6d fe3d a69e 883d
00000150: b4c2 adbd f89c a33c b08f febd 063b ea3d
00000160: 80b4 523b 085c e7bc a8fc ed3c 80c4 df3b
00000170: 1085 16bc 100e a6bd 2c43 bb3d 50b6 b3bc
00000180: 04d2 1ebd 5099 2cbd e6be de3d 5448 d7bd
00000190: 10ae 77bd 163a 873d 50ce 343c 5e31 f63d
000001a0: 3a8f ecbd 083e bebc 9c04 63bd 60db a63d
000001b0: b2fb c0bd 8e3d 88bd 9e1f e63d f8f3 df3c
000001c0: e04f c73b 541c 543d 20b0 f1bd 8c74 6a3d
000001d0: 0001 90bd 80d7 eb3a b8b5 8a3c 8ecb bf3d
000001e0: 1c3a f6bd 620f aa3d 901d 133c b07f 5d3c
000001f0: b4df c13d 2425 f6bd 38d5 85bc e434 fd3d
00000200: e074 843c 40b2 b0bc 0c97 9dbd e6cb 9abd
00000210: e0a1 8b3c e434 d43d d280 80bd 84e6 b93d
00000220: d69d 9ebd 7656 aa3d 1077 293d 50dc 993c
00000230: 884e dc3c c465 34bd ee7b ad3d 7e98 cabd
00000240: 166c b23d 10c9 f93c 9217 863d ac8e de3d
00000250: 1ee6 9bbd 705b fcbd d2be b93d 24ba 4c3d
00000260: e0d9 b3bc c4c3 1b3d 80af 4bbd 34d2 18bd
00000270: d04d 033d 5e07 9f3d 26d3 b2bd 1258 e83d
00000280: e0d1 f33b b0c8 5b3d 2e13 903d 8ead a33d
00000290: d8d0 58bd 04a9 d63d 5afa d3bd f01c ddbd
000002a0: 74ad 2ebd f058 273c 6ca7 6a3d 5817 34bd
000002b0: 5a36 c03d c2de bf3d 8c54 2b3d 86e9 dabd
000002c0: 3819 513d a8f1 d5bc 8216 e23d 68e7 a0bd
000002d0: e8c1 babd 90e2 c9bd 00bf e2bc 80dd a43d
000002e0: fa4b be3d e4f0 3d3d 78ca a6bd 18d8 2e3d
000002f0: c875 363d 8c25 d6bd 16ce c3bd a027 03bd
00000300: ecdd 3cbd b8db e03c 1015 fe3c 0e99 fdbd
00000310: 6c6e 7abd 2aa6 913d e842 21bd 882f b23d
00000320: d8c9 a2bc 94f4 0abd 10f0 c3bd 2aa4 8f3d
00000330: 3857 a4bd 8023 223c d657 b13d 987a d6bd
00000340: a29f f13d c0f8 63bd 528f 8b3d 2049 403d
00000350: 88ac 38bd 7e60 f23d 84f7 70bd 2891 61bd
00000360: 4827 77bd 6880 a0bc fa12 c2bd 367d b0bd
00000370: a62e b53d da8c e83d 92d4 9b3d f460 9bbd
00000380: 96ba 913d c03d 6b3d 3032 0a3d e2a3 8f3d
00000390: c829 e9bc ba35 c93d e8cb 313d 50d0 c23c
000003a0: 5825 bcbc d0a2 c3bc 82ef d13d fe4a 983d
000003b0: 8a18 873d 2c46 373d 5035 2dbc e02a fc3c
000003c0: 00be ce3d 800c 4f3c 985b da3c 66a1 c7bd
000003d0: 44ac be3d 7a25 debd 56f7 9bbd a070 bebb
000003e0: e85e 593d f489 2bbd 1c9b d73d d697 ddbd
000003f0: f84b b43d 806b bcba 50ef 87bc 4e93 8c3d
0.0006195456 -0.0069208145 0.07848534 0.06749888 0.024712682 -0.06697591 0.060087353 -0.08047591
0.06355171 -0.034242958 0.045528024 0.080044016 -0.09191942 0.104252756 0.020776242 0.07186279
0.011848539 0.034281224 0.007547155 0.08320849 0.061824292 -0.109239444 -0.03494285 -0.05165884
0.11761899 -0.0010808259 0.0131444335 0.047162086 -0.06828447 0.07289976 -0.117578134 0.10188411
-0.030466706 -0.07869916 -0.067520395 -0.050786838 -0.10381392 -0.06863691 0.080457985 -0.10108861
-0.027047515 -0.062404826 0.096499205 -0.06414969 0.03776422 -0.016824722 0.037472695 -0.029909298
-0.10617761 -0.028679937 -0.026536241 -0.061303392 0.08620413 0.11229198 0.077387765 -0.09938294
-0.08987805 -0.035005525 0.06832601 -0.1164497 0.05013801 0.02164483 0.09312545 -0.019469678
-0.092553824 -0.07351835 -0.04572773 -0.091924176 -0.006159678 -0.043456897 -0.025013715 0.09697911
0.09844926 -0.11306094 0.06175475 -0.0905748 -0.0041766614 0.09740949 0.01457572 0.11234556
0.005480781 0.011255339 0.124232024 0.06670885 -0.08484402 0.01997231 -0.1242975 0.11437039
0.0032151043 -0.028242126 0.02905114 0.0068288445 -0.009186998 -0.08108151 0.091436714 -0.02193752
-0.038774505 -0.042138398 0.10876255 -0.10511842 -0.060468733 0.06602876 0.011035517 0.12021135
-0.11550756 -0.023222938 -0.055424318 0.08147311 -0.09423007 -0.066523656 0.11236499 0.027338013
0.00608252 0.05178483 -0.11801171 0.057240054 -0.07031441 0.0017993301 0.016932353 0.09364997
-0.12022802 0.08303715 0.008979216 0.013519213 0.09466496 -0.12018803 -0.016337022 0.12363604
0.016169012 -0.021569371 -0.076948255 -0.07558422 0.017044961 0.103616506 -0.062745705 0.090771705
-0.077449486 0.08317272 0.041373312 0.018781811 0.026892915 -0.044042364 0.08470903 -0.09892367
0.08712022 0.030491382 0.065474644 0.10867056 -0.07612251 -0.12322128 0.09069599 0.049982205
-0.021954477 0.038028494 -0.049727917 -0.03730984 0.03205663 0.07765077 -0.087316796 0.11344923
0.0074407905 0.053658187 0.07034908 0.07992087 -0.052933544 0.10481456 -0.10350485 -0.10796535
-0.042645887 0.010214075 0.057288572 -0.043967575 0.09385367 0.093686596 0.041828677 -0.10689072
0.05104944 -0.026116207 0.11039449 -0.07856637 -0.09119016 -0.098576665 -0.027678967 0.0805006
0.09291835 0.04637231 -0.081440866 0.04268655 0.04454592 -0.1045638 -0.09560792 -0.03202021
-0.04611008 0.02744852 0.031015903 -0.123827085 -0.061140463 0.071117714 -0.039370447 0.08700472
-0.019871637 -0.033924654 -0.09567273 0.07013734 -0.08024448 0.009896159 0.086593315 -0.10472602
0.11798026 -0.05565715 0.068144456 0.046944737 -0.045086414 0.11834811 -0.0588298 -0.055070072
-0.060340196 -0.019592479 -0.09476276 -0.08617632 0.08846788 0.1135499 0.07608904 -0.07586852
0.071156666 0.057431936 0.03373927 0.0701368 -0.028462306 0.09824701 0.04340735 0.023780972
-0.022967026 -0.023881346 0.102507606 0.074361786 0.06596477 0.044744655 -0.010571793 0.030782163
0.100948334 0.012637258 0.026655003 -0.09747581 0.09310201 -0.10846992 -0.07615535 -0.005811766
0.053069025 -0.04187961 0.10527632 -0.10819976 0.088035524 -0.0014375299 -0.016593605 0.06864034

lstm.bias_ih_l1 f4 [256]
00000000: 26a6 e73d 8475 fdbd 7cb8 283d 485a a1bc
00000010: 8406 4b3d 5c93 113d 603e f83b 4056 1c3d
00000020: 7046 c5bd f05d 20bc d4c5 4c3d 30df 86bc
00000030: fe99 cf3d 3c7e 1fbd 4035 453b f0ad 013c
00000040: dced 823d c0ba ccbc 18dc 1b3d 58dc 8bbd
00000050: 90c9 98bc d4a9 db3d e497 073d e866 fdbd
00000060: b68f ed3d c06a 463b 1018 cbbd cc6d e8bd
00000070: 86de 9d3d 0c36 42bd 0275 e2bd ec33 49bd
00000080: c42a ae3d 4233 e9bd 14ef 90bd f05f b2bd
00000090: f208 a13d 26b7 fd3d 4090 053c e0ce 773c
000000a0: 20d6 303c 106f abbd f0c4 4fbc 54ae 2c3d
000000b0: 1016 1cbd caf4 85bd f058 37bd 0895 29bd
000000c0: b079 91bc f425 0d3d cc6b 253d a4e1 383d
000000d0: a88c 81bd fad4 e4bd bce8 aabd 9a2a a93d
000000e0: b01a 5d3c d23a fbbd 5050 05bc 564e 8a3d
000000f0: 50bb 233c 80b6 b6ba c08c db3c 0c03 9fbd
00000100: c08e 2b3b c8f2 fcbc 9cd8 723d 8047 59bc
00000110: b444 e23d 847d 03bd b45b f13d 3c47 f2bd
00000120: cc07 6ebd 0284 aebd 74c8 0c3d 1021 b53c
00000130: 4eeb b43d 8220 acbd 6215 fb3d a823 1a3d
00000140: f06b 85bc 5040 42bc 40d4 30bc bc92 083d
00000150: b45f 3d3d c09b 583c de5b b3bd a0c6 39bc
00000160: 60cf 413c c04c 453d bce1 d4bd 9869 d03d
00000170: cc1f 263d d287 fa3d ceed b13d e441 56bd
00000180: ae71 82bd 420e 8cbd 5006 2abd e0db 713d
00000190: c080 d33b 6834 e2bc 90ba 3a3c ae8e c5bd
000001a0: 209a f43b 4830 593d c406 cd3d 221a 81bd
000001b0: e8cd b8bc 0ae9 90bd 802d 74bd c8ff 8dbd
000001c0: c299 ac3d 08fe af3d 4c7e c0bd a43a 5cbd
000001d0: ba95 bcbd 1c03 a03d 2a27 9f3d 6409 4fbd
000001e0: c85f 773d e029 e0bd f2fd b53d cc16 99bd
000001f0: da89 fbbd e657 b03d d0d3 403c c036 ac3b
00000200: 3690 be3d bc72 113d 2089 98bb 749b 353d
00000210: 002a 9dba 80a2 c9ba 8821 76bd 24c5 353d
00000220: c66f 8fbd d25c 8cbd 4893 51bd c41a d93d
00000230: e002 b2bd b0f3 bfbd ac0f e5bd 0465 39bd
00000240: 002b 193c 5ce7 193d 700d 59bd 625c eb3d
00000250: 4468 36bd f4b7 f53d 9c64 793d 8ce9 9f3d
00000260: d414 283d d82b a73d 6e53 f9bd 20c9 a4bc
00000270: d099 82bc 4cca 863d b2f1 f03d ae8e a83d
00000280: e0f9 eb3b ec91 adbd 22c9 b03d 40a8 163c
00000290: 5064 dabd 4c82 f1bd c07b 06bd 60f4 4d3d
000002a0: 3065 e6bd c8d1 3c3d bc4b bd3d fcc8 cabd
000002b0: 2491 e53d fa64 a73d 6ca9 02bd acc9 7dbd
000002c0: 881d f83c 4074 5ebc 4632 b8bd 702b 39bd
000002d0: 34c4 bf3d ca20 b9bd 10ba 233c 80d3 053c
000002e0: aed4 f1bd b0ba 993d 7c85 e63d 3c5b ebbd
000002f0: 6e37 a7bd b874 f0bc e062 4fbd 5a93 ea3d
00000300: 54f1 f03d 7421 8cbd cc44 903d b200 bbbd
00000310: 00ea 283d 20c6 c43c cc24 123d e058 f43c
00000320: 00aa 593c d0aa 17bd 20f8 b5bc ec8a 6b3d
00000330: acd1 96bd a892 b73c 7e30 f0bd 06f7 fa3d
00000340: 6010 883d 2cf1 4e3d ca15 a13d 30a8 7abd
00000350: 100b 873c f86b a63d 300a 6cbc 0072 68bb
00000360: 60b3 83bd 84a7 19bd 98cf 023d 007a 373b
00000370: 8cc1 84bd c0d7 de3b deab 81bd 8097 723d
00000380: e869 8d3c 9a26 bdbd aa7a b1bd f4a7 d0bd
00000390: 96a9 efbd 9e63 b23d 723b e73d 74c9 b4bd
000003a0: 5efe bbbd ae09 fdbd 16df 9bbd e0d4 08bc
000003b0: 76b7 e5bd f09b db3c d092 e2bd deda d83d
000003c0: 1a38 eb3d 6073 55bd b00f c63d b051 f4bc
000003d0: 684e d23d d43d 233d 2a42 a33d 5e9a 8ebd
000003e0: 7869 90bc aa95 ce3d 127c e03d 70fe 28bd
000003f0: c080 9bbd 3896 253d c2ef e2bd 867f d63d
0.11310987 -0.1237593 0.041191563 -0.01969637 0.04956676 0.035540923 0.007575795 0.038168192
-0.096325755 -0.009788021 0.04999335 -0.016463846 0.101367936 -0.038938746 0.0030091554 0.007915005
0.06393024 -0.024991393 0.038051695 -0.068291366 -0.0186508 0.107257515 0.03310384 -0.123731434
0.11599676 0.003027603 -0.09916699 -0.11349067 0.077084586 -0.047414824 -0.11057474 -0.049121782
0.08504251 -0.1138673 -0.070768505 -0.08709705 0.07863034 0.123884484 0.008152068 0.015125006
0.010793239 -0.08370793 -0.012681231 0.04215844 -0.038106978 -0.065408304 -0.04476255 -0.041401893
-0.01775822 0.034460023 0.040386006 0.045137063 -0.06325656 -0.111734346 -0.08345172 0.08260079
0.013495132 -0.122670785 -0.008136824 0.06753223 0.009993389 -0.0013939887 0.026800513 -0.07764253
0.0026177615 -0.030877486 0.059288606 -0.013261676 0.1104826 -0.032102123 0.11785069 -0.11829993
-0.058112904 -0.08521272 0.034370854 0.022110492 0.08833943 -0.08404638 0.12259938 0.03763166
-0.01628682 -0.011856154 -0.010792792 0.03334306 0.046233848 0.013220727 -0.08757757 -0.01133886
0.011829227 0.048168898 -0.10394618 0.101763904 0.040557668 0.12232937 0.08687936 -0.052308932
-0.06369339 -0.06838657 -0.041509926 0.05904758 0.006454557 -0.02761288 0.011397019 -0.096463546
0.007464662 0.05302456 0.10011056 -0.063038126 -0.022559121 -0.07075699 -0.059613705 -0.06933552
0.084277645 0.085933745 -0.09399089 -0.05376686 -0.092082456 0.07813093 0.07771142 -0.050546065
0.06039408 -0.10945487 0.08886327 -0.07475051 -0.122821525 0.08610515 0.01176925 0.00525555
0.0930485 0.03550981 -0.0046550184 0.044337705 -0.0011990666 -0.0015383512 -0.06009057 0.04437746
-0.07003741 -0.068536416 -0.05116585 0.10600808 -0.086919546 -0.093726516 -0.1118463 -0.04526235
0.009348631 0.037574157 -0.05299133 0.1149223 -0.04453303 0.11997977 0.060886964 0.078082174
0.04103549 0.081626594 -0.12174116 -0.020115435 -0.015942484 0.06581554 0.1176485 0.08230339
0.0072014183 -0.08475098 0.08632113 0.009195387 -0.10663664 -0.1179243 -0.03283286 0.050281882
-0.11249769 0.0460985 0.09242961 -0.09901616 0.11209324 0.081735566 -0.031899855 -0.061959907
0.03028752 -0.013577521 -0.08993964 -0.04520744 0.09363595 -0.09039457 0.009993091 0.008168101
-0.118081436 0.07506311 0.11255929 -0.11492011 -0.08164869 -0.02935253 -0.050631404 0.11453886
0.1176478 -0.06842318 0.07044372 -0.09130992 0.041238785 0.024020255 0.035679623 0.029827535
0.01328516 -0.037028134 -0.022213042 0.057505533 -0.073642105 0.022408798 -0.11727999 0.12254147
0.06643748 0.05052297 0.07865484 -0.061195552 0.016484767 0.08126062 -0.014406726 -0.003546834
-0.064306974 -0.03751327 0.031936258 0.0027996302 -0.06482229 0.0068006217 -0.06331609 0.059226513
0.017262414 -0.09235878 -0.086659744 -0.101882845 -0.11702268 0.08710407 0.11290635 -0.08827487
-0.09179376 -0.12355362 -0.0761091 -0.008351535 -0.11216633 0.026807755 -0.110631585 0.105886206
0.1148531 -0.052111983 0.09670961 -0.029824108 0.10268861 0.039853886 0.07971604 -0.06963037
-0.017628416 0.1008714 0.109611645 -0.041258276 -0.075929165 0.040426463 -0.110808864 0.10473542
